models/model_epoch7.pth (torch, 205023 bytes, 4 tensors)

fc1.weight f4 [64, 784]
000000 75 e9 91 3c fa 1c eb 3c a0 3a 99 bc 4a ec de 3c
       0.017811516 0.02870034 -0.018704712 0.02721228
000010 5e 82 e8 bc d3 46 9a bb 73 5d 1f 3c c3 7d 8e bc
       -0.028382476 -0.00470815 0.00972687 -0.017393952
000020 5d bc 08 bd 85 52 16 3c ea ed f8 bc b8 1c dd bc
       -0.033382762 0.009174948 -0.030386884 -0.026991233
000030 78 06 67 3d a9 48 3f 3d 5b 75 ab 3d 7d 79 01 3c
       0.056402653 0.046700153 0.08371993 0.0079025
000040 4a bd b6 bc 33 64 5a 3c ae aa a7 3c 78 3c ed 3b
       -0.022307057 0.013329553 0.020467129 0.0072398745
000050 6e 37 f8 3b c3 27 bf bc 6e d9 07 3c dc 8c 4f ba
       0.007574967 -0.02333439 0.008291585 -0.0007917413
000060 05 8a 96 3c b7 2c c7 ba 2e 69 8a bc 2c aa f0 3c
       0.01837636 -0.0015195821 -0.016895857 0.02937802
000070 ee e9 04 bb 38 bf e1 3b b7 ac a9 3c 81 55 de 3c
       -0.0020281035 0.00688925 0.02071224 0.02714038
000080 ec c2 98 3c 8a 9c 68 3d ad 9d d4 3d cf 3f d3 3d
       0.018647633 0.056789912 0.10381637 0.10314905
000090 5c d3 bb 3d 12 d4 f3 3d 17 e1 f7 3d 61 bd ee 3d
       0.09171173 0.119056836 0.12103479 0.11657215
0000a0 82 03 8e 3d 78 19 b4 bc da 94 46 bd a6 6e 13 3e
       0.06934263 -0.0219848 -0.0484818 0.14397678
0000b0 27 98 59 3e 98 29 0a 3e bb 47 a4 3d 73 33 35 3e
       0.21249448 0.1349243 0.08021494 0.17695408
0000c0 c0 d3 0f 3e f2 4d 0b 3d 9d 61 c1 3d 7d 8d b6 3d
       0.1404562 0.03400988 0.094424464 0.089137055
0000d0 5e 19 f7 bc 8c 70 e9 bc 75 4f bf 3c de d0 0a 3d
       -0.030163463 -0.02849605 0.023353318 0.033890598
0000e0 43 f6 eb bc dc 65 e9 3a c6 2d 9b 3d 4b b6 c2 3c
       -0.02880395 0.0017806846 0.0757709 0.023768565
0000f0 bf 28 67 3d af ba 2c 3e 60 f3 f1 3d f8 b9 43 3e
       0.056435343 0.16868089 0.11813998 0.1911391
000100 7b 82 b3 3e 19 f9 f0 3e 09 cf c5 3e e5 f0 9b 3e
       0.35060486 0.47065046 0.38634518 0.30457225
000110 79 56 37 3e 7b 6f d0 3d 67 bc e5 3d ce 78 7b 3e
       0.1790408 0.10177513 0.112175755 0.24557802
000120 ce 06 3f 3e 5a 79 15 3e f5 5f 20 3e 71 97 58 3d
       0.1865494 0.14597073 0.15661605 0.0528788
000130 ed da 00 3e 2f 8b 23 3e c3 e3 1b 3e 85 e6 42 3e
       0.12583514 0.15971063 0.15223603 0.19033249
000140 10 f4 75 3e ed 13 12 3e a5 af 77 3b 2a a4 c9 bc
       0.24018884 0.14265414 0.0037793901 -0.024614412
000150 dc 5e 57 39 23 61 0b bd eb 26 4d 3e 8e 73 bf 3d
       0.00020539336 -0.034028184 0.20034377 0.09348212
000160 c1 d9 98 3d 55 fd ed bc 6a 2b 86 3d 0f 6d 9f bb
       0.07463408 -0.029051462 0.06551249 -0.0048652957
000170 d0 3e aa 3c 68 14 36 3e 2a 3a d3 3c 99 8b bb 3c
       0.020781904 0.17781222 0.02578457 0.022893714
000180 cb b5 19 3d c0 12 b9 3d ae 2b 80 bd 7a b5 53 3c
       0.037526887 0.090367794 -0.06258331 0.012921685
000190 79 48 e1 3d d7 08 46 bd 34 59 db 3c 33 62 17 bc
       0.11000151 -0.048348274 0.026775934 -0.009239721
0001a0 82 30 64 be 54 f5 41 3d 63 2d 06 3e 19 57 6b 3e
       -0.2228413 0.047353104 0.13103251 0.22982444
0001b0 fd 5e c0 3d d0 f0 cc 3b 87 bd 7f 3d 93 7c cb bc
       0.093931176 0.006254293 0.062436607 -0.024839675
0001c0 fc 68 1c bc 05 4e d5 bc 58 09 aa bc 02 f0 3d be
       -0.009546515 -0.02603818 -0.020756409 -0.18548587
0001d0 f3 a4 26 bd 14 63 41 3d 77 a1 02 3e eb b1 40 3d
       -0.04068465 0.04721363 0.12756906 0.047044676
0001e0 ee ed c5 3d dd 5b ca 3d db 04 a2 3d b6 4a 17 3d
       0.09664522 0.09880803 0.07911082 0.036936484
0001f0 49 8e 8e 3d b0 6e ba 3c 6b 53 1b 3d 52 19 11 bc
       0.069607325 0.022757858 0.03792135 -0.0088561345
000200 9d 55 61 3d d4 b5 16 bd c4 ee 32 bd e7 81 74 3d
       0.055013288 -0.0367945 -0.043684736 0.059694197
000210 b0 e9 62 3b 07 47 9b bd d6 33 a7 bd 78 dc 1a 3d
       0.0034624152 -0.07581907 -0.08164184 0.03780791
000220 72 f6 dc bd 91 ca 7c bd 07 ab 76 3d b1 e4 45 3e
       -0.10789193 -0.06171662 0.060221698 0.1932552
000230 f0 50 01 3d f3 a8 a3 bc f1 37 01 3e cf 7e ba bc
       0.03157133 -0.019978022 0.12618996 -0.022765545
000240 b3 b0 d4 3d 89 4d 8e 3d ab 63 b5 bc 7b 6a 35 bd
       0.10385265 0.069483824 -0.022142252 -0.044291
000250 35 1e 80 3c dc 46 e4 bb 38 53 13 3b cf 40 95 bc
       0.015639404 -0.006966455 0.0022480022 -0.01821938
000260 d1 a6 8c 3d 16 33 04 ba 4d 86 9b 3d 04 94 71 3d
       0.06867755 -0.0005043013 0.07593975 0.05897905
000270 f3 63 b2 3d 23 a0 f2 3c 40 76 41 bd 11 4e 58 3c
       0.0871047 0.029617375 -0.047231913 0.013202206
000280 bd 0e e0 b9 9b c7 b3 3d e3 3e 3c 3d 31 56 a1 3d
       -0.0004273559 0.08778306 0.04595841 0.07877768
000290 d3 e1 e8 3d 68 f7 30 3d 09 c6 37 3e 81 8f 2f 3e
       0.113711976 0.043204695 0.17946638 0.17144586
0002a0 57 35 b6 bc a2 69 0c 3e a9 10 0e be 06 f8 ec bd
       -0.022242231 0.1371217 -0.13873543 -0.11570744
0002b0 f1 4b 0a bd 44 88 b0 bd bf ca 18 be 57 a7 e8 bd
       -0.03376383 -0.086197406 -0.14921091 -0.113600425
0002c0 86 fc de bd 02 3b c8 bd 24 2c 0a be 38 2f 09 be
       -0.10888009 -0.0977688 -0.13493401 -0.13396919
0002d0 8a d8 f1 bd 65 39 d5 bd e1 cd 81 bd 9c 58 b3 3d
       -0.1180888 -0.10411338 -0.063380964 0.08757135
0002e0 96 c2 8e 3d 1e b8 e6 bc 55 a7 d5 bd fc 6f af bc
       0.06970708 -0.028163966 -0.10432307 -0.021415703
0002f0 7f f5 11 be 3e cb 1c be fc 5f 58 3b 0a ce 1a 3c
       -0.14253806 -0.15311906 0.0033016196 0.009448538
000300 94 6c 00 3e 6e 46 7a 3e 9a 09 8e 3d c8 5c 2c 3e
       0.1254142 0.2444093 0.06935425 0.16832268
000310 31 1d 5c 3c 72 15 7f 3d d0 7b ab bd ac 1f 8d be
       0.013434694 0.06227631 -0.08373225 -0.27563226
000320 ec 5a 3a be 4b 22 3e be 1e 4f 5e be c2 c4 0f bd
       -0.18198746 -0.18567769 -0.21709868 -0.035099752
000330 84 76 b3 bd 28 eb d0 bd 58 81 c3 bd 01 b2 1a be
       -0.087628394 -0.102011025 -0.09546155 -0.15106966
000340 05 dc 15 be 24 4b 9c bd ea 97 98 bb 1b cd 2a bc
       -0.14634712 -0.076315194 -0.0046567814 -0.0104248775
000350 94 9c b5 bb 81 38 d8 bc 11 b1 af bd 3c a5 e3 bd
       -0.005542347 -0.02639413 -0.085786946 -0.111155
000360 02 87 12 be 6f c2 15 bd d7 e6 b9 3b 43 fa cf bd
       -0.14309314 -0.03656238 0.00567327 -0.101551555
000370 19 09 5d bb 54 bb 02 3e 3e 3a 74 3d bf 24 1e 3e
       -0.0033727346 0.12766773 0.059625857 0.15443705
000380 5e 56 66 3d 4d 67 ac 3d 59 ca 6d bd 15 01 17 be
       0.05623471 0.084181406 -0.058054302 -0.14746507
000390 79 e6 0e be 08 b6 14 be af 82 15 be 78 99 0e bd
       -0.13955106 -0.14522564 -0.14600633 -0.034814328
0003a0 1b f4 29 be 8e d7 5e bd 3b 8c 74 bd c2 9c ed bd
       -0.16597025 -0.054404788 -0.059704047 -0.11602165
0003b0 34 18 ad bd 89 fd bd bc f8 2a 4d bd 38 13 26 bd
       -0.08451882 -0.023192184 -0.050089806 -0.040545672
0003c0 aa 9b fc ba 89 9d 27 bd 8b 06 45 be 86 2d 13 be
       -0.0019272466 -0.04092172 -0.19240777 -0.14372835
0003d0 f0 5f d5 bd 1c 90 1e be 03 dc d0 bd a6 ac 22 3d
       -0.10418689 -0.15484661 -0.10198214 0.03971543
0003e0 dd 64 e4 bd db bf f6 bd de e0 cf 3c 41 29 04 3e
       -0.11152051 -0.12048312 0.02537578 0.12906362
0003f0 36 6b 23 3d aa 4c e8 bd cc b7 68 bd d0 da 5c 3d
       0.039897166 -0.113427475 -0.056815907 0.053919613

fc1.bias f4 [64]
000000 a8 54 3e 3d 20 5f 76 3d 6c a3 cd be cf 5d ab 3d
       0.046467453 0.060149312 -0.40163743 0.08367502
000010 1b d3 35 bd 9b 0e 38 be 59 c2 ad 3d 6e bf 98 3e
       -0.04439078 -0.17974322 0.084843345 0.2983355
000020 0f d1 e3 3d 02 74 a5 be 0c 49 ae 3d 8a de 2f be
       0.11123859 -0.3231507 0.08510026 -0.17174736
000030 3b d2 cc bd b3 b4 89 bd 96 33 0b be 20 00 24 be
       -0.10001036 -0.06723919 -0.13593897 -0.16015673
000040 ad 6e 96 bd ba 40 d2 3d 0f d0 91 3e 0b 88 18 3e
       -0.073453285 0.10266252 0.2847905 0.14895646
000050 fc b1 5b be 65 39 11 be c1 e7 84 3e 6a c2 a4 bd
       -0.21454614 -0.1418205 0.25958064 -0.08044894
000060 2a f1 4d 3e 10 fd 2d 3e 69 e6 83 be 83 7d c6 3e
       0.20111528 0.16991067 -0.25761726 0.38767633
000070 0b 24 b5 bd aa 02 ad 3d df 09 99 3e 22 e2 81 be
       -0.08844765 0.08447774 0.29890344 -0.25367838
000080 e1 75 2c be e8 9b 51 bd 2e ca 12 3e a1 cf 0e 3e
       -0.16841842 -0.051174074 0.14334938 0.13946392
000090 8d b1 3e be d9 94 50 3e 2c 35 bf 3e 31 89 84 be
       -0.18622418 0.20369281 0.37345254 -0.2588592
0000a0 b4 a5 94 3d 6c de d2 3d 75 14 a7 bd 45 f7 1a 3e
       0.07258168 0.1029633 -0.08158199 0.15133388
0000b0 4f e6 85 3d b3 ef 6f be 29 e2 0c be 91 e9 37 be
       0.065380685 -0.23431282 -0.13758148 -0.17960192
0000c0 bd 99 85 be b8 09 e1 3b d4 ae 57 be 9e 4d 88 bd
       -0.26093856 0.0068676136 -0.21062785 -0.06655429
0000d0 64 d1 78 3d 59 2f e5 bd a5 19 80 3e 98 05 d5 3b
       0.060746565 -0.111906715 0.25019565 0.006500911
0000e0 34 56 1a 3e 6f 35 e9 3c 7e 0a e4 bd f6 d7 0c 3e
       0.15071946 0.028467862 -0.11134814 0.13754258
0000f0 a5 5e 9e 3c de e1 e3 3c d2 7d 66 3e 1d b9 ea bd
       0.01933224 0.027817663 0.22508934 -0.11461089

fc2.weight f4 [10, 64]
000000 44 be 79 be 08 f5 83 3d 77 df 3e 3e bf c8 0b 3e
       -0.24388987 0.064432204 0.18639933 0.13650797
000010 ff b4 96 be ab ee 18 3e 12 80 8c bd 08 b5 f9 be
       -0.29434964 0.14934795 -0.06860365 -0.48770928
000020 84 98 a0 bd 29 59 10 3e d5 cb c3 be 32 4f 55 3e
       -0.0784159 0.14096512 -0.3824145 0.20830992
000030 bf ca e3 3d d5 64 a2 be b8 d6 03 be 97 ab 87 be
       0.11122655 -0.31717554 -0.12874877 -0.264981
000040 67 53 d0 3d cc 04 b2 bd 22 a3 10 3e 7d b9 bb 3e
       0.10172158 -0.08692321 0.1412473 0.36664954
000050 73 32 a7 3d da 96 cc 3e 42 50 d7 3d 94 54 71 3d
       0.08163919 0.3995884 0.10513355 0.05891855
000060 76 ea 33 bf b1 ea 35 bf 73 76 5c 3e b2 7d 72 be
       -0.70279634 -0.71061236 0.2152956 -0.23680761
000070 55 df 79 3d 52 e5 43 3e a4 d9 b0 3e a2 6e 68 3e
       0.061004 0.19130448 0.34541047 0.22698453
000080 67 03 58 bf 4f 65 20 3e ab de 23 be 2a 67 94 3e
       -0.8438019 0.15663646 -0.1600291 0.28984958
000090 9a 17 30 3e d3 d6 8f 3d cf 8e 8d bd 90 24 5b 3e
       0.17196503 0.07023396 -0.06912004 0.21400666
0000a0 0d 3d aa be 44 6b 46 be 25 98 00 3e 50 99 dc be
       -0.33249703 -0.19376856 0.12558039 -0.43085718
0000b0 55 a7 2a 3d 71 0c 0b be 80 94 2d bc d6 27 94 3e
       0.041663487 -0.13578965 -0.010594487 0.28936642
0000c0 2e 82 98 3e 2d 58 34 3e f5 3d 45 3c 14 f0 76 3d
       0.2978682 0.17611761 0.0120386975 0.06028755
0000d0 16 df 80 be ea 8f 49 be a2 a4 47 bc 7f 17 44 3d
       -0.251702 -0.19683805 -0.012185248 0.04787397
0000e0 ed 67 57 bd 97 be c2 be ef fd da 3d c9 c4 aa 3d
       -0.052589346 -0.38036034 0.10692965 0.08338315
0000f0 73 83 a6 3c 1f 57 58 be ad 97 96 be 7d 44 9b be
       0.020326352 -0.21126984 -0.29412594 -0.3032569
000100 84 41 2c 3e c8 ad 95 3e b6 03 cc be 6a 5e 9e bd
       0.16821867 0.29234147 -0.3984658 -0.07732852
000110 a0 2f c1 3e a5 72 b9 be f7 2b e2 bd 9f 9b f2 3e
       0.37731647 -0.3622028 -0.11043542 0.47384354
000120 7d 78 0d 3e aa cf e8 be 66 f8 a3 be c9 d6 e3 be
       0.13815494 -0.45470935 -0.3202545 -0.44499806
000130 82 3b 26 3e 55 f7 39 be b2 34 3c be 8a 0a 3c be
       0.16233638 -0.18160756 -0.18379477 -0.18363395
000140 49 7c 56 bd 68 d4 20 3e 4f af a6 be 1c 4a 12 3e
       -0.05236462 0.15706027 -0.32555625 0.14286083
000150 b5 c1 19 3d 03 f9 31 3e e8 73 a1 3e 8e 51 17 3c
       0.03753825 0.17380147 0.31533742 0.009235753
000160 a6 bd 16 3e 89 78 8c 3d ef 99 f5 3c 77 93 74 3e
       0.14720783 0.06858928 0.029980628 0.23884378
000170 0f fe 9b be aa 00 9a bd 10 d0 ec 3e ac 3d 5d be
       -0.3046727 -0.07519658 0.4625249 -0.21605557
000180 74 37 9f 3d be 99 df bc 0b 27 f1 3e 5e 5e 85 be
       0.07774249 -0.02729499 0.471001 -0.2604856
000190 d5 a5 48 3e dc fe 63 be 75 fc cb bb a8 78 da be
       0.1959451 -0.2226519 -0.0062251636 -0.42670178
0001a0 be b3 73 3d f2 50 f5 be 88 ef 12 3e d6 93 f5 3e
       0.059497587 -0.4791332 0.14349186 0.47964352
0001b0 cd 7c 0b bf 03 dd c6 bd 95 a9 bd 3d 4c 29 d9 3e
       -0.54487306 -0.097101234 0.09260861 0.4241432
0001c0 31 e3 cf be b4 27 80 3d c4 a0 1c bf 5f 52 37 bd
       -0.4060302 0.06257573 -0.6118281 -0.04475629
0001d0 4f d9 66 3e ca e5 bb 3e 6f 97 61 3e ce c1 da bd
       0.22543834 0.36698753 0.22030424 -0.106814966
0001e0 5d 2d b9 3e d2 52 03 3e 3d 70 da be 92 41 c6 3c
       0.36167422 0.12824562 -0.42663756 0.024201188
0001f0 69 b5 de be 07 7c fa 3d 54 3a 64 3e 5f 20 09 3e
       -0.4349778 0.122306876 0.22287875 0.13391255
000200 1f 7d a1 3e 00 83 8b 3e 24 65 0e be 3b 74 be 3e
       0.31540772 0.27248383 -0.1390577 0.37198052
000210 a1 20 c1 3e c2 7f 34 bd 0f 63 a8 be 80 8c 0c be
       0.37720206 -0.04406715 -0.32888076 -0.13725471
000220 09 71 f6 bd ac 65 3d be 30 fd 8d be af e6 28 3e
       -0.120332785 -0.18495816 -0.2773223 0.16494249
000230 4e cf a7 3d be 59 43 3e 5f bc 61 3d ac cd 11 3e
       0.08193837 0.19077203 0.055111285 0.14238614
000240 e8 a7 02 be 90 93 b8 3e 23 3c 74 bc fc 03 52 3e
       -0.12759364 0.3605008 -0.014906916 0.20509332
000250 75 59 80 bf c4 a4 28 3e 26 fa 46 3e 70 b7 2c bf
       -1.00273 0.16469103 0.19431362 -0.67467403
000260 49 f6 92 bd 57 70 a9 3d e2 55 84 3e a7 53 96 3e
       -0.071758814 0.0827338 0.25846773 0.29360697
000270 ec 94 c0 3d b9 77 17 bd ec bb f6 bd 8c 43 20 be
       0.094034046 -0.03697941 -0.12047562 -0.15650767
000280 45 fe 6b be 7d 56 96 3d 01 f1 b5 3e 8b 86 07 bf
       -0.23046215 0.07340715 0.35535434 -0.5293967
000290 8c 91 90 3e 92 d7 61 3e 2e ca 84 3e 68 50 aa bb
       0.28236043 0.2205489 0.259355 -0.0051975735
0002a0 56 f4 36 be 56 dc 27 be d8 4f 52 3e 5d 9d ce 3e
       -0.17866644 -0.16392645 0.2053827 0.40354434
0002b0 4b 5d 8d 3e 8f 33 ab 3d ab 63 08 be 57 01 93 3e
       0.2761024 0.083594434 -0.1331927 0.2871196
0002c0 c2 6b 86 3e 7b 21 0c 3e 8d 25 b2 bc fd 08 24 bd
       0.26254088 0.13684647 -0.021746421 -0.040047634
0002d0 a4 b7 08 bf 78 a9 6d be 7e bc 9d 3d 69 9c 55 bd
       -0.53405213 -0.23209178 0.07701968 -0.052151117
0002e0 e0 81 9e 3e 09 cd 19 3f d3 a9 a6 3e ec b2 21 bf
       0.30958462 0.60078484 0.3255144 -0.6316364
0002f0 fd 92 f4 bd e3 f8 89 3e 7a c5 3f bf 60 f0 08 3e
       -0.11942098 0.26947698 -0.749107 0.13372946
000300 45 78 7a be 74 d3 a5 3d 8d cc 82 bd e7 8f 73 3e
       -0.24459942 0.08096972 -0.06386671 0.23785363
000310 75 82 b9 3e 4b 00 b9 3d 6b 15 21 bf f9 d2 c8 be
       0.36232343 0.09033259 -0.62923306 -0.3922346
000320 7c 3d dd be 57 c6 3e 3e b4 68 22 3e d9 06 a3 3d
       -0.4321097 0.18630348 0.15860254 0.079602905
000330 2c ed d2 3e fa 00 30 3e 6e 6e 47 3e 76 11 91 3d
       0.41196573 0.17187873 0.1947572 0.070834085
000340 aa 47 71 be b9 01 fb 3d cd 08 53 bd 76 bd 3c be
       -0.23562494 0.12256188 -0.051522065 -0.18431649
000350 57 16 25 3e 30 cb 28 be 74 cc 11 bd a5 fa 0f 3e
       0.16121803 -0.1648376 -0.035595372 0.14060457
000360 10 53 94 3e a7 73 2f 3e e8 39 9a bd 37 a5 46 bd
       0.28969622 0.17133962 -0.07530576 -0.048497405
000370 81 cd 8b be 6d 01 1f bf 17 70 32 3d c0 f4 1d 3d
       -0.27305225 -0.6211155 0.04356393 0.03856349
000380 66 db 14 3e 8f bf 23 3e 74 ce d4 be f4 48 4c be
       0.14536819 0.15991043 -0.4156376 -0.19949704
000390 6b af 0c bf e4 73 05 be a6 df 14 bf 94 d1 83 be
       -0.54955167 -0.1303249 -0.5815376 -0.25745833
0003a0 94 9e 1a 3e 2f d7 f1 3e 13 eb 38 3e c7 a9 f1 3d
       0.15099555 0.47234485 0.18058424 0.117999606
0003b0 2f 55 fd 3c 87 0c c6 3c e7 ed 39 3e ab 7f dc 3d
       0.030924408 0.024175895 0.18157159 0.10766538
0003c0 5f 6f c8 3d b5 96 b2 be 4f 2e 3d bd e1 8c cf bd
       0.09786867 -0.34880605 -0.04618674 -0.101342924
0003d0 5f d6 02 be 64 d8 dd 3e 8f ab d1 3e 97 e8 ab 3e
       -0.12777089 0.43329155 0.409512 0.3357589
0003e0 48 ae 83 3c 4a ad 8d be a7 b7 24 3e 86 f5 fb 3e
       0.016074315 -0.27671272 0.16085683 0.49210757
0003f0 2b 2e 6c bd d0 5e 0f 3e 7f 2c f8 be b9 d0 90 bc
       -0.057661217 0.14001012 -0.48471448 -0.017677652

fc2.bias f4 [10]
000000 2b b1 4a be 6b 43 19 3e 63 e5 07 3d 65 45 f0 bd
       -0.19794147 0.14967124 0.033177745 -0.11731986
000010 af c4 da bd 9f 46 6b 3e f5 7b 24 be d0 8b 0d 3e
       -0.10682046 0.22976159 -0.16062911 0.13822865
000020 06 77 1f be 17 d0 8f bd
       -0.15572748 -0.07022112
