models/model_epoch6.pth (torch, 205023 bytes, 4 tensors)

fc1.weight f4 [64, 784]
00000000: 75e9 913c fa1c eb3c a03a 99bc 4aec de3c
00000010: 5e82 e8bc d346 9abb 735d 1f3c c37d 8ebc
00000020: 5dbc 08bd 8552 163c eaed f8bc b81c ddbc
00000030: 2b93 6a3d 43d5 173d c9a4 7b3d 12a6 eabb
00000040: 4abd b6bc 3364 5a3c aeaa a73c 783c ed3b
00000050: 6e37 f83b c327 bfbc 6ed9 073c dc8c 4fba
00000060: 058a 963c b72c c7ba 2e69 8abc 2caa f03c
00000070: eee9 04bb 38bf e13b b7ac a93c 8155 de3c
00000080: 4c74 973c 3bec 673d 9fb9 d43d af0c d43d
00000090: f327 bc3d 4cab f13d 677f ef3d 6fa4 dd3d
000000a0: 034c 943d 42b6 d9ba 594e c8bc a50e 1e3e
000000b0: ce8c 533e d63e 0b3e f4b7 a23d cb13 283e
000000c0: 89ea 0b3e 96a6 3c3d 8430 c83d d77a b53d
000000d0: 5e19 f7bc 8c70 e9bc 754f bf3c ded0 0a3d
000000e0: 43f6 ebbc dc65 e93a 1bfd 863d b1d8 343d
000000f0: e399 753d e87d 103e 5a77 d23d a03f 3d3e
00000100: ca5e a03e 70bf da3e 7fe5 b23e 545b 963e
00000110: 9bc0 353e a651 f63d b3dc e63d 773b 6d3e
00000120: ec1c 3d3e 49bb 163e 9f67 1f3e eae4 8a3d
00000130: ff23 083e 9803 1c3e 4de2 133e 3880 343e
00000140: 62f8 683e c2bb 0b3e a5af 773b 2aa4 c9bc
00000150: dc5e 5739 2361 0bbd f04a 2a3e c092 c23d
00000160: a8b6 783d 08af 09bd 6f01 5d3d b160 9a3b
00000170: 10f8 983c eba4 2e3e 74bd 243d 8f85 ec3c
00000180: b369 073d 141d bf3d 5c16 50bd 326c 2f3c
00000190: 85c5 c83d eeb9 59bd 28d8 c63c 2f10 a4bb
000001a0: b2ed 2fbe a2b8 5b3d f6f6 ee3d 669f 5b3e
000001b0: a4d5 d83d 89f4 cb3c b3e6 693d 937c cbbc
000001c0: fc68 1cbc 268e bbbc fd80 36bd 7887 2abe
000001d0: a560 19bd aa56 d63c 6396 b83d 4157 ce3c
000001e0: ed9e a53d 067a d83d 5da2 bd3d 10e2 3d3d
000001f0: 52f1 943d 3043 f83c 3664 473d 7bdd f23b
00000200: e1f4 7b3d d5e5 c8bc 7a2c b4bc 9dff 7b3d
00000210: 976d 803c 9faf 67bd 0736 a5bd e0b5 763c
00000220: e9a7 dcbd 8a5a 7cbd c902 423d 8a17 2b3e
00000230: f050 013d f3a8 a3bc 9686 c73d d13d 0dbd
00000240: e2a0 823d fff7 dc3c 2955 6dbd 85ee 7cbd
00000250: 9233 ef3a c6fa 5abc 822c 9dbb 1388 c1bc
00000260: cb37 823d 875d c93b 1d9a a13d 7dfc 7d3d
00000270: 09de 9e3d 521b 0e3d 7647 25bd 0eda 833c
00000280: 1711 e83a bad9 8e3d e62d 073d cb4d 543d
00000290: a6f8 c93d f362 1c3d 6b23 193e 5e31 143e
000002a0: 5735 b6bc 3caa ef3d 1b37 07be 0fd2 efbd
000002b0: c191 56bd 0073 debd 51b3 28be 3b96 00be
000002c0: edd2 f3bd 69bd d5bd f1fa 05be 3bcc eebd
000002d0: f54e c0bd 1ffe 9ebd f0a9 64bd 4e09 853d
000002e0: 4eb5 353d 32ee 32bd 6ce8 dfbd 6be0 0cbd
000002f0: 2ce5 12be f52d 11be 1698 34bc dcaf 073c
00000300: 8b4a f43d 9750 6d3e 84cb 873d cd03 273e
00000310: 7d1d 5c3c 795f 443d c6b6 b0bd ccbe 84be
00000320: 8c68 36be 71da 49be 2038 5fbe 9227 5ebd
00000330: 7049 b0bd cfde bdbd ff95 a3bd 65d8 edbd
00000340: 67f9 f3bd 0717 8dbd 691b afbc b498 0ebd
00000350: 8dc8 b5bc 995f 35bd bdf9 acbd 1aae d3bd
00000360: 44a3 12be fbd4 54bd 052e 8fbc 2c30 b7bd
00000370: beab 3e39 d486 cb3d dcdd 393d 274f 1b3e
00000380: cd7b af3d 1d80 943d 4bd0 6dbd 8cef 17be
00000390: 129c 0cbe 4b60 15be 3eb9 08be d626 e0bc
000003a0: f45a 12be 59d1 1ebd 5e74 2cbd c8aa b3bd
000003b0: c41e 78bd 35e4 bbbc 0a2c 57bd 5fe2 55bd
000003c0: 8b8a ebbb 160d 2dbd c374 3abe d325 01be
000003d0: 999e cebd 0ecb 1abe 967b e4bd e867 ba3c
000003e0: 3a44 cabd 9f0e e3bd 0508 033d 8b00 fc3d
000003f0: 8a7f 213d cb7f c6bd 5299 81bd 63da e53c
0.017811516 0.02870034 -0.018704712 0.02721228 -0.028382476 -0.00470815 0.00972687 -0.017393952
-0.033382762 0.009174948 -0.030386884 -0.026991233 0.057269257 0.037068617 0.06143645 -0.0071609104
-0.022307057 0.013329553 0.020467129 0.0072398745 0.007574967 -0.02333439 0.008291585 -0.0007917413
0.01837636 -0.0015195821 -0.016895857 0.02937802 -0.0020281035 0.00688925 0.02071224 0.02714038
0.018488072 0.05662177 0.10386967 0.10353982 0.09187307 0.118002504 0.11694222 0.10822379
0.072410606 -0.0016610103 -0.024451422 0.15435274 0.20659181 0.13598189 0.079452425 0.164138
0.13663687 0.046057306 0.097748786 0.088613205 -0.030163463 -0.02849605 0.023353318 0.033890598
-0.02880395 0.0017806846 0.06591245 0.044151966 0.05996121 0.1411053 0.10276671 0.18481302
0.31322318 0.4272418 0.34940717 0.29366553 0.17749254 0.12027292 0.11272564 0.23167215
0.18468064 0.14719881 0.15566872 0.06781943 0.13294981 0.15235746 0.14441796 0.17627037
0.22751 0.13645843 0.0037793901 -0.024614412 0.00020539336 -0.034028184 0.16630149 0.095006466
0.06072107 -0.03361419 0.053956445 0.0047112335 0.018672973 0.17055099 0.04021974 0.02887228
0.033059787 0.09331718 -0.050802574 0.010706948 0.09803299 -0.053155832 0.024272993 -0.005006812
-0.17180517 0.053642876 0.11668198 0.21447524 0.10587624 0.024896877 0.057104778 -0.024839675
-0.009546515 -0.02289493 -0.044556607 -0.1665324 -0.037445683 0.026164372 0.09013059 0.02518809
0.08086953 0.10570149 0.09259484 0.046358168 0.07272591 0.030305475 0.048679553 0.0074116564
0.06151283 -0.024523655 -0.021993864 0.06152307 0.015677257 -0.05656397 -0.080669455 0.015058011
-0.10774214 -0.061609782 0.047365937 0.16708198 0.03157133 -0.019978022 0.09742467 -0.03448278
0.06378342 0.026973723 -0.057942543 -0.061750907 0.0018249622 -0.013365453 -0.0047965655 -0.023624456
0.06358298 0.0061451825 0.07890723 0.06200837 0.077571936 0.034694023 -0.040351354 0.016095188
0.0017705288 0.06975122 0.033002757 0.051832 0.09861879 0.038180303 0.14954917 0.14471957
-0.022242231 0.117023915 -0.13204615 -0.11709987 -0.052385096 -0.10861778 -0.16474654 -0.12557308
-0.11905465 -0.10436518 -0.13084008 -0.116600476 -0.0939006 -0.077633135 -0.055826128 0.06495915
0.04436236 -0.043684192 -0.10933003 -0.03439371 -0.14345235 -0.14177687 -0.011022588 0.008281674
0.119282804 0.23175274 0.066306144 0.16310044 0.013434765 0.047942612 -0.08628611 -0.25926816
-0.17813319 -0.19712235 -0.21798754 -0.054236956 -0.08607757 -0.09271013 -0.07987594 -0.116135396
-0.11912804 -0.06889158 -0.021375375 -0.034813598 -0.022190357 -0.044280622 -0.08446071 -0.103359416
-0.14320093 -0.051960927 -0.017477999 -0.08944735 0.00018183791 0.09937826 0.045377597 0.15166913
0.08568535 0.07250998 -0.05805997 -0.14837474 -0.13731411 -0.14587514 -0.13351914 -0.027362268
-0.14292508 -0.03877387 -0.042103164 -0.08772808 -0.060576215 -0.022935966 -0.052532233 -0.052217837
-0.0071881465 -0.042248808 -0.18208604 -0.12612085 -0.10088844 -0.15116522 -0.11156385 0.022754624
-0.098762944 -0.11086773 0.03199007 0.12304791 0.03942827 -0.09692343 -0.06328072 0.028058236

fc1.bias f4 [64]
00000000: fcde 0e3d 1326 7c3d 56d8 c4be 6535 c53d
00000010: 3fd6 0ebd 9463 37be 2b99 653d 72e1 9c3e
00000020: 3f67 c93d d2ca 9dbe 87d9 b23d 8c6f 2abe
00000030: 6af2 b6bd 5a68 9ebd 1de9 0bbe ab7d 2abe
00000040: 4173 8ebd 1b70 c23d 9a9d 833e b9e3 163e
00000050: 3559 48be 8c2d 07be 8aee 6c3e a97e 9fbd
00000060: e9ec 433e ef74 2c3e 6141 76be 9963 b83e
00000070: 71ed c2bd 508a a73d e672 953e 09cd 73be
00000080: 6629 1abe adb8 14bd df17 083e d53a 0c3e
00000090: ecbe 42be 0b80 5a3e 6c87 ba3e 7e98 7dbe
000000a0: 2fe3 9c3d 1136 c53d 28ff a5bd ef79 113e
000000b0: 3041 793d 6c88 6fbe 76ae febd 9b61 36be
000000c0: 8baf 88be 6969 6d3c 908a 53be 5c65 92bd
000000d0: 24f9 873d 47b1 b2bd 2191 703e 6ddd 353c
000000e0: 4904 213e aa51 cd3c dbcb e7bd 8bcc 153e
000000f0: 79db 903b 56dc 1f3d 90bf 633e 8bea 01be
0.034880623 0.061559748 -0.384463 0.09629325 -0.03487229 -0.1790908 0.056054275 0.3064075
0.09834146 -0.30818802 0.08732896 -0.16644114 -0.089329556 -0.07734747 -0.13663144 -0.16649501
-0.06955577 0.09494039 0.25706178 0.14735307 -0.1956528 -0.13200969 0.2313787 -0.077878304
0.19133343 0.16841482 -0.24048378 0.36013487 -0.095179446 0.08180678 0.29189223 -0.23808683
-0.15054855 -0.036308933 0.13290356 0.13694318 -0.19018143 0.21337907 0.36431444 -0.24765202
0.07660519 0.09629453 -0.08105308 0.1420667 0.060853183 -0.23391885 -0.124356195 -0.17810671
-0.2669643 0.014490464 -0.20658326 -0.07148239 0.06639317 -0.08725219 0.23492862 0.011100155
0.15724291 0.025063355 -0.11318179 0.14628808 0.0044206944 0.039028488 0.22241044 -0.12687127

fc2.weight f4 [10, 64]
00000000: be94 67be 0ddf 093d cbdf 423e 1cdc 073e
00000010: aa38 8cbe ba32 1e3e 4487 70bd afc1 edbe
00000020: 76f2 98bd fcd5 ea3d 6f4c b7be 6969 533e
00000030: 6b77 c63d 1018 93be 17df f8bd 2ae3 77be
00000040: 7108 ef3d dba4 b1bd df54 003e f587 b53e
00000050: a6f1 913d fb67 b83e 79a3 ee3d a404 813d
00000060: d6b7 24bf d6da 26bf aa85 473e 8dd0 66be
00000070: b9b1 9a3d 91ca 203e 1915 9d3e ad6f 653e
00000080: 48b7 4bbf a6fb 303e 9bc8 38be eeda 9a3e
00000090: 6b0f 303e 61e6 aa3d 7bcc 52bd 41ba 493e
000000a0: ea4c a3be 0022 38be 8405 f13d 3301 d6be
000000b0: fb08 4a3d fc60 0bbe c1b9 18bc 83dd 913e
000000c0: 27c5 903e 7f7e 393e 8b6a bf3c 5cf3 8d3d
000000d0: a7f6 76be 04a2 3ebe b3f5 a8bc 6169 433d
000000e0: 54ca f4bc 7dd9 abbe 5f77 e43d 0e55 ab3d
000000f0: 0212 d23c 9af4 54be 07cc 89be dbab 8bbe
00000100: 6825 393e b57c 983e 14c5 bfbe e5ed 5bbd
00000110: 7d4a bb3e 3a1e b2be 0d1a d3bd 3faf c93e
00000120: 39ba 093e ecd2 debe a97c a4be 5c51 dbbe
00000130: c0c0 153e 8e48 1dbe 356b 45be 964a 3abe
00000140: 570a 95bd 349b 163e ca9c a2be f360 c33d
00000150: 4ca9 683d 0528 3a3e dba9 9a3e 3b36 e73c
00000160: 5863 0f3e e81d 7a3d 04cc fb3c 9d02 6f3e
00000170: 9b81 8cbe 28b2 cabd ddc2 ce3e b4ea 52be
00000180: adab 473d e6db 38bd f624 e03e 1233 8bbe
00000190: aee0 4b3e 9f5f 61be 7dc8 2bbd 00b3 cabe
000001a0: e943 623d b6e7 e3be 4ed1 133e cdde d43e
000001b0: 2f17 06bf 2742 c2bd 64c2 b13d 140e c53e
000001c0: 543e c0be ee4f 923d ad24 10bf 5e69 16bd
000001d0: 83ca 513e ec23 b23e e4a7 523e 70bb b6bd
000001e0: aa3f a73e 0438 d03d 5255 d7be 1dd3 463d
000001f0: 1fd2 d6be 6df0 f23d e95a 673e bbbd 043e
00000200: 2e2c 953e 2cec 763e 830a f7bd ed28 bb3e
00000210: 7a9a ac3e 6361 36bd 4792 a4be 820e 04be
00000220: 92d7 f4bd 589d 35be dc9f 87be 4b3b 183e
00000230: ca17 b63d 639c 323e da96 593d e62f 0e3e
00000240: a300 01be 92f5 ab3e fc98 7abc 836f 3f3e
00000250: ba63 71bf 995d 133e 82f7 2f3e 2e0b 27bf
00000260: 83d1 94bd 34fe 9a3d 32e9 763e 4e98 8c3e
00000270: 5988 dd3d 07c6 dfbc a408 c8bd a31f 27be
00000280: bc7f 62be a68d 9d3d 8f1b ab3e 8a4a ffbe
00000290: 753b 853e 0c8b 5b3e d1cd 723e df1d 0abc
000002a0: a310 2dbe 3f87 26be ecc9 4f3e 8506 cf3e
000002b0: 1b81 7e3e 3250 af3d 6654 f4bd 9012 8c3e
000002c0: 9663 6c3e 8980 f33d 8d2c 22bd 7087 4bbd
000002d0: 5be4 01bf 68e9 66be a3aa 9c3d 30ae 19bd
000002e0: 0fba 9f3e 8ebf 153f 1294 9f3e e314 17bf
000002f0: a2eb 05be 5d6a 893e f4a8 3bbf 307d 063e
00000300: e13d 7cbe 0a94 a43d 2eab a0bd 0d7c 663e
00000310: 247a b83e 7504 d73d 8be3 13bf 9371 b2be
00000320: 2109 c8be bc78 3a3e 8682 113e eff3 c13d
00000330: 15d0 c13e 83b0 133e 031c 4c3e 0d37 883d
00000340: 62ae 71be 92f3 0b3e 0a0a 95bd 5020 2ebe
00000350: 6d96 173e f1fd 1cbe 0a2d e5bc b840 003e
00000360: c09b 8a3e cf81 303e 1767 9ebd 2615 35bd
00000370: b767 75be d6fb 0ebf bf0c 4b3d cc5a 1e3d
00000380: 1704 163e 2502 273e 90b0 c1be 10ae 4ebe
00000390: 89d3 03bf df29 e5bd da92 0bbf b5a3 8abe
000003a0: 8b90 123e d7a5 dc3e 5ade 353e 9639 ef3d
000003b0: 3293 0a3d 66d6 be3c 788f 383e e7ec d73d
000003c0: d55b de3d 40a2 a7be a668 00bd 1e78 c5bd
000003d0: 6a50 ddbd 8cb4 d03e 9b33 c03e 1848 a03e
000003e0: 743a e93c ffd8 91be baaa 263e 8f71 f23e
000003f0: dfef 8ebd 854f ca3d 76d4 e5be f08c d9bc
-0.22615334 0.033659983 0.19030683 0.13267559 -0.2738698 0.15449038 -0.05872275 -0.4643683
-0.07468121 0.114665955 -0.35800502 0.2064568 0.09690746 -0.28729296 -0.12151926 -0.2420775
0.11671532 -0.08674022 0.12532376 0.3545529 0.07126169 0.3601683 0.11652274 0.06299713
-0.6434301 -0.6517767 0.19484583 -0.22540493 0.07553429 0.15702273 0.3068016 0.22405882
-0.7957654 0.17283496 -0.18045275 0.30245155 0.17193381 0.083447225 -0.05146454 0.19699956
-0.31894618 -0.1798172 0.1176863 -0.4179779 0.04932497 -0.13611215 -0.009321631 0.28489313
0.28275415 0.1811466 0.023366233 0.06931183 -0.24117528 -0.18616492 -0.020624971 0.04770792
-0.029881634 -0.33564368 0.11155581 0.08365832 0.025643352 -0.20796433 -0.26913473 -0.27279553
0.18080676 0.29782644 -0.37455046 -0.05369367 0.36580268 -0.34788686 -0.10307703 0.39391515
0.13449945 -0.43520296 -0.32126358 -0.4283551 0.1462431 -0.15359709 -0.19279177 -0.18192515
-0.07277363 0.14707643 -0.31760246 0.09539976 0.05680208 0.18179329 0.30207714 0.028224101
0.1400274 0.061063677 0.03073693 0.2334084 -0.2744263 -0.09897262 0.40383044 -0.20597345
0.048747707 -0.045131586 0.437782 -0.271874 0.19909927 -0.22009133 -0.041939247 -0.3958969
0.055240545 -0.4451272 0.14435312 0.41576234 -0.52379125 -0.09485274 0.08679655 0.38487303
-0.37547553 0.07144152 -0.5630596 -0.03672158 0.20487408 0.3479303 0.20571858 -0.089224696
0.3266576 0.10166934 -0.42057282 0.048541177 -0.41957185 0.11862264 0.22593273 0.12963001
0.2913527 0.2411353 -0.12062552 0.3655466 0.33711606 -0.04452647 -0.3214285 -0.1289616
-0.11955179 -0.17735803 -0.2648915 0.14866368 0.08891256 0.1744247 0.05312238 0.1388546
-0.12597899 0.33585793 -0.015295263 0.18694882 -0.94292796 0.14391173 0.1718426 -0.65251434
-0.07266524 0.07568017 0.24112394 0.2745995 0.10817022 -0.027316106 -0.09767273 -0.16320662
-0.2211904 0.07693033 0.33419463 -0.49861556 0.26021925 0.21439761 0.23711325 -0.008429973
-0.16900878 -0.1626253 0.20291871 0.40434662 0.24853937 0.08560218 -0.1193016 0.27357912
0.23084864 0.118897505 -0.03959327 -0.04968971 -0.5073907 -0.22549975 0.07649734 -0.037519634
0.3119664 0.58495414 0.31167656 -0.59016246 -0.13078168 0.2683896 -0.73304677 0.13133693
-0.2463298 0.08036049 -0.0784515 0.22508259 0.36030686 0.10498897 -0.5776908 -0.34852275
-0.39069465 0.18210119 0.14209947 0.09470355 0.37854066 0.14422803 0.1993256 0.06651125
-0.23601678 0.13667133 -0.072773054 -0.17004514 0.14803477 -0.15331246 -0.027975578 0.12524688
0.27071953 0.17237018 -0.077345066 -0.04420962 -0.23965345 -0.5585302 0.049572702 0.03866081
0.14649998 0.16309412 -0.3783002 -0.20183587 -0.5149465 -0.11189627 -0.5452095 -0.27078024
0.14312951 0.43095276 0.17760602 0.116809055 0.033831783 0.023295593 0.18023479 0.105432324
0.10857359 -0.32740974 -0.0313498 -0.09642051 -0.108063534 0.40762746 0.37539372 0.31305003
0.028470255 -0.28485867 0.16276065 0.47352263 -0.069793455 0.098784484 -0.44888657 -0.026556462

fc2.bias f4 [10]
00000000: a9fb 2dbe 1e84 203e 8609 8f3c 6188 e3bd
00000010: 692b cdbd 549a 5d3e 6a9f 1bbe 544a 0f3e
00000020: 5318 25be 4594 a1bd
-0.16990532 0.15675399 0.017460596 -0.111099966 -0.100180455 0.21640903 -0.1519753 0.13993198
-0.1612256 -0.07889608
