models/model_epoch1.pth (torch, 205023 bytes, 4 tensors)

fc1.weight f4 [64, 784]
0	0x3c91e975	0.017811516
1	0x3ceb1cfa	0.02870034
2	0xbc993aa0	-0.018704712
3	0x3cdeec4a	0.02721228
4	0xbce8825e	-0.028382476
5	0xbb9a46d3	-0.00470815
6	0x3c1f5d73	0.00972687
7	0xbc8e7dc3	-0.017393952
8	0xbd08bc5d	-0.033382762
9	0x3c165285	0.009174948
10	0xbcf8edea	-0.030386884
11	0xbcdd1cb8	-0.026991233
12	0x3d55f90c	0.052239463
13	0x3cd9ea1a	0.026600886
14	0x3d37a3ff	0.044834133
15	0xbca9ec3f	-0.020742534
16	0xbcb6bd4a	-0.022307057
17	0x3c5a6433	0.013329553
18	0x3ca7aaae	0.020467129
19	0x3bed3c78	0.0072398745
20	0x3bf8376e	0.007574967
21	0xbcbf27c3	-0.02333439
22	0x3c07d96e	0.008291585
23	0xba4f8cdc	-0.0007917413
24	0x3c968a05	0.01837636
25	0xbac72cb7	-0.0015195821
26	0xbc8a692e	-0.016895857
27	0x3cf0aa2c	0.02937802
28	0xbb04e9ee	-0.0020281035
29	0x3be1bf38	0.00688925
30	0x3ca9acb7	0.02071224
31	0x3cde5581	0.02714038
32	0xbc088d24	-0.008334432
33	0x3c83b9cd	0.016079808
34	0x3d490b54	0.04908307
35	0x3d2b1c16	0.04177483
36	0x3d1e3623	0.038625848
37	0x3d5561e9	0.052095328
38	0x3dabb73b	0.08384558
39	0x3daa06f5	0.08302108
40	0x3d4e8cdf	0.050427314
41	0x3c8f5732	0.017497633
42	0x3d078b51	0.033091847
43	0x3dc7591a	0.09733792
44	0x3df55731	0.11979521
45	0x3d56afa3	0.052413594
46	0x3cb556b7	0.022136075
47	0x3d2179ba	0.039422728
48	0x3d0bf31b	0.03416739
49	0x3d39380f	0.045219477
50	0x3d81b8be	0.06334065
51	0x3d0e02af	0.034670528
52	0xbcf7195e	-0.030163463
53	0xbce9708c	-0.02849605
54	0x3cbf4f75	0.023353318
55	0x3d0ad0de	0.033890598
56	0xbcebf643	-0.02880395
57	0x3ae965dc	0.0017806846
58	0x3cd3a61a	0.02583604
59	0x3c4009b4	0.011721063
60	0xbc607e0a	-0.013701925
61	0x3d10d245	0.03535678
62	0x3c428d69	0.011874535
63	0x3da8ef94	0.08248821
64	0x3dc935b5	0.09824697
65	0x3e0428d0	0.12906194
66	0x3dfddaf9	0.12395281
67	0x3e31157c	0.17293352
68	0x3e08a0c6	0.1334258
69	0x3e007d43	0.12547784
70	0x3d976162	0.07391621
71	0x3df1bdc4	0.11803773
72	0x3dcac5e4	0.09901026
73	0x3d89f665	0.06736449
74	0x3dc9e573	0.09858217
75	0x3dc10b1d	0.09425948
76	0x3dc02798	0.09382552
77	0x3d3523f9	0.04422376
78	0x3d5890e8	0.05287257
79	0x3d436e76	0.047712766
80	0x3d9fd54f	0.07804357
81	0x3d33b953	0.04387791
82	0x3b77afa5	0.0037793901
83	0xbcc9a42a	-0.024614412
84	0x39575edc	0.00020539336
85	0xbd0b6123	-0.034028184
86	0x3d4fa024	0.05068983
87	0x3d38a824	0.045082226
88	0x3c9b011c	0.018921427
89	0x3d02f23b	0.03196929
90	0x3a20f4b5	0.000613998
91	0x3d46903a	0.04847739
92	0x3d5ffe48	0.05468586
93	0x3d46ec1b	0.04856501
94	0x3d273513	0.0408221
95	0x3d921c97	0.07134359
96	0x3d391008	0.045181304
97	0x3d8954f9	0.067056604
98	0x3c275553	0.010213214
99	0x3d0d5a2b	0.03450982
100	0x3d8937f0	0.06700122
101	0xbbb08690	-0.005387135
102	0x3d81c543	0.06336453
103	0xb9abef6c	-0.00032794045
104	0xbc9444eb	-0.018099269
105	0x3d372a24	0.044717923
106	0x3c296c8f	0.010340824
107	0x3d9ad4eb	0.07560142
108	0x3cfaf4d0	0.030634314
109	0x3d844394	0.06458202
110	0x3c25043f	0.010071813
111	0xbccb7c93	-0.024839675
112	0xbc1c68fc	-0.009546515
113	0x3c1a8eb2	0.009433435
114	0xbc73d9df	-0.0148834875
115	0xbcef343f	-0.029199718
116	0xbb20a907	-0.002451481
117	0x3b32457d	0.0027202063
118	0x3ce1a338	0.02754365
119	0x3c1d23f4	0.009591091
120	0x3d0eb731	0.034842674
121	0x3d5d9529	0.05409733
122	0x3d3ef3ae	0.04661911
123	0x3ccb392f	0.02480754
124	0x3cbd7891	0.02312878
125	0x3cf4b6c2	0.029872302
126	0x3d14d09a	0.03633175
127	0x3d733d56	0.059384666
128	0x3d702fa1	0.058639172
129	0x3bbe184b	0.005801236
130	0x3d51bf97	0.051208105
131	0x3cf9f707	0.0305133
132	0x3c953036	0.018211465
133	0x3c6112a1	0.013737352
134	0x3bdcb864	0.0067358483
135	0x3be4153c	0.006960539
136	0xbcce4ac5	-0.025182137
137	0xbca72f6b	-0.020408353
138	0x3d0e3023	0.034713876
139	0x3d346a60	0.04404676
140	0x3d0150f0	0.03157133
141	0xbca3a8f3	-0.019978022
142	0xbbb2bc99	-0.0054546115
143	0xbcd04e14	-0.025427856
144	0xbc1ed9f6	-0.009695521
145	0xbc80dc6e	-0.015730109
146	0xbd7b0f81	-0.061294083
147	0xbd1b8361	-0.03796709
148	0xbbe24cb7	-0.006906118
149	0x3c9bc954	0.0190169
150	0x3cc34a6f	0.023839204
151	0x3c1fd890	0.009756222
152	0x3d3c9037	0.04603597
153	0x3ba7efb8	0.0051250122
154	0x3d0c05bf	0.034185167
155	0x3d6fc13c	0.058533892
156	0x3d1d58f3	0.038414907
157	0x3d9286eb	0.0715464
158	0x3cb61b22	0.022229735
159	0x3d2a555c	0.04158531
160	0x3d1ce377	0.038302865
161	0x3d8f976d	0.07011304
162	0x3d89eed1	0.06735004
163	0x3d6442cb	0.05572776
164	0x3d363dde	0.044492595
165	0xbcbee6a4	-0.023303337
166	0x3c8fbf93	0.017547404
167	0x3c050abc	0.008120235
168	0xbcb63557	-0.022242231
169	0x3c645cc1	0.01393813
170	0xbd0ec482	-0.034855373
171	0xbd1ceb00	-0.03831005
172	0x3bb5a3f7	0.005543228
173	0xbcd71276	-0.02625392
174	0xbd7454b4	-0.05965109
175	0xbd2f0163	-0.04272593
176	0xbccca3d6	-0.024980467
177	0xbc3d4273	-0.011551487
178	0xbd5db307	-0.054125812
179	0xbd456650	-0.048193276
180	0xbd175601	-0.036947254
181	0x3b9b6bbd	0.004743068
182	0xbd232fd1	-0.039840523
183	0x3b24ce74	0.002514747
184	0x3c69fbb9	0.014281207
185	0x3b14ca2d	0.0022703514
186	0xbc940661	-0.018069448
187	0x3c0ec011	0.008712784
188	0xbc9a578d	-0.018840576
189	0x3ba26ee7	0.0049570682
190	0x3c9a120b	0.018807432
191	0x3ce2d965	0.027691552
192	0x3d5251dd	0.051347602
193	0x3d106aad	0.035257984
194	0x3b8d362a	0.0043094354
195	0x3ccc642b	0.024950108
196	0x3c62ef9e	0.0138510745
197	0xbd4d9724	-0.050192967
198	0xbcb51935	-0.022106746
199	0xbd635d9b	-0.05550919
200	0x3b9888e1	0.004654989
201	0xbcdaddb0	-0.026717037
202	0xbd6cd742	-0.057822473
203	0xbba98100	-0.0051728487
204	0xbc7f29c5	-0.0155739235
205	0xbc881f5f	-0.016616521
206	0xbd09a575	-0.033605058
207	0xbcd02aea	-0.025411088
208	0xbd080f97	-0.033217993
209	0xbc5e2073	-0.013557541
210	0xbcde0e7b	-0.027106514
211	0xbd94f7ec	-0.0727385
212	0xbd804acb	-0.062642656
213	0xbd87d9fc	-0.06633374
214	0xbcf0302a	-0.029319841
215	0xbc9c4f4e	-0.019080784
216	0xbcd8d53a	-0.026468862
217	0x3c2f1ba7	0.010687745
218	0xbc9d35d5	-0.019190708
219	0xbc827845	-0.01592649
220	0xbbd33d3e	-0.0064465096
221	0xbbde33b2	-0.006781065
222	0x3c1d4df7	0.009601108
223	0x3d4e569d	0.05037557
224	0x3d3fcc3a	0.046825625
225	0xbb76a8d2	-0.0037637246
226	0x3cd01634	0.025401212
227	0xba8920ee	-0.0010462084
228	0x3cd3461a	0.025790263
229	0xbbd700df	-0.006561383
230	0xbd4abcf4	-0.049496606
231	0x3ba7917f	0.00511378
232	0xbd27aa34	-0.040933803
233	0x3ca26f19	0.019828366
234	0x3b864559	0.0040976224
235	0xbc5c0d0c	-0.013430845
236	0xbaace8e5	-0.0013191967
237	0xbcbb6e62	-0.022879783
238	0xbc8f9465	-0.017526815
239	0xbd4a8ade	-0.04944884
240	0xbc3b61fc	-0.0114369355
241	0xbd844215	-0.06457917
242	0xbdabfcbf	-0.08397817
243	0xbc93c377	-0.01803754
244	0xbcf08630	-0.02936086
245	0xbccb7b83	-0.024839168
246	0xbd2b7770	-0.04186195
247	0xbcc29acc	-0.023755454
248	0xbcd704ad	-0.026247347
249	0xbcfbe581	-0.030749084
250	0xbc8f89a8	-0.017521694
251	0x3d39cc6a	0.04536096
252	0xbce9f488	-0.028558984
253	0xbce415e1	-0.027842464
254	0xbcac2166	-0.02101202
255	0xbc207c94	-0.009795327

fc1.bias f4 [64]
0	0xbd7592ae	-0.059954338
1	0x3d860435	0.06543771
2	0xbe16fdc6	-0.14745244
3	0x3dc088b9	0.09401078
4	0x3d20e0eb	0.039277
5	0xbdf6b7ce	-0.12046777
6	0xbc02721c	-0.007961776
7	0x3e515c17	0.20445286
8	0x3cf25acc	0.029584311
9	0xbdd8e2e1	-0.10590149
10	0x3d878710	0.06617558
11	0xbd569134	-0.05238457
12	0xbca9ab6d	-0.020711625
13	0xbcc6e81f	-0.024280606
14	0xbdcbf235	-0.09958307
15	0xbdd6c98e	-0.10487662
16	0xb9bec13e	-0.000363836
17	0x3d15f43e	0.03660988
18	0x3e130938	0.14358985
19	0x3d78bd38	0.060727328
20	0xbdac4408	-0.084114134
21	0xbcc7a0c3	-0.02436865
22	0x3dbede5d	0.09319756
23	0xbd4659cc	-0.04842548
24	0x3e082270	0.13294387
25	0x3d83b694	0.064313084
26	0xbdb423fb	-0.08795925
27	0x3e11909f	0.14215325
28	0xbd388ada	-0.045054294
29	0x3da39e69	0.07989199
30	0x3e08cb80	0.13358879
31	0xbdb61580	-0.088908195
32	0xbcf924b0	-0.030413002
33	0xbc5d4e20	-0.013507396
34	0x3d26a091	0.04068047
35	0x3cdea03d	0.027176017
36	0xbdaa58ef	-0.08317744
37	0x3e245e86	0.16051683
38	0x3e5a8930	0.21341395
39	0xbdd8914b	-0.105745874
40	0x3d99690f	0.074907415
41	0x3d1becc6	0.0380676
42	0xbca8e4f2	-0.020616982
43	0x3d8d30ed	0.068940975
44	0x3d18ce73	0.03730626
45	0xbe06e4f9	-0.13173284
46	0xbd881011	-0.066436894
47	0xbd8ed2c9	-0.06973798
48	0xbdfef72e	-0.124494895
49	0x3c757f6e	0.014983995
50	0xbddb4bb0	-0.107077956
51	0xbca63677	-0.020289643
52	0x3d9d258b	0.076731764
53	0x3ca29325	0.019845555
54	0x3def947c	0.11698243
55	0x3d13fb6b	0.036128443
56	0x3d9e2a4f	0.077229135
57	0x3ac78eff	0.0015225111
58	0xbd2424a1	-0.040073995
59	0x3df178bc	0.117906064
60	0xbc4eedaf	-0.01262991
61	0x3d6e014e	0.058106713
62	0x3de31665	0.11088256
63	0xbd99b780	-0.07505703

fc2.weight f4 [10, 64]
0	0xbe11796a	-0.14206472
1	0xbe19d117	-0.15021168
2	0x3e1ccc89	0.15312399
3	0x3c9a200c	0.01881411
4	0xbe07048f	-0.13185333
5	0x3e38490c	0.17996615
6	0xbb9587ae	-0.0045632934
7	0xbe90ba98	-0.2826736
8	0xbd302a70	-0.04300922
9	0xbc00eede	-0.00786945
10	0xbe71c1dd	-0.23609109
11	0x3e535024	0.2063604
12	0xbd9a1c34	-0.075249106
13	0xbe2be02f	-0.16784738
14	0xbe1a1353	-0.15046434
15	0xbe664b40	-0.22489643
16	0x3e05426e	0.13013622
17	0x3d17bf31	0.03704757
18	0x3dd3ecda	0.1034791
19	0x3e5a3e90	0.21312928
20	0xbe2815f9	-0.16414632
21	0xbd978405	-0.073982276
22	0x3e471e21	0.19445087
23	0x3d1cf40c	0.03831868
24	0xbe9b6da6	-0.30357093
25	0xbeb2cb0a	-0.34920532
26	0xbdf7e2c8	-0.12103802
27	0xbe13e823	-0.14444022
28	0x3db83f09	0.08996398
29	0x3cd5c978	0.026097044
30	0x3e39fc64	0.18162686
31	0x3e483077	0.19549738
32	0xbe8436f9	-0.2582319
33	0x3e4bce98	0.19903028
34	0xbe7ed777	-0.24886881
35	0x3e596fe3	0.21234088
36	0x3dcedf5b	0.101011954
37	0x3df0b8fa	0.117540315
38	0xbcde0bd9	-0.027105259
39	0x3de207e7	0.110366635
40	0xbe2a7367	-0.16645585
41	0xbdb65295	-0.0890247
42	0x3d47ed8a	0.04881052
43	0xbe91d387	-0.28481695
44	0x3d299b13	0.041407656
45	0xbe231077	-0.1592425
46	0x3bd7cdec	0.006585827
47	0x3e6105e6	0.21974906
48	0x3e80c534	0.25150454
49	0x3e0f25b0	0.1397922
50	0x3c3ae064	0.011406038
51	0x3da5e02e	0.080993995
52	0xbe2af07a	-0.16693297
53	0xbd9665eb	-0.07343658
54	0xbdae27c3	-0.08503678
55	0x3d1cf234	0.03831692
56	0x3e126f5c	0.14300293
57	0xbd32ade3	-0.043622863
58	0x3e084f51	0.13311507
59	0x3e0cdec3	0.13756852
60	0x3c59a622	0.013284238
61	0xbe739d5e	-0.237905
62	0xbe573dd0	-0.21019673
63	0xbe73c8df	-0.23807095
64	0x3e2963a6	0.16541919
65	0x3e752b98	0.23942411
66	0xbe57c169	-0.21069874
67	0x3cabd9e8	0.02097793
68	0x3e372914	0.17886764
69	0xbe812fd9	-0.25231817
70	0xbd87bcac	-0.06627783
71	0x3d52fc9e	0.051510446
72	0x3e120b16	0.14262041
73	0xbe9a119b	-0.30091557
74	0xbe77a560	-0.2418418
75	0xbe94424f	-0.2895684
76	0x3e221d05	0.15831383
77	0xbde563ec	-0.11200699
78	0xbe1fb1c9	-0.15595163
79	0xbe17273a	-0.14761057
80	0xbe48c33b	-0.19605725
81	0x3da92f07	0.08260923
82	0xbe699aba	-0.2281293
83	0xbe2831c6	-0.16425237
84	0x3e0d67c3	0.13809113
85	0x3e5e7bf9	0.2172698
86	0x3e653f39	0.22387399
87	0x3e531e3e	0.20617005
88	0x3dc447cf	0.09584009
89	0x3da0e1d5	0.07855574
90	0x3d94eb37	0.07271426
91	0x3e121532	0.14265898
92	0xbe3ef66b	-0.18648688
93	0xbdf0597e	-0.11735819
94	0xbe03c766	-0.12869033
95	0xbe28ab44	-0.16471583
96	0xbdc197a7	-0.094527535
97	0xbdfe0c3c	-0.12404677
98	0x3e33c728	0.17556441
99	0xbe6d6e5e	-0.23186633
100	0x3e2c8ccc	0.16850585
101	0xbe65439b	-0.2238907
102	0xbe4c53a7	-0.19953786
103	0xbe76d8ee	-0.2410619
104	0x3d1486d3	0.03626139
105	0xbe74ad5a	-0.23894253
106	0x3de30ce1	0.11086441
107	0xb8aa16ef	-8.1105034e-05
108	0xbe966ada	-0.29378396
109	0xbd89a8c8	-0.067216456
110	0x3dc2ddda	0.09514971
111	0x3e128938	0.14310157
112	0xbe64e720	-0.22353792
113	0x3da73759	0.081648536
114	0xbe8fa64e	-0.28056568
115	0xbc32a392	-0.010903256
116	0x3d9879e3	0.07445123
117	0x3e0ce34c	0.13758582
118	0xbce2ad06	-0.027670395
119	0xbcc973ab	-0.024591288
120	0x3e38b67b	0.18038361
121	0x3dccd5be	0.100017056
122	0xbe80e42e	-0.25174087
123	0x3e785af4	0.24253446
124	0xbea22364	-0.31667626
125	0x3e187067	0.14886628
126	0x3e46b852	0.1940625
127	0x3df5f990	0.12010491
128	0x3e42e3c0	0.19032192
129	0xbcc079cd	-0.02349558
130	0xbdaf13f4	-0.08548728
131	0x3e1d273f	0.15347002
132	0x3e737097	0.23773418
133	0xbd4b26a6	-0.049597405
134	0xbe535158	-0.20636499
135	0xbe37ecd6	-0.1796144
136	0xbe4e5bfc	-0.20152277
137	0xbe217303	-0.1576653
138	0xbe73ad3e	-0.23796555
139	0x3db47fef	0.08813464
140	0x3e030af6	0.1279715
141	0x3e3ebc5c	0.18626541
142	0x3d244e07	0.040113475
143	0x3e3bcb0c	0.18339175
144	0xbe102a39	-0.14078607
145	0x3e50cd79	0.20390882
146	0xbdddd631	-0.108318694
147	0x3d0c62ff	0.034274098
148	0xbeaed663	-0.3414794
149	0xbd2c4485	-0.042057533
150	0x3e07ba77	0.13254724
151	0xbe8dc12b	-0.27686438
152	0xbdb9d18a	-0.090731695
153	0x3cdd4d36	0.027014356
154	0x3dfa82e7	0.12231999
155	0x3e376b21	0.1791196
156	0x3e181c16	0.14854464
157	0xbe0f852d	-0.14015646
158	0x3ca5738d	0.0201967
159	0xbe2d0474	-0.1689623
160	0xbe371758	-0.17879999
161	0x3d9c420c	0.07629785
162	0x3e043f60	0.129148
163	0xbe26e7ac	-0.16299313
164	0x3dca1d41	0.09868861
165	0x3e574af8	0.21024692
166	0x3cd881a9	0.026429014
167	0x3cbea04b	0.023269793
168	0xbe3eebd2	-0.18644646
169	0xbdb3ce60	-0.08779597
170	0x3ded9801	0.11601258
171	0x3e4a5a5f	0.19761036
172	0x3e1567f8	0.14590442
173	0x3df6becf	0.120481126
174	0xbdbefa14	-0.09325042
175	0x3e23f614	0.1601184
176	0x3ded78c6	0.11595301
177	0x3e124f1f	0.14287995
178	0xbbac037a	-0.005249438
179	0xbe1dec08	-0.1542207
180	0xbe7ec6c9	-0.24880518
181	0xbe6a86da	-0.22903004
182	0x3c30a2af	0.010780974
183	0x3cd1dea0	0.025618851
184	0x3e1b4f5b	0.1516699
185	0x3e75949f	0.23982476
186	0x3e407719	0.18795432
187	0xbe92bdf1	-0.2866054
188	0xbe3896f4	-0.18026334
189	0x3e37105d	0.17877336
190	0xbeb9b905	-0.3627397
191	0x3e160617	0.1465076
192	0xbe04748a	-0.12935081
193	0xbbd4904f	-0.0064869295
194	0xbda59e5a	-0.08086844
195	0x3e2147c2	0.1575003
196	0x3e0f6856	0.14004645
197	0x3e0c9dec	0.13732117
198	0xbe89fb32	-0.2694946
199	0xbde7214a	-0.11285646
200	0xbe2ea483	-0.17054944
201	0x3e3a772e	0.18209526
202	0x3ddbcd73	0.10732546
203	0x3deafd21	0.11474062
204	0x3e5ea2d2	0.21741799
205	0x3d950a0c	0.07277307
206	0x3e3fb472	0.18721178
207	0x3ce97c31	0.028501602
208	0xbe151c5a	-0.14561597
209	0x3e0dbd85	0.13841827
210	0xbd3203d0	-0.043460667
211	0xbd7bb023	-0.061447274
212	0x3da55610	0.08073056
213	0xbdbc008e	-0.09179793
214	0xbca58d22	-0.020208899
215	0x3c86bf04	0.016448505
216	0x3e45a745	0.1930209
217	0x3de30d54	0.110865265
218	0xbe05df53	-0.13073473
219	0xbb7196f4	-0.0036863657
220	0xbe41b392	-0.18916157
221	0xbe6ae695	-0.22939523
222	0x3ca04227	0.019562794
223	0x3d5fcfe5	0.054641623
224	0x3d957302	0.072973266
225	0x3e18c2d8	0.14918077
226	0xbd87979d	-0.06620715
227	0xbdfa4420	-0.12220025
228	0xbe81acfc	-0.2532729
229	0xbdaacd89	-0.08339984
230	0xbe8412ad	-0.25795498
231	0xbe5f9406	-0.2183381
232	0x3de693c3	0.11258652
233	0x3e2a90fc	0.1665687
234	0x3e11ece1	0.14250518
235	0x3dcbb2a4	0.09946182
236	0x3d68c66d	0.05682986
237	0xbc001d6a	-0.007819513
238	0x3e28e687	0.16494189
239	0x3d889f14	0.06670967
240	0x3d870bec	0.06594071
241	0xbe58b7d2	-0.21163872
242	0xbd4a0adf	-0.049326774
243	0xbdb8baa3	-0.09019973
244	0xbe2ed763	-0.17074351
245	0x3e240987	0.1601926
246	0x3e442d21	0.1915784
247	0x3e111051	0.1416638
248	0x3d9e44ba	0.07727952
249	0xbe64cb81	-0.22343256
250	0x3e1768eb	0.14786117
251	0x3e77fd46	0.2421771
252	0xbda4ded4	-0.080503136
253	0xbd09f5a1	-0.033681516
254	0xbe348120	-0.17627382
255	0xbd9d6540	-0.076853275

fc2.bias f4 [10]
0	0xbcf7f9c0	-0.030270457
1	0x3e04569e	0.12923667
2	0xbd38e8a8	-0.045143753
3	0xbd8e67e6	-0.06953411
4	0xbd8f82df	-0.070073836
5	0x3d197bc8	0.037471563
6	0xbdb88407	-0.09009557
7	0x3d7d3599	0.061818693
8	0xbd9d2724	-0.07673481
9	0xbd4fc0cd	-0.05072098
