models/model_epoch19.pth (torch, 205023 bytes, 4 tensors)

fc1.weight f4 [64, 784]
0.017811516 0.02870034 -0.018704712 0.02721228 -0.028382476 -0.00470815 0.00972687 -0.017393952
-0.033382762 0.009174948 -0.030386884 -0.026991233 0.046575572 0.054802638 0.116516486 0.01951934
-0.022307057 0.013329553 0.020467129 0.0072398745 0.007574967 -0.02333439 0.008291585 -0.0007917413
0.01837636 -0.0015195821 -0.016895857 0.02937802 -0.0020281035 0.00688925 0.02071224 0.02714038
0.019301021 0.057740733 0.104019664 0.10143771 0.10031722 0.14204237 0.2130671 0.25223252
0.21606283 0.027096506 -0.19028728 0.040839113 0.25191298 0.22003044 0.24851897 0.20592234
0.024305163 -0.077666454 0.063925326 0.09113492 -0.030163463 -0.02849605 0.023353318 0.033890598
-0.02880395 0.0017806846 0.07521083 -0.087664895 0.026972024 0.3171873 0.25891107 0.3037436
0.5872556 0.707274 0.56109715 0.50848645 0.19608127 -0.060575973 0.21063313 0.32463416
0.18234089 0.22073106 0.13494462 -0.12928103 0.041160047 0.35718468 0.30299827 0.3065662
0.34096292 0.14691103 0.0037793901 -0.024614412 0.00020539336 -0.034028184 0.3167881 0.08284929
0.23736036 0.0675095 0.2895872 0.06996404 -0.038324576 0.15281615 -0.231402 -0.0006883011
0.21880965 0.18030877 -0.02730311 0.09599433 0.21471481 0.043459762 0.13075829 0.19189951
-0.40380237 0.16832359 0.41503927 0.4386674 0.16181427 -0.113492854 0.10829685 -0.024839675
-0.009546515 -0.030619329 0.105782375 -0.39385846 -0.19480175 0.21386555 0.39219165 0.22755472
0.28741217 0.19194147 0.12901375 0.11464032 0.12610364 -0.015049228 -0.042872384 -0.09301334
0.034714676 -0.18600725 -0.23099108 0.06748378 -0.008451168 -0.15459746 -0.08412001 0.34112784
0.009693415 -0.004463327 0.0076323925 0.33951136 0.03157133 -0.019978022 0.28886878 0.013723341
0.15605736 0.2844035 0.14711364 0.08308356 0.3243659 0.13590758 0.14674479 0.0336295
0.10070081 0.027207397 0.16150165 0.03181934 0.19604644 0.041222878 -0.14318366 0.022698313
-0.037659187 0.20600456 0.1129331 0.32167605 0.26377237 0.18554553 0.32310325 0.3158463
-0.022242231 0.19428885 -0.09280578 -0.1462572 -0.07768954 -0.1431719 -0.09613676 0.012939661
0.012974847 -0.065209694 -0.14726424 -0.19597152 -0.1393435 -0.18645738 -0.06763691 0.29766664
0.259603 -0.073440835 -0.16180132 0.043170184 -0.23161474 -0.34581253 0.038805682 0.054929417
0.19201918 0.39605904 0.19954222 0.33464724 0.013434389 0.07822109 0.03382802 -0.53304154
-0.11383018 -0.08936144 -0.28332406 0.078189604 -0.11958905 -0.14656596 -0.13794117 -0.22186229
-0.20666605 -0.1065514 0.10114971 0.14189422 0.13093133 0.018488303 -0.18135445 -0.2494047
-0.22054307 -0.16080624 -0.027995236 -0.18014447 0.021654777 0.40391827 0.094298206 0.3215661
0.17954569 0.29302827 -0.09217523 -0.40638953 0.0010247461 -0.0508068 -0.16535763 -0.006492799
-0.32878226 -0.113439016 -0.091173254 -0.18890332 -0.104397394 -0.0073189023 0.04854654 0.09495535
0.067331836 -0.04663861 -0.27849948 -0.22728924 -0.14480206 -0.34085938 -0.24692565 0.13497877
-0.19562794 -0.15847091 -0.05548649 0.10876957 0.042378925 -0.11284597 0.07365985 -0.005530498
00000000: 75e9 913c fa1c eb3c a03a 99bc 4aec de3c
00000010: 5e82 e8bc d346 9abb 735d 1f3c c37d 8ebc
00000020: 5dbc 08bd 8552 163c eaed f8bc b81c ddbc
00000030: 07c6 3e3d bb78 603d 32a0 ee3d 06e7 9f3c
00000040: 4abd b6bc 3364 5a3c aeaa a73c 783c ed3b
00000050: 6e37 f83b c327 bfbc 6ed9 073c dc8c 4fba
00000060: 058a 963c b72c c7ba 2e69 8abc 2caa f03c
00000070: eee9 04bb 38bf e13b b7ac a93c 8155 de3c
00000080: 2d1d 9e3c 8c81 6c3d 4308 d53d 93be cf3d
00000090: 1d73 cd3d 8e73 113e 432e 5a3e 9f24 813e
000000a0: 933f 5d3e 7ef9 dd3c abda 42be ea46 273d
000000b0: bdfa 803e a94f 613e c27b 7e3e 4edd 523e
000000c0: 9f1b c73c 970f 9fbd 48eb 823d f2a4 ba3d
000000d0: 5e19 f7bc 8c70 e9bc 754f bf3c ded0 0a3d
000000e0: 43f6 ebbc dc65 e93a 2308 9a3d a789 b3bd
000000f0: 6ff4 dc3c 6066 a23e fe8f 843e 4884 9b3e
00000100: 6256 163f e90f 353f 10a4 0f3f 2b2c 023f
00000110: 87c9 483e 831e 78bd 36b0 573e 7336 a63e
00000120: 92b7 3a3e 5307 623e ec2e 0a3e 3f62 04be
00000130: 7097 283d e9e0 b63e 9722 9b3e 3ff6 9c3e
00000140: b192 ae3e d86f 163e a5af 773b 2aa4 c9bc
00000150: dc5e 5739 2361 0bbd 0d32 a23e e3ac a93d
00000160: 980e 733e 6c42 8a3d c644 943e 4e49 8f3d
00000170: 3bfa 1cbd d67b 1c3e a5f4 6cbe 1b6f 34ba
00000180: a30f 603e dda2 383e c6aa dfbc ad98 c43d
00000190: 33de 5b3e dd02 323d 80e5 053e 4e81 443e
000001a0: 2fbf cebe 055d 2c3e 0780 d43e 0399 e03e
000001b0: a4b2 253e f16e e8bd bdca dd3d 937c cbbc
000001c0: fc68 1cbc 63d5 fabc 6ea4 d83d d1a7 c9be
000001d0: 1c7a 47be 92ff 5a3e 58cd c83e 1b04 693e
000001e0: b027 933e 4e8c 443e 2e1c 043e 8bc8 ea3d
000001f0: 5021 013e 0a91 76bc f49a 2fbd c77d bebd
00000200: fa30 0e3d af78 3ebe ed88 6cbe f034 8a3d
00000210: c576 0abc cc4e 1ebe 1d47 acbd 4fa8 ae3e
00000220: 21d1 1e3c 1a41 92bb 2619 fa3b 6fd4 ad3e
00000230: f050 013d f3a8 a3bc 9ce6 933e ddd7 603c
00000240: 80cd 1f3e 569d 913e f5a4 163e b727 aa3d
00000250: 4a13 a63e 5b2b 0b3e 4444 163e 16bf 093d
00000260: 3a3c ce3d 0ce2 de3c b060 253e ff54 023d
00000270: 66c0 483e 52d9 283d bd9e 12be d0f1 b93c
00000280: 8540 1abd dcf2 523e 7849 e73d b9b2 a43e
00000290: 2c0d 873e a6ff 3d3e ca6d a53e 9bb6 a13e
000002a0: 5735 b6bc a8f3 463e f510 bebd 73c4 15be
000002b0: b21b 9fbd a89b 12be 5ae3 c4bd df00 543c
000002c0: 7494 543c a98c 85bd 70cc 16be c2ac 48be
000002d0: 10b0 0ebe afee 3ebe 3885 8abd c367 983e
000002e0: afea 843e 2668 96bd 3faf 25be 38d3 303d
000002f0: 6a2c 6dbe 570e b1be b5f2 1e3d abfd 603d
00000300: ada0 443e 40c8 ca3e cc54 4c3e e256 ab3e
00000310: e91b 5c3c 6132 a03d 408f 0a3d 6975 08bf
00000320: cc1f e9bd 2103 b7bd da0f 91be df21 a03d
00000330: 1beb f4bd 6315 16be 7340 0dbe de2f 63be
00000340: 44a0 53be 9f37 dabd 9427 cf3d b84c 113e
00000350: dd12 063e c874 973c fbb4 39be f263 7fbe
00000360: 0bd6 61be 64aa 24be 4456 e5bc cb77 38be
00000370: 5c65 b13c 60ce ce3e 6b1f c13d 50a4 a43e
00000380: d3da 373e cd07 963e 5ec6 bcbd 4a12 d0be
00000390: c650 863a cb1a 50bd 8353 29be 8cc1 d4bb
000003a0: 2656 a8be b752 e8bd 0bb9 babd df6f 41be
000003b0: 4dce d5bd 67d3 efbb bdd8 463d f377 c23d
000003c0: 46e5 893d 2108 3fbd 7c97 8ebe 83be 68be
000003d0: fe46 14be 1f85 aebe 14da 7cbe e037 0a3e
000003e0: b152 48be 3346 22be cd45 63bd 95c2 de3d
000003f0: 8695 2d3d ca1b e7bd fada 963d 2e39 b5bb

fc1.bias f4 [64]
0.061135642 0.06406119 -0.4494668 0.008267314 -0.17072655 -0.18949537 0.21308446 0.25077295
0.06844212 -0.40516707 0.1014499 -0.13155161 -0.1581046 0.06713476 -0.09606171 -0.06108447
-0.14256336 0.11566088 0.36450824 0.20251016 -0.26256964 -0.17592177 0.41673094 -0.0469454
0.31318706 0.21063407 -0.3899824 0.5136792 -0.033709355 0.037004877 0.31247976 -0.28657636
-0.26448762 -0.2052883 0.20946376 0.23294069 -0.20536907 0.10306223 0.34388325 -0.2730342
0.15284435 0.19145566 -0.13672768 0.24612884 0.0987623 -0.20216963 -0.23776226 -0.25883472
-0.16309795 -0.008334926 -0.1644384 -0.0887331 -0.02742411 -0.20291144 0.26733914 -0.028596977
0.044036165 -0.011641265 -0.10647479 0.17123191 0.09976931 -0.045248903 0.24584377 -0.08602932
00000000: 5e69 7a3d 8332 833d 8320 e6be a173 073c
00000010: f1d2 2ebe 130b 42be d032 5a3e 5065 803e
00000020: 622b 8c3d 0f72 cfbe f7c4 cf3d 77b5 06be
00000030: 2ce6 21be f37d 893d 00bc c4bd b633 7abd
00000040: 21fc 11be 9ddf ec3d d3a0 ba3e d35e 4f3e
00000050: 876f 86be d624 34be c25d d53e d249 40bd
00000060: 0e5a a03e 75b0 573e c6ab c7be 7b80 033f
00000070: d212 0abd 6d92 173d 59fd 9f3e 23ba 92be
00000080: ec6a 87be 1937 52be ab7d 563e 0188 6e3e
00000090: 454c 52be 4a12 d33d 7711 b03e 23cb 8bbe
000000a0: 3b83 1c3e f40c 443e 5702 0cbe 3309 7c3e
000000b0: e443 ca3d 8e05 4fbe f377 73be fc85 84be
000000c0: 2603 27be 378f 08bc 8a62 28be b3b9 b5bd
000000d0: 87a8 e0bc 04c8 4fbe ade0 883e 3544 eabc
000000e0: 445f 343d 01bb 3ebc 740f dabd 6b57 2f3e
000000f0: da53 cc3d ea56 39bd 78be 7b3e 2430 b0bd

fc2.weight f4 [10, 64]
-0.3707824 0.2216014 0.19173396 0.047291923 -0.42983428 0.15282285 -0.040791694 -0.7322992
-0.18455458 0.25453702 -0.7756731 0.26815173 0.17959043 -0.5373444 -0.19132964 -0.62366825
0.12022893 -0.33695927 0.3323147 0.6176977 0.19922209 0.5656263 0.09179442 0.0036357355
-1.3170384 -1.2587361 0.3707303 -0.33224192 -0.07378549 0.3378965 0.58981264 0.33647218
-1.2901571 0.15781356 -0.17698705 0.29746062 0.2625986 0.04549784 -0.21450135 0.44207087
-0.73436284 -0.38252035 0.18563782 -0.563761 0.0067415545 -0.16919369 -0.057998143 0.461141
0.46694162 0.07569823 -0.031791482 -0.061573427 -0.26722357 -0.38419607 -0.02913047 0.06932913
-0.11425738 -0.6707438 0.09886394 0.10737281 -0.04085403 -0.26851836 -0.38673785 -0.5183528
0.17343432 0.3051104 -0.7406934 -0.17307949 0.464496 -0.6898679 -0.16871776 0.8737304
0.16887158 -0.8657743 -0.3612639 -0.50833887 0.17628868 -0.33851582 -0.14071682 -0.3375637
0.039931294 0.16021515 -0.41957995 0.35271844 -0.018564079 0.16388722 0.5115398 -0.12164644
0.22271107 0.078536436 0.05412207 0.37689036 -0.5482914 0.16986772 0.69147664 -0.26415172
0.08803189 -0.03513988 0.893341 -0.27106878 0.2696199 -0.1824527 0.08822441 -0.77410835
0.053669844 -0.6861523 0.10678542 0.8806548 -0.8841398 -0.06657561 0.15076604 0.55849594
-0.74441963 0.2647184 -1.1063263 -0.07990912 0.2333632 0.58862644 0.3503543 -0.20922561
0.5041067 0.14035253 -0.6002039 -0.11875448 -0.49704346 0.17547917 0.27764094 0.19052593
0.36773032 0.41459727 -0.24263181 0.5304708 0.60387605 -0.05365259 -0.33499533 -0.2114035
-0.2380621 -0.23476323 -0.51863664 0.22285828 0.12110404 0.32894954 0.036124293 0.17991814
-0.18206845 0.5467305 -0.08720667 0.34246114 -1.4636853 0.27330932 0.21967106 -0.7452247
-0.08978354 0.09183318 0.4055131 0.39947766 0.09875367 -0.056643933 -0.082151756 -0.3083086
-0.20897986 0.047078483 0.4020641 -0.63516647 0.40691018 0.21380773 0.4534576 0.059747998
-0.24930893 -0.2318534 0.21726745 0.42046064 0.58128756 0.040144913 -0.19939223 0.40320584
0.44577825 0.14608453 0.0013770737 -0.037829205 -0.71569496 -0.33054638 0.08989131 -0.12170081
0.28986904 0.7238737 0.35365838 -0.89449143 -0.113272026 0.34893957 -1.0009236 0.20308477
-0.26000085 0.055386543 -0.0006836588 0.41640314 0.43143752 0.077926315 -0.89327514 -0.7183332
-0.740578 0.2648982 0.2708254 0.05842063 0.5910869 0.4012811 0.1740676 0.090596706
-0.30802226 0.3797981 -0.03247963 -0.29131636 0.31427455 -0.2610235 -0.12649988 0.30070424
0.4292778 0.12511988 -0.045654487 -0.30472398 -0.848171 -1.0576776 0.041271906 0.04901351
0.16878223 0.19867584 -0.70197445 -0.17224565 -0.84840554 -0.2671581 -0.79448855 -0.31438532
0.23326927 0.6897244 0.23166454 0.120399386 -0.016453287 0.032179333 0.33809724 0.10631612
0.14901164 -0.5649959 -0.15037909 -0.04895124 -0.16227187 0.5363735 0.62642765 0.4435594
-0.027928978 -0.2789268 0.23718221 0.5997335 0.025437072 0.43984857 -0.6204518 0.015404619
00000000: 31d7 bdbe 7aeb 623e e855 443e 2db5 413d
00000010: 3d13 dcbe 987d 1c3e 3115 27bd f677 3bbf
00000020: e0fb 3cbe ad52 823e 8392 46bf 2f4b 893e
00000030: 8ee6 373e 678f 09bf ebeb 43be b9a8 1fbf
00000040: 963a f63d ed85 acbe 2725 aa3e 7021 1e3f
00000050: e000 4c3e e3cc 103f b6fe bb3d 8545 6e3b
00000060: b794 a8bf 441e a1bf 5dd0 bd3e 9d1b aabe
00000070: d91c 97bd c500 ad3e f6fd 163f 1546 ac3e
00000080: de23 a5bf e199 213e 183c 35be c24c 983e
00000090: 5373 863e f15b 3a3d 3ea6 5bbe 1d57 e23e
000000a0: 34ff 3bbf b5d9 c3be d717 3e3e a452 10bf
000000b0: 42e8 dc3b 1c41 2dbe 768f 6dbd ac1a ec3e
000000c0: f912 ef3e ac07 9b3d c937 02bd 6b34 7cbd
000000d0: 87d1 88be 59b5 c4be 06a3 eebc 6efc 8d3d
000000e0: c6ff e9bd deb5 2bbf 2d79 ca3d 47e6 db3d
000000f0: 8e56 27bd 3d7b 89be 8102 c6be c5b2 04bf
00000100: c498 313e 6e37 9c3e 159e 3dbf c03b 31be
00000110: 6bd2 ed3e 2f9b 30bf 59c4 2cbe ccac 5f3f
00000120: acec 2c3e 62a3 5dbf 95f7 b8be 7f22 02bf
00000130: 0585 343e f251 adbe 1218 10be 26d5 acbe
00000140: ff8e 233d 710f 243e 2fd3 d6be 8397 b43e
00000150: b213 98bc 0dd2 273e 46f4 023f c521 f9bd
00000160: 5f0e 643e b6d7 a03d 1baf 5d3d c6f7 c03e
00000170: d35c 0cbf cef1 2d3e 9d04 313f e53e 87be
00000180: 104a b43d d6ee 0fbd ffb1 643f 87c9 8abe
00000190: 9f0b 8a3e e1d4 3abe 00af b43d f72b 46bf
000001a0: e9d4 5b3d ada7 2fbf 50b2 da3d 9872 613f
000001b0: fc56 62bf cb58 88bd 6a62 1a3e 97f9 0e3f
000001c0: 4992 3ebf 2c89 873e 1a9c 8dbf 65a7 a3bd
000001d0: c3f6 6e3e 39b0 163f a461 b33e 3d3f 56be
000001e0: 230d 013f 93b8 0f3e f6a6 19bf 8c35 f3bd
000001f0: 7b7c febe d0b0 333e f426 8e3e 3b19 433e
00000200: 2647 bc3e 1846 d43e 7974 78be efcc 073f
00000210: 9f97 1a3f d1c2 5bbd 8284 abbe 297a 58be
00000220: 8dc6 73be c665 70be 5fc5 04bf f634 643e
00000230: 6505 f83d 136c a83e 11f7 133d 763c 383e
00000240: 2770 3abe 88f6 0b3f 6999 b2bd 1157 af3e
00000250: 0a5a bbbf 33ef 8b3e 73f1 603e 0cc7 3ebf
00000260: 6fe0 b7bd 0913 bc3d 6a9f cf3e 5688 cc3e
00000270: 5d3f ca3d 7803 68bd 2e3f a8bd a0da 9dbe
00000280: d1fe 55be 5ed5 403d 59db cd3e 459a 22bf
00000290: 8856 d03e 6af0 5a3e 982b e83e 51ba 743d
000002a0: d74a 7fbe fa6a 6dbe 5c7b 5e3e 9e46 d73e
000002b0: 43cf 143f fe6e 243d 7a2d 4cbe ff70 ce3e
000002c0: 0c3d e43e 2f97 153e ed7e b43a ccf2 1abd
000002d0: c937 37bf 603d a9be ef18 b83d 463e f9bd
000002e0: b769 943e c94f 393f b612 b53e 64fd 64bf
000002f0: 2afb e7bd 35a8 b23e 441e 80bf 74f5 4f3e
00000300: d51e 85be 00dd 623d 9137 33ba cb32 d53e
00000310: 61e5 dc3e d597 9f3d aead 64bf afe4 37bf
00000320: 8596 3dbf bda0 873e a0a9 8a3e 784a 6f3d
00000330: 7951 173f b774 cd3e c73e 323e c48a b93d
00000340: 18b5 9dbe e674 c23e 5c09 05bd 6b27 95be
00000350: 98e8 a03e dfa4 85be 2f89 01be e8f5 993e
00000360: 4dca db3e 6d1f 003e 3300 3bbd c804 9cbe
00000370: bc21 59bf fb61 87bf bb0c 293d 64c2 483d
00000380: 40d5 2c3e ae71 4b3e 99b4 33bf 2a61 30be
00000390: 1b31 59bf f2c8 88be 9a63 4bbf 1df7 a0be
000003a0: 24de 6e3e c791 303f 7839 6d3e f493 f63d
000003b0: 0bc9 86bc 7ace 033d 151b ad3e 44bc d93d
000003c0: 8296 183e 92a3 10bf fafc 19be 1881 48bd
000003d0: 992a 26be c64f 093f 905d 203f 381a e33e
000003e0: 50cb e4bc 7ecf 8ebe e5df 723e 2288 193f
000003f0: 6861 d03c d533 e13e eed5 1ebf a863 7c3c

fc2.bias f4 [10]
-0.3891076 0.12598303 0.01105453 -0.12335236 -0.12388468 0.27063587 -0.20228712 0.13751662
-0.039319918 -0.039840326
00000000: 1d39 c7be b201 013e 0f1e 353c 2aa0 fcbd
00000010: 40b7 fdbd c990 8a3e 5b24 4fbe 28d1 0c3e
00000020: ec0d 21bd 9c2f 23bd
