models/model_epoch18.pth (torch, 205023 bytes, 4 tensors)

fc1.weight f4 [64, 784]
000000 75 e9 91 3c fa 1c eb 3c a0 3a 99 bc 4a ec de 3c
       0.017811516 0.02870034 -0.018704712 0.02721228
000010 5e 82 e8 bc d3 46 9a bb 73 5d 1f 3c c3 7d 8e bc
       -0.028382476 -0.00470815 0.00972687 -0.017393952
000020 5d bc 08 bd 85 52 16 3c ea ed f8 bc b8 1c dd bc
       -0.033382762 0.009174948 -0.030386884 -0.026991233
000030 ce ac 3e 3d 77 a5 5e 3d ba 92 ed 3d 81 b0 9f 3c
       0.04655152 0.05435702 0.116002515 0.019493343
000040 4a bd b6 bc 33 64 5a 3c ae aa a7 3c 78 3c ed 3b
       -0.022307057 0.013329553 0.020467129 0.0072398745
000050 6e 37 f8 3b c3 27 bf bc 6e d9 07 3c dc 8c 4f ba
       0.007574967 -0.02333439 0.008291585 -0.0007917413
000060 05 8a 96 3c b7 2c c7 ba 2e 69 8a bc 2c aa f0 3c
       0.01837636 -0.0015195821 -0.016895857 0.02937802
000070 ee e9 04 bb 38 bf e1 3b b7 ac a9 3c 81 55 de 3c
       -0.0020281035 0.00688925 0.02071224 0.02714038
000080 2d 1d 9e 3c 8c 81 6c 3d 05 0b d5 3d be de cf 3d
       0.019301021 0.057740733 0.104024924 0.101499066
000090 57 2b cc 3d 35 b3 10 3e 92 37 5a 3e 50 97 80 3e
       0.09969204 0.14130862 0.21310261 0.25115442
0000a0 1d ab 5b 3e d8 31 ec 3c c2 04 2c be 52 f9 31 3d
       0.21451993 0.028832361 -0.1679869 0.04345066
0000b0 db 1d 7d 3e 6b 3c 5b 3e ec 15 6f 3e 10 87 4e 3e
       0.2471842 0.21409766 0.23348206 0.2016871
0000c0 11 6e e6 3c 39 dd 98 bd 33 50 84 3d 24 99 ba 3d
       0.028128656 -0.0746407 0.06460609 0.091112405
0000d0 5e 19 f7 bc 8c 70 e9 bc 75 4f bf 3c de d0 0a 3d
       -0.030163463 -0.02849605 0.023353318 0.033890598
0000e0 43 f6 eb bc dc 65 e9 3a db 08 9a 3d 87 59 b7 bd
       -0.02880395 0.0017806846 0.0752122 -0.08952623
0000f0 9f 89 e5 3c 02 21 a2 3e c9 37 84 3e 97 2a 9b 3e
       0.028019724 0.31665808 0.2582381 0.3030593
000100 42 79 13 3f d5 70 2e 3f f7 5c 09 3f 9f 42 fa 3e
       0.576069 0.6814092 0.5365748 0.48878953
000110 21 5b 42 3e a5 ab 5f bd d3 bd 4b 3e 64 6c a3 3e
       0.18980075 -0.054607052 0.19896631 0.31918633
000120 cc 7d 3c 3e f4 78 4a 3e 09 1b 07 3e d1 5e e5 bd
       0.18407363 0.19772702 0.13193907 -0.111997254
000130 06 65 67 3d 81 1e b5 3e 61 1f 99 3e 61 e6 9b 3e
       0.056492828 0.35374835 0.29906753 0.30449203
000140 1b f2 ab 3e 71 7b 17 3e a5 af 77 3b 2a a4 c9 bc
       0.3358315 0.14793183 0.0037793901 -0.024614412
000150 dc 5e 57 39 23 61 0b bd 42 dd 9e 3e 89 1b 94 3d
       0.00020539336 -0.034028184 0.3102818 0.072318144
000160 27 d7 5d 3e 51 b1 87 3d d0 e3 90 3e 9a 5f 81 3d
       0.21664105 0.06625617 0.28298807 0.06317063
000170 c9 2c 83 bd 46 1d 25 3e 01 df 4a be fb 47 94 3c
       -0.064050265 0.16124448 -0.19811632 0.01810073
000180 d7 e0 62 3e 0a 9d 3f 3e 41 39 61 bc 12 87 d3 3d
       0.22156082 0.1871225 -0.013746561 0.10328497
000190 94 9b 69 3e fb 80 80 3d d2 ac 10 3e 51 aa 44 3e
       0.22813255 0.06274601 0.14128426 0.19205596
0001a0 e6 87 cb be d4 2c 21 3e 92 87 ce 3e 9c e7 d9 3e
       -0.3975212 0.15739757 0.40337807 0.42559516
0001b0 6a 5d 1f 3e 3a 10 00 be 40 2c d4 3d 93 7c cb bc
       0.15562978 -0.1250619 0.103600025 -0.024839675
0001c0 fc 68 1c bc cb d4 fa bc d3 1d d3 3d f4 d3 c3 be
       -0.009546515 -0.030619046 0.10308423 -0.38247645
0001d0 ac 54 3d be be e6 63 3e 76 74 c4 3e d9 f1 59 3e
       -0.18489331 0.2225599 0.38370103 0.21283664
0001e0 42 26 84 3e dd c6 32 3e 92 95 e3 3d 42 49 ca 3d
       0.25810438 0.17458673 0.11112513 0.09877254
0001f0 10 2a e6 3d d5 e8 8b bc 4b 60 04 bd a5 32 bc bd
       0.112384915 -0.017078796 -0.032318395 -0.09189347
000200 12 19 07 3d 00 b9 2a be f2 0f 54 be 90 21 9e 3d
       0.032982893 -0.16672134 -0.20709208 0.07721245
000210 ba 1d 12 3c 35 ef 15 be 23 ab c9 bd 6c 83 9e 3e
       0.00891822 -0.14642031 -0.09847095 0.30959642
000220 62 b5 2c 3c 36 7f e1 bc 4d 49 35 3a fb c3 a8 3e
       0.010541292 -0.02752648 0.0006915525 0.3296202
000230 f0 50 01 3d f3 a8 a3 bc a7 f2 91 3e e9 a7 6d 3a
       0.03157133 -0.019978022 0.28505442 0.0009065853
000240 12 00 1b 3e f4 9b 8d 3e 0c e2 04 3e 31 a4 6f 3d
       0.15136746 0.27658045 0.12976855 0.058506195
000250 b5 98 90 3e cd d4 02 3e 70 e2 11 3e 85 a2 05 3d
       0.28241506 0.1277649 0.14246535 0.032625694
000260 9e 6e e6 3d c3 66 d6 3c c3 d1 1e 3e a2 17 00 3d
       0.11251567 0.026172047 0.15509705 0.031272538
000270 2c dc 39 3e cf 8e be 3c d0 30 19 be 0a f8 b3 3c
       0.18150395 0.023261456 -0.14960027 0.02196886
000280 03 c8 f3 bc 13 76 55 3e f7 60 f0 3d a1 96 96 3e
       -0.029758459 0.20845823 0.117372446 0.29411796
000290 bc 91 82 3e d3 de 2b 3e 18 47 9f 3e b4 a3 9c 3e
       0.25501812 0.1678422 0.31108928 0.30593646
0002a0 57 35 b6 bc 6a 2a 47 3e f9 c1 9a bd 8f 9d 10 be
       -0.022242231 0.19449773 -0.075565286 -0.14122604
0002b0 d7 2d 8a bd 1e 25 1e be df 58 03 be 39 75 dc bb
       -0.067470245 -0.15443847 -0.1282687 -0.006727841
0002c0 7b 29 8a 3b c7 97 42 bd 8b 6d fe bd 5a 46 29 be
       0.0042163706 -0.047508027 -0.124232374 -0.16530743
0002d0 0b 15 fc bd 9f c8 38 be 28 5c 92 bd dc cf 8d 3e
       -0.12308701 -0.18045281 -0.07146484 0.27697647
0002e0 86 e5 72 3e ea 2e ae bd 4d b8 26 be e3 b7 37 3d
       0.23720369 -0.08505042 -0.16281243 0.044853102
0002f0 0d 2c 67 be 8a 21 a8 be 00 b5 28 3d 81 14 56 3d
       -0.22575398 -0.32838088 0.04118824 0.052265648
000300 9e c8 4e 3e 48 4d d2 3e 60 f2 39 3e 97 be a3 3e
       0.20193717 0.41074586 0.18158865 0.31981346
000310 e9 1b 5c 3c c2 fa 97 3d c0 fe 2c 3d 83 55 04 bf
       0.013434389 0.07420875 0.042235136 -0.5169298
000320 8c 99 ea bd ec ab e3 bd 07 bc 9c be e0 4c 5e 3d
       -0.11455068 -0.11116776 -0.30612203 0.054272532
000330 2a 02 df bd a1 9b f4 bd 32 37 de bd 94 a6 4e be
       -0.10889085 -0.11943746 -0.108503714 -0.20180732
000340 fd 32 50 be f0 07 e2 bd 84 da b3 3d dc bd f9 3d
       -0.2033195 -0.1103667 0.08781913 0.12194416
000350 78 a2 ea 3d e4 d6 55 3c a5 43 35 be 85 b8 6f be
       0.1145677 0.013051722 -0.17701586 -0.23410232
000360 a3 4f 62 be cb 47 22 be 9d f2 1a bd a0 b7 31 be
       -0.22100691 -0.158477 -0.03782903 -0.17355204
000370 bc dc 1c 3d 44 0b c9 3e f9 12 e0 3d 30 f2 9b 3e
       0.038296446 0.39266407 0.10941119 0.30458212
000380 a0 f7 31 3e 44 da 8e 3e 6f ee b9 bd 92 73 cb be
       0.17379618 0.27900898 -0.09078681 -0.3973661
000390 a5 6a 50 38 62 f8 91 bd ef 3f 3f be 86 2c db bc
       4.9690385e-05 -0.071274534 -0.18676732 -0.026754629
0003a0 f3 65 9c be b7 85 aa bd c6 05 8a bd 28 6c 3a be
       -0.3054653 -0.08326285 -0.067393824 -0.18205321
0003b0 dc f3 ea bd ba 8d 9a bc 60 6a 06 3d 52 82 b3 3d
       -0.11472294 -0.018866409 0.03281629 0.08765091
0003c0 49 f7 8f 3d 67 03 3d bd 8b 18 8f be aa 88 69 be
       0.07029588 -0.046145823 -0.27948412 -0.2280604
0003d0 7c 0a 18 be 19 f2 b3 be 25 be 84 be dd d3 fd 3d
       -0.1484775 -0.35145643 -0.2592632 0.12393925
0003e0 a4 da 42 be ba 9f 29 be 89 2f fd bc 44 d7 ed 3d
       -0.19028717 -0.16564837 -0.030906456 0.11613324
0003f0 26 8b 2d 3d a1 5b 10 be 2a 9d 70 3d 32 7e 8a bc
       0.04236903 -0.14097454 0.058743633 -0.016905878

fc1.bias f4 [64]
000000 54 9e 8d 3d 88 34 77 3d a5 fd e8 be 68 fa 8c 3c
       0.06914964 0.060352832 -0.45506015 0.017209247
000010 4c ac 1a be 37 a0 48 be 90 b5 51 3e 88 15 87 3e
       -0.15104789 -0.19592367 0.20479417 0.26383615
000020 aa b3 99 3d 12 ad d0 be 74 62 cd 3d 4a 7e 0b be
       0.07504971 -0.40757042 0.10028544 -0.13622394
000030 54 5b 1b be 42 e6 5d 3d 9d 94 e8 bd 37 4c a0 bd
       -0.15171558 0.05417467 -0.11356471 -0.07827037
000040 78 a4 09 be a8 c5 fb 3d 3a e5 b4 3e 82 55 48 3e
       -0.13441646 0.12293559 0.35331136 0.19563869
000050 28 f1 8b be 69 af 31 be 3d 98 d4 3e 72 76 33 bd
       -0.27332425 -0.1735207 0.415224 -0.04381413
000060 6b cd 9a 3e 30 1a 59 3e 66 ee c6 be 90 62 02 3f
       0.30234846 0.21201396 -0.3885376 0.50931644
000070 de 53 15 bd 89 ad 1c 3d 63 42 a3 3e 6b 04 96 be
       -0.036456935 0.038251434 0.31886587 -0.29300246
000080 9a 87 7d be c2 8d 47 be 4a c1 58 3e 51 7f 63 3e
       -0.24758759 -0.1948767 0.21167484 0.22216536
000090 32 78 4f be a3 20 e3 3d b1 4f b6 3e cc b2 8d be
       -0.20260695 0.11090209 0.35607675 -0.27675474
0000a0 3f c4 14 3e 08 88 3a 3e 20 60 05 be bf 10 7c 3e
       0.14527987 0.18215954 -0.1302495 0.24615763
0000b0 c1 8e ab 3d c7 df 57 be 4a b9 6b be 64 9c 80 be
       0.083768375 -0.21081458 -0.23019901 -0.25119317
0000c0 98 92 45 be 36 ed 89 bb fa 5e 2d be b8 4c b9 bd
       -0.19294202 -0.004209186 -0.16930762 -0.09047836
0000d0 42 0d bd bc 3d 76 4d be 05 eb 88 3e 0a 24 06 bd
       -0.02307761 -0.20064636 0.26741806 -0.032749213
0000e0 a7 6d 75 3d ca be a1 bc 34 5c f9 bd 74 90 35 3e
       0.059919026 -0.019744296 -0.121757895 0.17730886
0000f0 61 9c b4 3d 9c 6c 52 bd cd 43 83 3e ce 1f bf bd
       0.088188894 -0.05137311 0.25637665 -0.09332238

fc2.weight f4 [10, 64]
000000 24 0b b0 be f8 91 36 3e 2e ac 52 3e 29 1e 9e 3d
       -0.343835 0.1782912 0.20573494 0.07720596
000010 a4 44 d1 be 33 bc 19 3e a1 d0 2e bd 60 77 34 bf
       -0.4087268 0.15013199 -0.042679433 -0.7049465
000020 17 96 26 be e0 ba 85 3e 73 48 42 bf 55 ad 8b 3e
       -0.16268192 0.26119137 -0.758918 0.2728068
000030 1d 5b 37 3e e3 16 08 bf 9a 92 42 be 9d ce 12 bf
       0.1790585 -0.5315992 -0.19001237 -0.57346517
000040 45 67 00 3e ae ab a6 be 12 b6 9c 3e 0c 11 17 3f
       0.12539394 -0.32552856 0.3060766 0.59010386
000050 63 60 42 3e 72 16 09 3f a8 9b c7 3d 88 e2 ed 3b
       0.18982081 0.53549874 0.09746486 0.0072596706
000060 c8 4d a5 bf 7a 3c 9d bf 8d 65 af 3e 59 5e 9b be
       -1.2914362 -1.2284081 0.34257165 -0.3034542
000070 4b 0b 80 bd 51 85 ac 3e 95 d4 13 3f 97 ce a9 3e
       -0.06252154 0.33695462 0.5774625 0.33165428
000080 af 2a a4 bf 5d 7e 20 3e c5 89 2b be 40 2d 8e 3e
       -1.2825526 0.15673204 -0.16751774 0.27768898
000090 85 c3 89 3e de 98 77 3d 92 bf 49 be 82 ea de 3e
       0.26906982 0.06044852 -0.19701985 0.4353829
0000a0 66 f8 39 bf c9 81 c2 be 43 1b 3e 3e d9 99 0d bf
       -0.7264465 -0.37989643 0.18565087 -0.5531288
0000b0 74 4b 3a bc 5a 7e 1d be 44 7f 32 bd 1d 7a e8 3e
       -0.0113705285 -0.1538023 -0.0435784 0.45405665
0000c0 af 31 eb 3e 1b 78 b1 3d 90 52 d9 bc 7c ea 3f bd
       0.45936343 0.086654864 -0.026528627 -0.04685448
0000d0 f0 c7 8e be d0 f8 bd be 54 65 92 bc 8b 3e 9a 3d
       -0.27886915 -0.3710389 -0.017870583 0.075314604
0000e0 14 86 07 be e2 9a 2c bf 83 88 c5 3d 32 73 bb 3d
       -0.1323474 -0.6742383 0.09645178 0.09152831
0000f0 63 11 c3 bc 9e 01 8d be 14 d6 c0 be f7 52 00 bf
       -0.023812002 -0.27540296 -0.3766333 -0.50126594
000100 51 3a 39 3e 72 3f 9d 3e 26 a0 3b bf 07 a7 1e be
       0.18088652 0.30712467 -0.7329124 -0.15493403
000110 cc 8b e8 3e a8 7d 29 bf 86 bc 1e be 3d c7 5c 3f
       0.45419157 -0.6620736 -0.15501603 0.86241513
000120 2c 7f 2c 3e 49 f4 57 bf da 41 b0 be 9e a5 01 bf
       0.16845387 -0.84357125 -0.3442524 -0.50643337
000130 07 5a 39 3e 12 19 a8 be 17 0e 0e be f0 d1 aa be
       0.18100749 -0.32831627 -0.13872562 -0.33363295
000140 8c 4f f3 3c 34 20 27 3e fa 70 d3 be bf c6 a6 3e
       0.029701017 0.16320878 -0.41297132 0.32573506
000150 d9 e6 75 bc c4 10 31 3e a3 59 00 3f a7 c9 d9 bd
       -0.015008652 0.17291552 0.50136775 -0.10634165
000160 b3 f6 5c 3e 46 6b b6 3d f1 d3 72 3d df af bd 3e
       0.21578483 0.089071795 0.059284154 0.37048241
000170 24 71 0c bf 02 6f 14 3e c1 82 2e 3f bf 4b 81 be
       -0.5486014 0.14495471 0.68168265 -0.25253102
000180 eb e7 a6 3d 9b d8 f8 bc 01 f5 5c 3f 7f 1c 92 be
       0.081497036 -0.030376723 0.86311346 -0.28537366
000190 99 72 88 3e f2 b1 2e be cc a6 98 3d 8c ef 3f bf
       0.2664993 -0.17060068 0.07453689 -0.74974895
0001a0 db 2b 88 3d d8 31 33 bf c5 f9 eb 3d c3 fb 5b 3f
       0.0664899 -0.6999793 0.11522249 0.8593103
0001b0 0f af 5d bf b4 2f 9a bd 6f 8d 17 3e 00 ac 0d 3f
       -0.86595243 -0.0752863 0.14800046 0.55340576
0001c0 4c 2f 36 bf 20 d1 80 3e 0b 13 8d bf 55 54 87 bd
       -0.7116592 0.2515955 -1.1021436 -0.06607882
0001d0 a5 b9 6d 3e 47 b9 15 3f 82 f6 a1 3e 25 d5 43 be
       0.23215349 0.58485836 0.31633383 -0.19124277
0001e0 41 04 03 3f 64 fe 16 3e fc c0 16 bf f3 9e 05 be
       0.51178366 0.1474548 -0.5888822 -0.13048916
0001f0 ba 2e ff be 77 4a 36 3e 64 5c 8f 3e 69 78 46 3e
       -0.49840337 0.17801844 0.28000176 0.1938187
000200 29 20 b5 3e 27 75 cb 3e cf cf 82 be 76 fc 03 3f
       0.353761 0.39737818 -0.2554917 0.515571
000210 04 d0 16 3f 5b 44 8a bd 0d 37 a9 be 83 13 4d be
       0.58911157 -0.06751319 -0.33049813 -0.20026974
000220 c3 5c 64 be 75 cb 5c be 72 db 01 bf 00 18 6c 3e
       -0.22301011 -0.21561988 -0.5072547 0.2305603
000230 fc 60 0d 3e 4f b3 9d 3e 41 ec 37 3d d8 30 34 3e
       0.13806528 0.30800864 0.044903044 0.17596757
000240 1f 33 3f be cf 6f 0b 3f ea e2 c1 bd 2c 73 aa 3e
       -0.18671845 0.5446748 -0.094671085 0.33290994
000250 c5 8e b5 bf 22 ba 88 3e c4 53 5e 3e d8 a1 40 bf
       -1.4184195 0.26704508 0.21711642 -0.75246954
000260 b7 5a ae bd dd 30 b8 3d a3 75 cc 3e f5 c6 c9 3e
       -0.08513396 0.08993695 0.399335 0.39409605
000270 87 02 c8 3d 1b 7c 86 bd d5 b9 93 bd 8a ab 93 be
       0.09766107 -0.0656664 -0.07213179 -0.2884181
000280 ac 85 5a be f0 59 36 3d 09 1b ca 3e 41 b7 1e bf
       -0.21340054 0.044519365 0.3947375 -0.61998373
000290 c8 07 c5 3e 4c b6 4b 3e aa 5e df 3e bf e5 5e 3d
       0.384825 0.1989376 0.4362691 0.05441832
0002a0 55 4d 71 be c5 14 6e be 94 82 5d 3e b5 0a db 3e
       -0.23564656 -0.2325011 0.21631843 0.42781606
0002b0 d2 f5 12 3f 97 4d 2c 3d 4a 85 40 be 6e 0a c8 3e
       0.5740634 0.042066183 -0.18800846 0.39070457
0002c0 76 f4 da 3e 3c 53 0f 3e 4c fe 0c 3a d2 65 10 bd
       0.42764634 0.13996595 0.00053784694 -0.035253353
0002d0 27 8b 31 bf 98 6e ae be 70 90 d8 3d c8 ba fd bd
       -0.69352955 -0.3406875 0.10574424 -0.12389141
0002e0 de 89 9a 3e a9 75 36 3f 7f 75 b6 3e a2 e9 5e bf
       0.3018331 0.71273285 0.35636517 -0.87075245
0002f0 83 39 fb bd dc f2 b1 3e 04 d0 7c bf f8 81 43 3e
       -0.12266829 0.347556 -0.98754907 0.19092548
000300 67 25 7b be be 59 8d 3d 3a ef e2 ba c7 22 c8 3e
       -0.24525987 0.069018826 -0.0017313727 0.39089033
000310 83 91 d3 3e 7f 4a bb 3d 90 ac 62 bf 90 32 31 bf
       0.41321954 0.091450684 -0.8854456 -0.6921778
000320 34 09 37 bf 33 0a 83 3e 34 c6 89 3e 2c e9 65 3d
       -0.7149842 0.2559372 0.2690903 0.056130573
000330 5c e0 12 3f 02 b8 c3 3e 4c 29 2c 3e 83 52 9e 3d
       0.57373595 0.38226324 0.16812629 0.077305816
000340 8a dd 9b be dd 8b b6 3e d6 9e 30 bd be 20 97 be
       -0.30442458 0.35653582 -0.043120228 -0.29517168
000350 75 0a 9f 3e bd 3f 7b be 19 f2 f0 bd 98 bf 92 3e
       0.31062666 -0.24536033 -0.117649265 0.286618
000360 5f 38 ca 3e 8a 67 f3 3d ff 81 31 bd 84 53 9c be
       0.39496133 0.11884983 -0.043336865 -0.30532467
000370 4a 08 52 bf 08 82 84 bf 9c d4 2a 3d 35 7e 38 3d
       -0.820439 -1.0352182 0.041706666 0.045042235
000380 56 4c 2e 3e 77 3f 4a 3e b5 84 2d bf a2 74 3e be
       0.17021307 0.19750772 -0.6778062 -0.1859918
000390 61 c8 52 bf 0d 33 79 be 97 27 48 bf be e7 a8 be
       -0.82337004 -0.2433588 -0.7818541 -0.32989305
0003a0 7e 8c 6d 3e e7 e4 2b 3f cb 72 67 3e 3c d5 d8 3d
       0.23198125 0.6714615 0.22602384 0.10587546
0003b0 ad c3 b3 bc 8c 84 e4 3c 9d 76 9c 3e 9a b2 de 3d
       -0.021943891 0.027895235 0.30559245 0.10873909
0003c0 25 16 0e 3e e7 a6 0f bf db 5b 13 be df 82 42 bd
       0.13875635 -0.5611405 -0.14390509 -0.04748809
0003d0 10 c8 1f be 19 cc 07 3f d9 8a 19 3f 36 ac db 3e
       -0.15603662 0.53045803 0.5997749 0.42904824
0003e0 48 52 f5 bc 2e f6 89 be 0b b6 6a 3e e0 a5 1a 3f
       -0.029946461 -0.26945633 0.22921006 0.60409355
0003f0 c6 be a6 3c dc c8 d4 3e a7 fc 19 bf 74 16 21 3c
       0.02035464 0.41559494 -0.6015114 0.009832013

fc2.bias f4 [10]
000000 5b 57 be be 57 e2 14 3e 69 8c 40 3c 3e b5 00 be
       -0.37176022 0.14539467 0.011752226 -0.12569138
000010 68 7e fc bd c1 28 8e 3e cf 11 50 be d7 fb 04 3e
       -0.123287976 0.27765468 -0.20319293 0.12986694
000020 4c 50 64 bd 2e 55 31 bd
       -0.05574064 -0.043294124
