models/model_epoch11.pth (torch, 205023 bytes, 4 tensors)

fc1.weight f4 [64, 784]
0.017811516 0.02870034 -0.018704712 0.02721228 -0.028382476 -0.00470815 0.00972687 -0.017393952
-0.033382762 0.009174948 -0.030386884 -0.026991233 0.052278 0.05352262 0.10485757 0.018213248
-0.022307057 0.013329553 0.020467129 0.0072398745 0.007574967 -0.02333439 0.008291585 -0.0007917413
0.01837636 -0.0015195821 -0.016895857 0.02937802 -0.0020281035 0.00688925 0.02071224 0.02714038
0.019200504 0.057524975 0.10404544 0.10213563 0.08976325 0.12015442 0.1750624 0.19868056
0.15180787 -0.015808525 -0.096635446 0.085340984 0.20309602 0.14102179 0.09030659 0.18284355
0.1075022 -0.012490466 0.07559984 0.0887369 -0.030163463 -0.02849605 0.023353318 0.033890598
-0.02880395 0.0017806846 0.07513001 -0.042850155 0.044056807 0.2340029 0.17786628 0.22731179
0.4412697 0.56889963 0.4899188 0.36384317 0.1769781 0.038955238 0.14167748 0.2690433
0.1926888 0.1416154 0.15552692 -0.0061502303 0.09553354 0.2442695 0.21481378 0.2624132
0.2842055 0.15032218 0.0037793901 -0.024614412 0.00020539336 -0.034028184 0.26111022 0.066913225
0.13651639 0.021673355 0.19874485 0.04702519 0.014954744 0.2044965 -0.012460199 0.041885927
0.10294468 0.12438506 -0.05668551 0.03558025 0.14012428 -0.029970018 0.062097088 0.039138265
-0.3261277 0.09150188 0.26049918 0.35038874 0.13618118 -0.036032185 0.07134355 -0.024839675
-0.009546515 -0.030418888 0.017796287 -0.26763 -0.09879712 0.120093346 0.25738746 0.14540926
0.1916111 0.17072196 0.12135264 0.077072166 0.098400325 0.010621387 0.015736574 -0.04739459
0.046991657 -0.10072122 -0.13643114 0.04841311 -0.019287866 -0.1126024 -0.081108116 0.15206975
-0.06174934 -0.051491093 0.07546709 0.26342136 0.03157133 -0.019978022 0.1970971 -0.017192822
0.12781122 0.16040947 0.068952374 0.023792211 0.12787151 0.0488587 0.056774165 0.008868794
0.10525571 0.027327321 0.13076271 0.06364683 0.123360105 0.022695713 -0.10349072 -0.0054285685
-0.025304789 0.09179622 0.03982798 0.10856756 0.15289052 0.06875477 0.26323807 0.24167778
-0.022242231 0.19447985 -0.14824381 -0.14367357 -0.02236178 -0.07222259 -0.12362105 -0.06723368
-0.072422616 -0.086514354 -0.14388812 -0.15402716 -0.13346009 -0.12432754 -0.05418751 0.16699584
0.14058064 -0.033420675 -0.12656577 -0.00940766 -0.20054169 -0.2561286 -0.017635634 -0.03559326
0.12700884 0.36228517 0.12792066 0.23052543 0.013434391 0.08091623 -0.053425673 -0.3661843
-0.15014413 -0.15111543 -0.23993805 -0.008381598 -0.12014225 -0.12522532 -0.11928722 -0.19365445
-0.17855349 -0.08885569 0.040689334 0.051958997 0.04084447 -0.0025988163 -0.12525538 -0.18013258
-0.185532 -0.07701323 -0.007647398 -0.16520332 -0.012526432 0.25240397 0.056303713 0.21360856
0.04663994 0.17477769 -0.06932213 -0.23323128 -0.10351919 -0.121326976 -0.15628931 -0.036016148
-0.23723419 -0.06683082 -0.07386922 -0.15312417 -0.10476682 -0.020385657 -0.013109058 0.017339624
0.034875497 -0.02459153 -0.22509558 -0.19251305 -0.13409019 -0.2506669 -0.1623571 0.077190846
-0.1544062 -0.14436978 -0.021654192 0.15767957 0.04153849 -0.13380346 -0.019276813 0.07603081
00000000: 75e9 913c fa1c eb3c a03a 99bc 4aec de3c
00000010: 5e82 e8bc d346 9abb 735d 1f3c c37d 8ebc
00000020: 5dbc 08bd 8552 163c eaed f8bc b81c ddbc
00000030: 7521 563d 893a 5b3d 91bf d63d f333 953c
00000040: 4abd b6bc 3364 5a3c aeaa a73c 783c ed3b
00000050: 6e37 f83b c327 bfbc 6ed9 073c dc8c 4fba
00000060: 058a 963c b72c c7ba 2e69 8abc 2caa f03c
00000070: eee9 04bb 38bf e13b b7ac a93c 8155 de3c
00000080: 604a 9d3c 4f9f 6b3d c715 d53d 7c2c d13d
00000090: cbd5 b73d 8513 f63d 8f43 333e eb72 4b3e
000000a0: 8673 1b3e e180 81bc cee8 c5bd 41c7 ae3d
000000b0: 67f8 4f3e 0468 103e a9f2 b83d 573b 3b3e
000000c0: 1d2a dc3d d0a4 4cbc 17d4 9a3d b1bb b53d
000000d0: 5e19 f7bc 8c70 e9bc 754f bf3c ded0 0a3d
000000e0: 43f6 ebbc dc65 e93a c3dd 993d a583 2fbd
000000f0: e974 343d 759e 6f3e 9422 363e 6cc4 683e
00000100: 1aee e13e 68a3 113f a3d6 fa3e a749 ba3e
00000110: bf39 353e 878f 1f3d e713 113e 0bc0 893e
00000120: 3650 453e a103 113e 7342 1f3e df87 c9bb
00000130: 17a7 c33d c921 7a3e 25f8 5b3e 065b 863e
00000140: 6283 913e 0fee 193e a5af 773b 2aa4 c9bc
00000150: dc5e 5739 2361 0bbd 3db0 853e cd09 893d
00000160: f4ca 0b3e 528c b13c c583 4b3e 7c9d 403d
00000170: be04 753c 8867 513e dd25 4cbc 9490 2b3d
00000180: a9d4 d23d 98bd fe3d 112f 68bd 99bc 113d
00000190: bd7c 0f3e af83 f5bc 8459 7e3d 724f 203d
000001a0: 36fa a6be 5665 bb3d 2660 853e 2766 b33e
000001b0: 1473 0b3e 7c96 13bd 911c 923d 937c cbbc
000001c0: fc68 1cbc 0831 f9bc 85c9 913c cd06 89be
000001d0: 2556 cabd 80f3 f53d 4ac8 833e 2ae6 143e
000001e0: b335 443e bdd1 2e3e bc87 f83d 03d8 9d3d
000001f0: 1c86 c93d 5305 2e3c fde9 803c d420 42bd
00000200: 537a 403d ed46 cebd 9bb4 0bbe d34c 463d
00000210: 9601 9ebc 169c e6bd 031c a6bd 2cb8 1b3e
00000220: e0ec 7cbd 53e8 52bd 7d8e 9a3d 2adf 863e
00000230: f050 013d f3a8 a3bc d2d3 493e f6d7 8cbc
00000240: f2e0 023e 6142 243e e736 8d3d e2e7 c23c
00000250: c0f0 023e 0f20 483d 078c 683d 6b4e 113c
00000260: 4e90 d73d 8cdd df3c a9e6 053e 4559 823d
00000270: 39a4 fc3d 5cec b93c f1f2 d3bd 22e2 b1bb
00000280: fd4b cfbc a8ff bb3d aa22 233d ab58 de3d
00000290: 558f 1c3e 4dcf 8c3d 24c7 863e 617a 773e
000002a0: 5735 b6bc ba25 473e 3acd 17be 2a1f 13be
000002b0: 0d30 b7bc 70e9 93bd 082d fdbd d0b1 89bd
000002c0: 4f52 94bd 702e b1bd 6857 13be 4cb9 1dbe
000002d0: c3a9 08be 709f febd b9f3 5dbd f500 2b3e
000002e0: 5ff4 0f3e 1ee4 08bd 759a 01be 9622 1abc
000002f0: cd5a 4dbe 4a23 83be 9b78 90bc 3dca 11bd
00000300: 9b0e 023e 717d b93e a2fd 023e dc0e 6c3e
00000310: eb1b 5c3c 69b7 a53d e1d4 5abd 827c bbbe
00000320: 62bf 19be 01be 1abe 52b2 75be f852 09bc
00000330: 240d f6bd 113b 00be dc4c f4bd 5a4d 46be
00000340: bad6 36be f9f9 b5bd dca9 263d f5d2 543d
00000350: 884c 273d e750 2abb f242 00be ad74 38be
00000360: 1afc 3dbe 1db9 9dbd 0697 fabb 0f2b 29be
00000370: aa3b 4dbc 183b 813e b99e 663d 34bc 5a3e
00000380: 8609 3f3d ecf8 323e c3f8 8dbd 2ed4 6ebe
00000390: de01 d4bd 477a f8bd 4e0a 20be ab85 13bd
000003a0: 85ed 72be 99de 88bd bf48 97bd 95cc 1cbe
000003b0: fd8f d6bd d2ff a6bc 60c7 56bc d40b 8e3c
000003c0: 9cd9 0e3d 2d74 c9bc 757f 66be 2422 45be
000003d0: f04e 09be 6957 80be f140 26be 3c16 9e3d
000003e0: a91c 1ebe acd5 13be 2264 b1bc c176 213e
000003f0: 4424 2a3d c603 09be 68ea 9dbc 0bb6 9b3d

fc1.bias f4 [64]
0.06918126 0.05691655 -0.45003495 0.059639733 -0.07917069 -0.19614948 0.12589936 0.28944924
0.11341516 -0.37348023 0.08319758 -0.16782704 -0.12297567 -0.014244396 -0.12386244 -0.12925152
-0.10987404 0.117929354 0.34335542 0.18461972 -0.2613392 -0.15320162 0.34880182 -0.075586624
0.24828607 0.18044113 -0.30831066 0.43435857 -0.08548082 0.071127824 0.29504916 -0.27428448
-0.20141916 -0.108925626 0.16670868 0.17824703 -0.19672738 0.16295137 0.3739163 -0.27376142
0.10193241 0.14143853 -0.10141104 0.17865722 0.08099913 -0.22746155 -0.17066233 -0.20135392
-0.24465498 0.013632985 -0.20560923 -0.07865087 0.014011476 -0.15016271 0.2655493 -0.02018183
0.12801965 0.014612868 -0.11312956 0.14367327 0.052895483 -0.0065642353 0.24413347 -0.10815418
00000000: e8ae 8d3d 5421 693d fb6a e6be cb48 743d
00000010: 3e24 a2bd 69db 48be c3eb 003e b132 943e
00000020: 3546 e83d cd38 bfbe 7e63 aa3d dada 2bbe
00000030: abda fbbd 5461 69bc 97ab fdbd 835a 04be
00000040: a405 e1bd f284 f13d 48cc af3e f40c 3d3e
00000050: 40ce 85be e3e0 1cbe 2796 b23e 29cd 9abd
00000060: b43e 7e3e 8fc5 383e e5da 9dbe 3f64 de3e
00000070: 9110 afbd 77ab 913d af10 973e 046f 8cbe
00000080: d340 4ebe 6614 dfbd aeb5 2a3e 6486 363e
00000090: e772 49be b9dc 263e f571 bf3e 752a 8cbe
000000a0: f0c1 d03d 43d5 103e 97b0 cfbd ebf1 363e
000000b0: dfe2 a53d aeeb 68be 1bc2 2ebe b92f 4ebe
000000c0: d686 7abe e25c 5f3c 3a8b 52be b513 a1bd
000000d0: 6490 653c 41c4 19be 14f6 873e 5d54 a5bc
000000e0: 9517 033e d06a 6f3c 79b0 e7bd 161f 133e
000000f0: efa8 583d cc18 d7bb 20fe 793e f07f ddbd

fc2.weight f4 [10, 64]
-0.31231025 0.096302904 0.20674562 0.111396484 -0.36312982 0.153634 -0.07628797 -0.58349186
-0.10738753 0.20555788 -0.52606875 0.22779845 0.16621783 -0.425496 -0.13521294 -0.3837667
0.10910402 -0.17078502 0.20148519 0.44824955 0.112983465 0.47566947 0.0771487 0.031538706
-0.9990153 -0.9049452 0.29530975 -0.26762128 0.012930792 0.2820724 0.46967262 0.2667075
-1.0286287 0.15546207 -0.1454578 0.28689697 0.22758998 0.07157048 -0.10105082 0.31162527
-0.5034423 -0.27865872 0.15968284 -0.48609337 0.032909106 -0.13993746 -0.017664537 0.34666717
0.36187628 0.14692415 -0.02115661 0.026920343 -0.24983473 -0.28600293 -0.0125931045 0.0694642
-0.0880815 -0.52238077 0.08876247 0.08088939 0.0062579503 -0.23616499 -0.32895997 -0.39325073
0.19083624 0.30502623 -0.5262554 -0.10535939 0.41552782 -0.48249188 -0.13391186 0.6684403
0.16868824 -0.5602598 -0.32440758 -0.48568666 0.18502311 -0.2550161 -0.16943377 -0.21384698
-0.023983028 0.15416805 -0.34439173 0.21664329 0.0053574787 0.17229602 0.3977007 -0.056258813
0.19552402 0.0693144 0.033688955 0.27915898 -0.42158842 0.030033356 0.5588089 -0.21487343
0.06698574 -0.03715071 0.6386637 -0.27291492 0.22672123 -0.19811821 0.061684128 -0.5762301
0.060296822 -0.557648 0.12878655 0.6558621 -0.6975283 -0.09297641 0.091820225 0.4822551
-0.5246928 0.13240542 -0.82859653 -0.030216575 0.24432155 0.47688118 0.2736901 -0.15819328
0.41843194 0.14181715 -0.48903635 -0.09939921 -0.46125215 0.12110272 0.2552237 0.15717557
0.31593564 0.31041035 -0.19025329 0.42110533 0.47511277 -0.04792705 -0.32242337 -0.14421302
-0.16090181 -0.20452867 -0.37248832 0.18362707 0.09980673 0.23928948 0.04225822 0.13522092
-0.14164741 0.44975924 -0.026638307 0.25776604 -1.1734862 0.21439444 0.24201876 -0.70548177
-0.051383927 0.078344606 0.33072636 0.31611067 0.06488943 -0.028618831 -0.1075518 -0.20905621
-0.20324787 0.07817382 0.3646618 -0.57875174 0.30546644 0.19324335 0.33179045 0.018343564
-0.20228867 -0.19195563 0.21014409 0.40380442 0.39737013 0.06453487 -0.1502396 0.3299388
0.34887153 0.14384669 -0.0108808 -0.031572104 -0.59457576 -0.2695718 0.0808332 -0.09706081
0.3149289 0.6365275 0.3324442 -0.710169 -0.11609175 0.2917327 -0.8256137 0.13850066
-0.2539254 0.060934402 -0.047962207 0.27863565 0.36424422 0.10258551 -0.7309052 -0.5483136
-0.574608 0.22102718 0.19397216 0.07301082 0.49089596 0.27370605 0.18636242 0.083504625
-0.2591651 0.16605473 -0.03031069 -0.22000417 0.24265535 -0.20225777 -0.0521828 0.20008802
0.35195148 0.15952863 -0.05185567 -0.14320554 -0.48248357 -0.8154724 0.038791228 0.038346585
0.163331 0.17220359 -0.56257206 -0.201612 -0.6534272 -0.19921638 -0.68233633 -0.27796534
0.16767322 0.57598954 0.20919722 0.099684715 0.019562593 0.034607634 0.19871368 0.106317185
0.10726853 -0.463999 -0.06911802 -0.08714539 -0.13648511 0.48995748 0.48955896 0.3756088
-0.028683662 -0.2642624 0.18945743 0.5694658 -0.007564761 0.26459348 -0.5475428 -0.002665781
00000000: 21e7 9fbe 753a c53d 20b5 533e d723 e43d
00000010: 27ec b9be 3b52 1d3e de3c 9cbd b95f 15bf
00000020: feed dbbd c47d 523e 71ac 06bf ff43 693e
00000030: 0235 2a3e 9dda d9be 4375 0abe 127d c4be
00000040: ee71 df3d 45e2 2ebe 2252 4e3e f780 e53e
00000050: e063 e73d f38a f33e 2300 9e3d bb2e 013d
00000060: 77bf 7fbf 7daa 67bf d732 973e a805 89be
00000070: acdb 533c cb6b 903e ee78 f03e e38d 883e
00000080: 1baa 83bf 7331 1f3e e4f2 14be 29e4 923e
00000090: 590d 693e 8b93 923d bbf3 cebd 598d 9f3e
000000a0: 98e1 00bf 5bac 8ebe e683 233e 3be1 f8be
000000b0: b3cb 063d c44b 0fbe 38b5 90bc 5c7e b13e
000000c0: d947 b93e 4973 163e a150 adbc 0d88 dc3c
000000d0: add4 7fbe fa6e 92be 4f53 4ebc 3f43 8e3d
000000e0: 1364 b4bd bfba 05bf 19c9 b53d 56a9 a53d
000000f0: 7e0f cd3b 3cd5 71be 716d a8be 2958 c9be
00000100: 936a 433e 662c 9c3e adb8 06bf aac6 d7bd
00000110: 10c0 d43e 2d09 f7be 3120 09be e71e 2b3f
00000120: 9cbc 2c3e 306d 0fbf c018 a6be ecab f8be
00000130: b376 3d3e 7891 82be 0c80 2dbe b4fa 5abe
00000140: 0e78 c4bc 3bde 1d3e 1d54 b0be bdd7 5d3e
00000150: ca8d af3b 5e6e 303e 6d9f cb3e a46f 66bd
00000160: 7337 483e b5f4 8d3d 6efd 093d eded 8e3e
00000170: 70da d7be 8308 f63c 1a0e 0f3f c807 5cbe
00000180: d22f 893d 582b 18bd 777f 233f 81bb 8bbe
00000190: 9c29 683e 80df 4abe 7fa8 7c3d d183 13bf
000001a0: cdf9 763d 05c2 0ebf 9fe0 033e 94e6 273f
000001b0: 3791 32bf 6b6a bebd 3e0c bc3d 24ea f63e
000001c0: 4452 06bf 4995 073e e71e 54bf c088 f7bc
000001d0: 6e2f 7a3e c529 f43e 1c21 8c3e 6bfd 21be
000001e0: b63c d63e 8438 113e f962 fabe d091 cbbd
000001f0: 3e29 ecbe b404 f83d aeac 823e a2f2 203e
00000200: 51c2 a13e 1bee 9e3e c2d1 42be 1e9b d73e
00000210: fb41 f33e 284f 44bd ad14 a5be 94ac 13be
00000220: 72c3 24be f76f 51be cab6 bebe bc08 3c3e
00000230: 7967 cc3d 4d08 753e f516 2d3d 5a77 0a3e
00000240: 050c 11be d846 e63e 9438 dabc e9f9 833e
00000250: cc34 96bf 378a 5b3e c4d3 773e 749a 34bf
00000260: f477 52bd 2373 a03d f754 a93e 42d9 a13e
00000270: c0e4 843d 0a72 eabc 1e44 dcbd d512 56be
00000280: 3620 50be 9919 a03d f4b4 ba3e 1329 14bf
00000290: 1966 9c3e 96e1 453e 70e0 a93e 3e45 963c
000002a0: c324 4fbe 0490 44be 0330 573e 74bf ce3e
000002b0: 1974 cb3e dc2a 843d 69d8 19be bded a83e
000002c0: 4a9f b23e 8c4c 133e 6245 32bc c051 01bd
000002d0: 1e36 18bf 5105 8abe e08b a53d d1c7 c6bd
000002e0: 5c3e a13e 77f3 223f 2036 aa3e a3cd 35bf
000002f0: 83c1 edbd fd5d 953e 6b5b 53bf 1ed3 0d3e
00000300: 8302 82be 5a96 793d 0574 44bd 55a9 8e3e
00000310: 387e ba3e 5a18 d23d 9a1c 3bbf 485e 0cbf
00000320: 8319 13bf f354 623e a3a0 463e b286 953d
00000330: b756 fb3e 3323 8c3e cad5 3e3e 7904 ab3d
00000340: 4ab1 84be 400a 2a3e 204e f8bc c648 61be
00000350: a57a 783e a91c 4fbe a2bd 55bd e0e3 4c3e
00000360: fc32 b43e 795b 233e 9c66 54bd 79a4 12be
00000370: 1608 f7be cdc2 50bf 8de3 1e3d 4f11 1d3d
00000380: 3e40 273e 2356 303e b904 10bf 6073 4ebe
00000390: 0147 27bf 61ff 4bbe 98ad 2ebf 7951 8ebe
000003a0: 87b2 2b3e 0d74 133f cc37 563e 8027 cc3d
000003b0: bb41 a03c bcc0 0d3d 997b 4b3e d3bc d93d
000003c0: 9aaf db3d 4791 edbe c08d 8dbd 4879 b2bd
000003d0: c1c2 0bbe b5db fa3e 79a7 fa3e cc4f c03e
000003e0: 00fa eabc 674d 87be 2101 423e 83c8 113f
000003f0: d1e1 f7bb cc78 873e c42b 0cbf 62b4 2ebb

fc2.bias f4 [10]
-0.26195753 0.15004511 0.036119185 -0.12393763 -0.12718801 0.25626183 -0.18642905 0.14017938
-0.11795281 -0.05945697
00000000: 4c1f 86be 6da5 193e b6f1 133d 03d3 fdbd
00000010: 933d 02be c034 833e 42e7 3ebe 2f8b 0f3e
00000020: 3e91 f1bd 2789 73bd
