models/model_epoch4.pth (torch, 205023 bytes, 4 tensors)

fc1.weight f4 [64, 784]
0.017811516 0.02870034 -0.018704712 0.02721228 -0.028382476 -0.00470815 0.00972687 -0.017393952
-0.033382762 0.009174948 -0.030386884 -0.026991233 0.05881071 0.034586534 0.050336722 -0.015705083
-0.022307057 0.013329553 0.020467129 0.0072398745 0.007574967 -0.02333439 0.008291585 -0.0007917413
0.01837636 -0.0015195821 -0.016895857 0.02937802 -0.0020281035 0.00688925 0.02071224 0.02714038
0.016648512 0.054590385 0.102532186 0.10397507 0.09224241 0.11626367 0.11179562 0.09328622
0.0683798 0.025903547 0.007326348 0.14880292 0.19463117 0.12446604 0.08051747 0.14490756
0.12731206 0.06695397 0.0987474 0.07861878 -0.030163463 -0.02849605 0.023353318 0.033890598
-0.02880395 0.0017806846 0.05163771 0.04352503 0.032422423 0.10369635 0.09187522 0.17451958
0.24491711 0.33228618 0.2780037 0.27839202 0.1956847 0.16057889 0.11441257 0.20477082
0.14457256 0.10688225 0.13461547 0.10309305 0.13680495 0.11335427 0.1079154 0.12845701
0.17537186 0.10139425 0.0037793901 -0.024614412 0.00020539336 -0.034028184 0.13196716 0.08838841
0.055562075 -0.00729719 0.029738227 0.015437377 0.040794063 0.1523981 0.07187612 0.059900284
0.04734308 0.10888492 -0.020684695 0.01407107 0.061856013 -0.0672133 0.0046371613 -0.030964158
-0.11562966 0.035301078 0.04793287 0.13511916 0.07701824 0.034909956 0.034956742 -0.024839675
-0.009546515 -0.018936703 -0.038004275 -0.11437853 -0.037527513 -0.0007420839 0.051071983 0.0057263994
0.05531796 0.09353402 0.08246167 0.030041656 0.053916402 0.03913941 0.05522827 0.038248174
0.054743923 -0.024132779 -0.010766587 0.018649941 -0.00074916385 -0.044007346 -0.069332965 -0.015423648
-0.090989225 -0.050842743 0.061176013 0.13149887 0.03157133 -0.019978022 0.04456826 -0.05547502
0.009042114 -0.02887308 -0.08689291 -0.06985126 -0.026970288 -0.012184146 8.322298e-05 -0.021481965
0.05080795 -0.006864538 0.05060695 0.054796726 0.04879409 0.035333082 -0.023937887 0.011521028
0.010294153 0.06751181 0.046593547 0.06447136 0.10278355 0.020917283 0.10675099 0.10404545
-0.022242231 0.07383774 -0.10270385 -0.10005433 -0.04273261 -0.11164814 -0.15131181 -0.122889355
-0.11609524 -0.08952929 -0.119872384 -0.09690093 -0.081470296 -0.06791484 -0.072267056 0.01566776
0.009146718 -0.04777501 -0.09021387 -0.031306896 -0.09613021 -0.07419102 -0.005448174 0.04152015
0.13104427 0.16701156 0.05681192 0.12585679 0.013437944 0.0015313444 -0.070278324 -0.18245661
-0.11231752 -0.154329 -0.18372105 -0.06894759 -0.07721334 -0.08039437 -0.074980475 -0.0857012
-0.10136049 -0.07206971 -0.05169587 -0.07753127 -0.061550517 -0.07314444 -0.061392814 -0.058781177
-0.09691074 -0.026235769 -0.027018681 -0.057864383 0.01677502 0.03833211 0.04183999 0.118150435
0.07832058 0.037268452 -0.03404854 -0.102447405 -0.091934964 -0.13095336 -0.1367524 -0.04244884
-0.109544024 -0.02939626 -0.0300609 -0.07170222 -0.047050167 -0.031971637 -0.05146471 -0.07260343
-0.030669633 -0.060915254 -0.14127132 -0.062184636 -0.061031826 -0.09457159 -0.079879634 -0.013381581
-0.06691008 -0.08687875 0.027218223 0.093646884 0.03589673 -0.068864696 -0.066352025 -0.0130617935
00000000: 75e9 913c fa1c eb3c a03a 99bc 4aec de3c
00000010: 5e82 e8bc d346 9abb 735d 1f3c c37d 8ebc
00000020: 5dbc 08bd 8552 163c eaed f8bc b81c ddbc
00000030: 80e3 703d 9caa 0d3d e12d 4e3d f2a7 80bc
00000040: 4abd b6bc 3364 5a3c aeaa a73c 783c ed3b
00000050: 6e37 f83b c327 bfbc 6ed9 073c dc8c 4fba
00000060: 058a 963c b72c c7ba 2e69 8abc 2caa f03c
00000070: eee9 04bb 38bf e13b b7ac a93c 8155 de3c
00000080: 7662 883c 2b9a 5f3d 65fc d13d e2f0 d43d
00000090: 97e9 bc3d a61b ee3d 1af5 e43d d90c bf3d
000000a0: b50a 8c3d ad33 d43c dd11 f03b cb5f 183e
000000b0: 654d 473e 0de8 fe3d 58e6 a43d a662 143e
000000c0: 185e 023e 2a1f 893d 143c ca3d e202 a13d
000000d0: 5e19 f7bc 8c70 e9bc 754f bf3c ded0 0a3d
000000e0: 43f6 ebbc dc65 e93a 1082 533d 4d47 323d
000000f0: 60cd 043d c05e d43d 1329 bc3d 43b5 323e
00000100: 8dcb 7a3e 6a21 aa3e 8056 8e3e 6689 8e3e
00000110: 9261 483e cb6e 243e 2351 ea3d 71af 513e
00000120: d40a 143e 15e5 da3d a3d8 093e 7322 d33d
00000130: 9916 0c3e 4926 e83d c002 dd3d 3c8a 033e
00000140: ae94 333e caa7 cf3d a5af 773b 2aa4 c9bc
00000150: dc5e 5739 2361 0bbd 6622 073e fc04 b53d
00000160: 0f95 633d 441d efbb 959d f33c 0ded 7c3c
00000170: ad17 273d 3f0e 1c3e ca33 933d 005a 753d
00000180: d1ea 413d 0fff de3d f372 a9bc 588a 663c
00000190: bb5c 7d3d 20a7 89bd 54f3 973b 8ca8 fdbc
000001a0: 3ecf ecbd dd97 103d 4255 443d ad5c 0a3e
000001b0: bdbb 9d3d befd 0e3d cd2e 0f3d 937c cbbc
000001c0: fc68 1cbc 2521 9bbc 5faa 1bbd 4a3f eabd
000001d0: 73b6 19bd 6888 42ba db30 513d 85a4 bb3b
000001e0: 1695 623d c48e bf3d aae1 a83d eb19 f63c
000001f0: 72d7 5c3d a550 203d 0a37 623d 1eaa 1c3d
00000200: 2a3b 603d 1bb2 c5bc 5766 30bc c3c7 983c
00000210: 8963 44ba 0c41 34bd 71fe 8dbd 78b3 7cbc
00000220: 8f58 babd 7b40 50bd b393 7a3d a4a7 063e
00000230: f050 013d f3a8 a3bc 358d 363d c639 63bd
00000240: 6025 143c 3d87 ecbc e9f4 b1bd 2d0e 8fbd
00000250: cbf0 dcbc 03a0 47bc ff87 ae38 f2fa afbc
00000260: ff1b 503d ebef e0bb 3c49 4f3d 8872 603d
00000270: 50dc 473d 6cb9 103d 6319 c4bc b2c2 3c3c
00000280: cfa8 283c a243 8a3d e0d8 3e3d 8f09 843d
00000290: 2f80 d23d b95a ab3c 43a0 da3d c815 d53d
000002a0: 5735 b6bc 3e38 973d 6556 d2bd 49e9 ccbd
000002b0: 6408 2fbd c8a7 e4bd 7cf1 1abe 6aad fbbd
000002c0: 57c3 edbd 225b b7bd a77f f5bd ff73 c6bd
000002d0: e6d9 a6bd f016 8bbd c000 94bd ad59 803c
000002e0: 1edc 153c bbaf 43bd 0dc2 b8bd a93b 00bd
000002f0: eadf c4bd 76f1 97bd 9986 b2bb 0811 2a3d
00000300: 7830 063e 1405 2b3e 9eb3 683d 9ae0 003e
00000310: d32a 5c3c 64b7 c83a 15ee 8fbd e8d5 3abe
00000320: ba06 e6bd 6c08 1ebe 5f21 3cbe 6534 8dbd
00000330: 0722 9ebd cea5 a4bd 5d8f 99bd 1c84 afbd
00000340: 1796 cfbd 4999 93bd 0cbf 53bd b7c8 9ebd
00000350: 651c 7cbd c1cc 95bd 0877 7bbd 88c4 70bd
00000360: 2379 c6bd 65ec d6bc 4856 ddbc 3403 6dbd
00000370: c46b 893c 2102 1d3d 6960 2b3d dbf8 f13d
00000380: 8a66 a03d cea6 183d 7b76 0bbd f2cf d1bd
00000390: 6648 bcbd a318 06be d208 0cbe d6de 2dbd
000003a0: 9e58 e0bd 6dd0 f0bc 4742 f6bc 9dd8 92bd
000003b0: adb7 40bd b1f4 02bd a9cc 52bd 1bb1 94bd
000003c0: e23e fbbc 4682 79bd 6ea9 10be 51b5 7ebd
000003d0: 82fc 79bd c0ae c1bd ef97 a3bd 6b3e 5bbc
000003e0: 2708 89bd 7ced b1bd c0f8 de3c f0c9 bf3d
000003f0: 7308 133d ef08 8dbd 92e3 87bd 2201 56bc

fc1.bias f4 [64]
-0.010184543 0.082053 -0.32731998 0.12191344 -0.003789875 -0.17357239 0.022985121 0.28605044
0.0725257 -0.25349993 0.08930155 -0.15344392 -0.06653717 -0.08636825 -0.1415793 -0.16624124
-0.047744714 0.08469388 0.21986313 0.114151746 -0.16765566 -0.10753518 0.18610005 -0.085467026
0.17263016 0.14489818 -0.19614223 0.32060197 -0.08958226 0.08087779 0.27261764 -0.20502324
-0.106009364 -0.016481 0.10645384 0.08830063 -0.18559515 0.22619452 0.33301672 -0.21915318
0.074058875 0.07401735 -0.053507965 0.11527521 0.042879753 -0.22913332 -0.11740195 -0.15699874
-0.24913864 0.011533616 -0.19624545 -0.0642398 0.0741745 -0.054196835 0.20424698 0.0409849
0.14512904 0.014724837 -0.10588043 0.14838377 -0.017356182 0.05252631 0.20345517 -0.12662566
00000000: 12dd 26bc 670b a83d 7c96 a7be c1ad f93d
00000010: 8d5f 78bb f6bc 31be 4b4b bc3c 3475 923e
00000020: 5b88 943d beca 81be bbe3 b63d 6720 1dbe
00000030: a444 88bd d6e1 b0bd 2afa 10be 253b 2abe
00000040: f68f 43bd fc73 ad3d cd23 613e 64c8 e93d
00000050: edad 2bbe 683b dcbd 0391 3e3e 5609 afbd
00000060: f6c5 303e 3060 143e 82d9 48be f125 a43e
00000070: e776 b7bd 41a3 a53d 8a94 8b3e 9df1 51be
00000080: 701b d9bd 2a03 87bc 7904 da3d f6d6 b43d
00000090: a80c 3ebe 899f 673e 2b81 aa3e b169 60be
000000a0: 2eac 973d 6996 973d 2b2b 5bbd 6915 ec3d
000000b0: aea2 2f3d eda1 6abe 6f70 f0bd 47c4 20be
000000c0: 331e 7fbe 7ef7 3c3c 91f4 48be 2890 83bd
000000d0: cde8 973d 80fd 5dbd 1f26 513e c8df 273d
000000e0: b59c 143e 7140 713c d7d7 d8bd eaf1 173e
000000f0: 8d2e 8ebc d425 573d 8d56 503e 28aa 01be

fc2.weight f4 [10, 64]
-0.18825968 -0.009016799 0.18109046 0.124606 -0.22677003 0.16534063 -0.035344627 -0.3862775
-0.06922004 0.05908949 -0.29932106 0.2045521 0.03789916 -0.20604002 -0.14111356 -0.23177327
0.13035493 -0.042490657 0.1066758 0.29817787 0.018554546 0.2616966 0.15515733 0.07224929
-0.47339454 -0.53789884 0.11399481 -0.206282 0.09062341 0.09424542 0.26032782 0.2073256
-0.6232333 0.18670253 -0.19977216 0.2882306 0.1433078 0.09962842 -0.023159444 0.14747286
-0.25560522 -0.12734146 0.088767625 -0.3779455 0.040523984 -0.14667061 -0.0070872447 0.26056528
0.2720215 0.16193601 0.020363675 0.075234696 -0.20175909 -0.123495094 -0.03136689 0.04549857
0.024612933 -0.24112868 0.121163204 0.10616693 0.015719399 -0.2063102 -0.21568099 -0.2500814
0.17345665 0.27328047 -0.32462597 -0.046322275 0.320207 -0.30963027 -0.11523078 0.2209301
0.12260248 -0.39823467 -0.30102563 -0.3839424 0.13445014 -0.12241966 -0.18421169 -0.17697659
-0.10189209 0.13999318 -0.32225454 0.060528696 0.06858714 0.19183053 0.25972697 0.09007904
0.10200452 0.06744171 0.03480815 0.20262438 -0.22680575 -0.14354324 0.30055928 -0.18409541
0.042344455 -0.049437735 0.3069707 -0.25119567 0.19176446 -0.21923254 -0.13128373 -0.34317237
0.05971254 -0.38284856 0.15926303 0.28665397 -0.44415122 -0.09488421 0.107050136 0.32325864
-0.3152989 0.049156036 -0.44642195 -0.012556643 0.15965143 0.27911723 0.15328643 -0.04065748
0.28123146 0.09635064 -0.3817339 0.14474188 -0.41567317 0.1326643 0.197779 0.12268397
0.26064718 0.19215626 -0.10672475 0.3265465 0.29812506 -0.019604972 -0.31274536 -0.1443132
-0.11952484 -0.16818917 -0.25328988 0.1315207 0.09780892 0.16159898 0.052804995 0.15476853
-0.13801713 0.2956854 -0.03578803 0.12367209 -0.7716811 0.1109736 0.15638815 -0.59570026
-0.077079915 0.07076167 0.19191097 0.25899127 0.124602064 -0.059570692 -0.074539535 -0.15282331
-0.24044459 0.083943345 0.28442967 -0.44063196 0.2221455 0.2207774 0.15448183 -0.00788172
-0.16175936 -0.16003744 0.18603995 0.37924132 0.20118849 0.09857646 -0.10608463 0.24736378
0.18283653 0.1351516 -0.043235246 -0.07706017 -0.4129813 -0.21532035 0.060567375 -0.01537727
0.29017794 0.53193355 0.28228682 -0.51386464 -0.1316809 0.25285345 -0.6743649 0.1267778
-0.22578955 0.07154697 -0.08416788 0.19401449 0.32905045 0.114690505 -0.5109225 -0.24920467
-0.31032494 0.17078052 0.12109146 0.100139596 0.31544334 0.08376486 0.20577009 0.05780754
-0.21614416 0.12552568 -0.06819666 -0.15601951 0.101952985 -0.14072083 -0.03642459 0.067116976
0.22703369 0.15343232 -0.093583986 -0.015685081 -0.20003974 -0.42046323 0.03913721 0.04890207
0.13146403 0.16203375 -0.26508695 -0.18163623 -0.41928807 -0.08472 -0.43662587 -0.2564605
0.11510056 0.34769475 0.16049989 0.10771766 0.046879094 0.013862999 0.18130182 0.10429941
0.090850815 -0.29242608 -0.018875688 -0.09836107 -0.110674 0.29914808 0.310814 0.26157638
0.057667214 -0.2882504 0.15667064 0.38168263 -0.08242077 0.040539794 -0.41200125 -0.039244257
00000000: 25c7 40be 32bb 13bc c76f 393e 6e31 ff3d
00000010: 6736 68be 0e4f 293e 87c5 10bd 2ac6 c5be
00000020: 3dc3 8dbd d207 723d 9c40 99be 1b76 513e
00000030: 263c 1b3d 28fc 52be 1380 10be f955 6dbe
00000040: c37b 053e af0a 2ebd d878 da3d c5aa 983e
00000050: b4ff 973c 19fd 853e 90e1 1e3e 70f7 933d
00000060: c560 f2be bdb3 09bf 1c76 e93d 973b 53be
00000070: c498 b93d be03 c13d b049 853e 294d 543e
00000080: 388c 1fbf f32e 3f3e 1391 4cbe f692 933e
00000090: 48bf 123e fc09 cc3d e0b8 bdbc 2003 173e
000000a0: b0de 82be cd65 02be cdcb b53d 1382 c1be
000000b0: 7afc 253d d230 16be 1e3c e8bb d068 853e
000000c0: 6746 8b3e 8ed2 253e b9d1 a63c a614 9a3d
000000d0: ef99 4ebe ffea fcbd 917a 00bd b55c 3a3d
000000e0: 10a1 c93c 70ea 76be 6a24 f83d 0c6e d93d
000000f0: f8c5 803c fb42 53be 7adb 5cbe ab0a 80be
00000100: 9f9e 313e 6beb 8b3e 6035 a6be 6dbc 3dbd
00000110: 2cf2 a33e dc87 9ebe 1dfe ebbd 803b 623e
00000120: 0217 fb3d 6ae5 cbbe 0820 9abe 1994 c4be
00000130: 4cad 093e 29b7 fabd fda1 3cbe 5a39 35be
00000140: cdac d0bd 5f5a 0f3e 8cfe a4be f0ec 773d
00000150: 6a77 8c3d 396f 443e effa 843e 5c7b b83d
00000160: bfe7 d03d e11e 8a3d fe92 0e3d c47c 4f3e
00000170: c43f 68be 00fd 12be e8e2 993e 8283 3cbe
00000180: 6171 2d3d 397f 4abd 432b 9d3e b89c 80be
00000190: e75d 443e 7f7e 60be 3e6f 06be 4ab4 afbe
000001a0: 2395 743d ba04 c4be d915 233e 4fc4 923e
000001b0: ca67 e3be a752 c2bd 1a3d db3d 2882 a53e
000001c0: db6e a1be d757 493d 6b91 e4be 61ba 4dbc
000001d0: aa7b 233e 74e8 8e3e 1ef7 1c3e 7588 26bd
000001e0: 92fd 8f3e 7c53 c53d a072 c3be 3737 143e
000001f0: 1dd3 d4be 26d9 073e 9486 4a3e bc41 fb3d
00000200: 8c73 853e 9cc4 443e 8192 dabd 1a31 a73e
00000210: d9a3 983e 9b9a a0bc 2920 a0be d7c6 13be
00000220: 70c9 f4bd c839 2cbe 36af 81be 5dad 063e
00000230: 0b50 c83d 347a 253e 0d4a 583d a47b 1e3e
00000240: 5d54 0dbe 1464 973e 7896 12bd cb47 fd3d
00000250: e48c 45bf 2046 e33d 3724 203e d07f 18bf
00000260: 13dc 9dbd 7feb 903d 4f84 443e 819a 843e
00000270: 5e2f ff3d 6600 74bd 2fa8 98bd b77d 1cbe
00000280: 1b37 76be 7dea ab3d c4a0 913e 839a e1be
00000290: 1c7a 633e 7913 623e 7c30 1e3e 5422 01bc
000002a0: 3fa4 25be dbe0 23be 4281 3e3e eb2b c23e
000002b0: 5b04 4e3e 74e2 c93d e642 d9bd ee4c 7d3e
000002c0: 8039 3b3e 2e65 0a3e 7117 31bd b9d1 9dbd
000002d0: 4972 d3be f07c 5cbe 7f15 783d f2f0 7bbc
000002e0: 3492 943e cc2c 083f e687 903e a28c 03bf
000002f0: 5cd7 06be 0276 813e 2ea3 2cbf 0ad2 013e
00000300: 6035 67be 3887 923d 3660 acbd bcab 463e
00000310: 4d79 a83e dbe2 ea3d d1cb 02bf 822f 7fbe
00000320: e9e2 9ebe 17e1 2e3e cdfe f73d fd15 cd3d
00000330: ca81 a13e e98c ab3d 65b5 523e 99c7 6c3d
00000340: e554 5dbe ce89 003e b1aa 8bbd 94c3 1fbe
00000350: bacc d03d 1f19 10be f331 15bd a074 893d
00000360: 857b 683e 5d1d 1d3e f6a8 bfbd 007e 80bc
00000370: 38d7 4cbe f546 d7be 574e 203d 894d 483d
00000380: 829e 063e 2dec 253e 7ab9 87be d9fe 39be
00000390: edac d6be ae81 adbd 6d8d dfbe ca4e 83be
000003a0: d8b9 eb3d 0c05 b23e 155a 243e 149b dc3d
000003b0: 4b04 403d a221 633c 2fa7 393e ee9a d53d
000003c0: fe0f ba3d dfb8 95be 30a1 9abc 8771 c9bd
000003d0: 0da9 e2bd f029 993e 0323 9f3e 57ed 853e
000003e0: 7534 6c3d 8e95 93be 456e 203e e86b c33e
000003f0: 38cc a8bd 0e0d 263d d4f1 d2be 96be 20bd

fc2.bias f4 [10]
-0.12549017 0.16090111 0.0027215204 -0.0991225 -0.086551644 0.18051311 -0.12623113 0.11830969
-0.17208079 -0.076022804
00000000: 7f80 00be 43c3 243e 895b 323b bd00 cbbd
00000010: fd41 b1bd 6ed8 383e bc42 01be 5a4c f23d
00000020: f235 30be d8b1 9bbd
