models/model_epoch15.pth (torch, 205023 bytes, 4 tensors)

fc1.weight f4 [64, 784]
00000000: 75e9 913c fa1c eb3c a03a 99bc 4aec de3c
00000010: 5e82 e8bc d346 9abb 735d 1f3c c37d 8ebc
00000020: 5dbc 08bd 8552 163c eaed f8bc b81c ddbc
00000030: da91 3e3d 0cdf 523d 9de4 e43d 9b3b 9d3c
00000040: 4abd b6bc 3364 5a3c aeaa a73c 783c ed3b
00000050: 6e37 f83b c327 bfbc 6ed9 073c dc8c 4fba
00000060: 058a 963c b72c c7ba 2e69 8abc 2caa f03c
00000070: eee9 04bb 38bf e13b b7ac a93c 8155 de3c
00000080: e317 9e3c 447a 6c3d 1129 d53d 77e0 d03d
00000090: eb73 c73d fd5a 0c3e 05a8 473e 6107 6c3e
000000a0: 3b1e 443e 41db 88bc a86f 15be 373e a23d
000000b0: c3fd 863e 6caa 683e 5746 2d3e 1135 453e
000000c0: b984 863d b73f 52bd 490c 8d3d 953c b73d
000000d0: 5e19 f7bc 8c70 e9bc 754f bf3c ded0 0a3d
000000e0: 43f6 ebbc dc65 e93a b1f0 993d 212e 6dbd
000000f0: ac20 0e3d 60a2 9e3e f79c 823e eb5b 993e
00000100: 654c 013f bebf 1f3f fefd 083f 99b7 d83e
00000110: 73b4 373e bfd4 6bbc db6f 403e da64 a33e
00000120: c1b7 5c3e bc08 3c3e c773 023e e0bb 96bd
00000130: 7940 873d 4ad7 993e 6fc3 783e 3ec0 8b3e
00000140: 3471 9e3e 2df6 1a3e a5af 773b 2aa4 c9bc
00000150: dc5e 5739 2361 0bbd cf17 953e 974d a43d
00000160: 8cc5 463e a5b8 b53d 0ab1 953e 72c3 bc3d
00000170: 85a9 1ebd 19ab 363e 6dda debd d4eb 0d3d
00000180: 4e78 2b3e d366 113e 1b5b 3dbd 2531 983d
00000190: c9c0 3b3e ac98 963c 006e bb3d a907 ca3d
000001a0: 0059 c6be 13db 113e 7cdf b83e a2f8 d43e
000001b0: e6e2 313e e7d3 b3bd b6b9 a33d 937c cbbc
000001c0: fc68 1cbc f8b7 fabc 4c2c 613d 0c36 aebe
000001d0: 4665 13be f6a5 4d3e 2831 b03e abfa 3f3e
000001e0: 9d4f 563e 8d3d 2b3e caf8 ec3d 22cd dc3d
000001f0: 9f1c 063e 324e bf39 6826 bbbc b5b8 d2bd
00000200: 566b c23b 9151 38be 3530 50be fe56 643d
00000210: 4003 6abc 7fe7 0dbe e989 bebd e9b6 7d3e
00000220: dcbf 21bc 17c3 6cbd 6ab8 da3a d48d 8e3e
00000230: f050 013d f3a8 a3bc 7d99 733e 612a 9abc
00000240: b1b0 073e ca4f 6e3e 27ce cc3d 79de c53c
00000250: a90f 523e 8327 a93d b772 da3d 1ae4 123d
00000260: 8fdc 093e 9182 083d f3a4 123e 6571 043d
00000270: 2837 103e 9243 6f3c dd20 10be db86 e1bb
00000280: ac63 26bd 9583 173e 928b 903d 6990 373e
00000290: 13f3 423e 7c71 e13d 45e9 933e f55a 833e
000002a0: 5735 b6bc da1c 4d3e 3f24 09be ffa3 11be
000002b0: 89b9 36bd 6e35 d3bd 30e4 05be 732f 26bd
000002c0: e2f7 02bd fa77 88bd 44de 04be 2a4e 1ebe
000002d0: aaf7 ffbd 2b4e 23be e2e2 8cbd 1f73 633e
000002e0: fc50 493e cf6f 4cbd 8153 0ebe 8792 cd3c
000002f0: 1e7c 56be 60cc 9abe 9b5d 43bb edf1 9bbc
00000300: 0c86 163e 366a d43e eac4 463e aeb8 993e
00000310: e91b 5c3c 166c bc3d 105a a7bc bd24 e5be
00000320: d4dd 02be 7473 0bbe ce15 99be 9540 353c
00000330: 7117 fcbd 168d fbbd eb7c e1bd dbec 42be
00000340: f530 48be 7c21 e4bd 135a 843d 0f92 b83d
00000350: 6dde a73d 4d27 2e3c 85ff 18be cf14 56be
00000360: 24c2 49be 3c9d e9bd 90c1 0bbd 2d33 44be
00000370: a75f 013a 609d af3e e6f8 9e3d a429 903e
00000380: 9b39 e43d f5af 6e3e dcf1 cfbd 13ed 9cbe
00000390: fe73 35bd eeac f1bd d25f 4fbe 9619 87bd
000003a0: e777 93be 022f 89bd 02af 61bd 4516 29be
000003b0: 7a47 e6bd cb0f 6ebc 7a06 4b3c 5493 613d
000003c0: f8e4 713d 9b85 d4bc 664b 7ebe f708 50be
000003d0: e1eb fcbd 1ec4 95be de91 66be 6dd1 b83d
000003e0: 1624 42be edf1 2cbe 65a0 42bd 9277 193e
000003f0: 9ef4 2c3d d8d3 29be b0f0 bb3c 3b61 293d
0.017811516 0.02870034 -0.018704712 0.02721228 -0.028382476 -0.00470815 0.00972687 -0.017393952
-0.033382762 0.009174948 -0.030386884 -0.026991233 0.046525814 0.051482245 0.11176417 0.019193461
-0.022307057 0.013329553 0.020467129 0.0072398745 0.007574967 -0.02333439 0.008291585 -0.0007917413
0.01837636 -0.0015195821 -0.016895857 0.02937802 -0.0020281035 0.00688925 0.02071224 0.02714038
0.0192985 0.05773379 0.104082234 0.10199063 0.097389065 0.13706584 0.19497688 0.2304969
0.19152157 -0.01670611 -0.14593375 0.07922023 0.2636548 0.22721261 0.16921364 0.19258524
0.065682836 -0.051330294 0.06887109 0.08947102 -0.030163463 -0.02849605 0.023353318 0.033890598
-0.02880395 0.0017806846 0.07516611 -0.05790532 0.034699127 0.30983257 0.2551038 0.2995294
0.50507194 0.6240195 0.5351256 0.42327574 0.1793993 -0.014393984 0.1879267 0.3191288
0.21554472 0.18362707 0.12739478 -0.07360053 0.06604094 0.30047065 0.24293302 0.27295107
0.30945742 0.15132971 0.0037793901 -0.024614412 0.00020539336 -0.034028184 0.29119727 0.080226116
0.19411296 0.08873109 0.29236633 0.09216966 -0.038735885 0.17838706 -0.10881505 0.03464873
0.16745111 0.1419938 -0.046229463 0.074312486 0.1833526 0.018383346 0.0915184 0.09864742
-0.38739777 0.14243726 0.36108005 0.41595942 0.17371711 -0.087806515 0.07994406 -0.024839675
-0.009546515 -0.030605301 0.054973885 -0.3402561 -0.14394102 0.2008284 0.34412503 0.18747966
0.20928808 0.16722699 0.1157089 0.107813135 0.13096856 0.0003648862 -0.022845462 -0.10289136
0.0059332056 -0.17999865 -0.2033089 0.055747025 -0.014283001 -0.1385784 -0.09303648 0.24776806
-0.009872403 -0.05780324 0.001668704 0.2784258 0.03157133 -0.019978022 0.2378902 -0.018819036
0.13250996 0.23272625 0.10000258 0.024153935 0.20513786 0.082594894 0.10666411 0.035862066
0.13463043 0.033327643 0.14320736 0.032334704 0.1408354 0.014603512 -0.14075036 -0.006882531
-0.0406224 0.14796288 0.07057871 0.17926182 0.19038038 0.110079736 0.28888908 0.25655332
-0.022242231 0.20030537 -0.13392733 -0.14222716 -0.044610534 -0.10312925 -0.13075328 -0.040572595
-0.03197468 -0.06663509 -0.12975413 -0.15459505 -0.1249841 -0.15947787 -0.06879212 0.22211884
0.196598 -0.049911316 -0.13899042 0.025094284 -0.20945784 -0.3023405 -0.0029810432 -0.019036258
0.14699572 0.41487283 0.19411054 0.30023712 0.013434389 0.09200303 -0.020428687 -0.44754592
-0.12779933 -0.1361826 -0.29899448 0.011062761 -0.123091586 -0.122827694 -0.11010154 -0.19035666
-0.19549926 -0.11139199 0.06462493 0.090122335 0.08196721 0.010629487 -0.14941223 -0.20906375
-0.19702965 -0.11406943 -0.034120142 -0.19160147 0.0004935213 0.34299755 0.07762317 0.2815677
0.111438 0.2330931 -0.10153553 -0.30649623 -0.044300072 -0.11800562 -0.20251396 -0.06596677
-0.28802416 -0.06698419 -0.05509854 -0.16512401 -0.11244102 -0.0145301325 0.012391681 0.055072144
0.059056252 -0.025942614 -0.2483345 -0.2031592 -0.12349678 -0.29251188 -0.22516581 0.0902432
-0.18959078 -0.16889162 -0.047516245 0.14987019 0.042225473 -0.16584718 0.022941917 0.04135249

fc1.bias f4 [64]
00000000: 272f 843d 5598 863d 75dd e6be 4257 fc3c
00000010: 7311 04be c2e3 43be 7cfe 253e 98e2 8b3e
00000020: 511b b33d 8e1e c8be 1e1c bc3d f673 14be
00000030: 7a55 09be 6e0f 043d bb95 f3bd b0c1 bdbd
00000040: b4af fdbd 5ce5 043e 5963 b03e 4f03 4a3e
00000050: 290a 8ebe 36e0 27be a0ce c53e 7815 88bd
00000060: 5c41 933e 08a8 513e 622b afbe bdae f43e
00000070: cb71 67bd 70a4 483d 33f1 9b3e ed1d 93be
00000080: 8097 7abe 757e 21be 9f53 453e e303 543e
00000090: 3126 43be da54 093e 82b0 bb3e 34da 90be
000000a0: aab0 f13d 4654 263e 45cb f4bd 9f40 5a3e
000000b0: f929 b93d 1766 56be 9c5c 4cbe 4a31 67be
000000c0: 02b2 51be 0f9e da3b a21c 3dbe fd47 afbd
000000d0: 88f9 2e3b 8e62 38be b810 8b3e 6698 f7bc
000000e0: 0c01 aa3d 2683 ee3b c23a debd af44 1f3e
000000f0: 101e a53d d4ff f6bc e29d 7a3e a54c b6bd
0.06454306 0.06572024 -0.45090833 0.030803327 -0.12897281 -0.19129851 0.1621036 0.27321315
0.087454446 -0.3908581 0.091850504 -0.1449736 -0.13411513 0.032241277 -0.11893793 -0.092654586
-0.12387028 0.12978119 0.34450796 0.19727825 -0.27742127 -0.16394123 0.38634205 -0.0664472
0.28760803 0.20474255 -0.34212786 0.47789565 -0.056505006 0.048984945 0.30457458 -0.2873377
-0.24471855 -0.15770896 0.1927018 0.20704608 -0.19057538 0.13411275 0.36658102 -0.28291476
0.11801274 0.16243085 -0.11952833 0.21313713 0.09041209 -0.20937382 -0.19957203 -0.22577396
-0.20478061 0.006671674 -0.18467954 -0.085586525 0.0026699025 -0.18006346 0.27161193 -0.030224036
0.08300981 0.0072788177 -0.10851051 0.15553544 0.080623746 -0.030151285 0.2447429 -0.089013375

fc2.weight f4 [10, 64]
00000000: a54f a8be 97e8 143e bf8c 483e 5096 bf3d
00000010: c8dc c8be a243 2f3e afc6 9bbd fb86 2abf
00000020: b466 09be 4d02 723e 49c5 20bf 7cf9 823e
00000030: a53a 3c3e 3a22 f5be 8e79 1cbe 5273 00bf
00000040: 67aa 003e 73df 8dbe ca9f 823e b629 093f
00000050: d0b0 183e 60d7 033f 8fc7 b83d fb4a 943c
00000060: a304 9abf 23dc 8cbf 920c 9c3e c2fd 92be
00000070: 456c 50bd cbe4 a23e bfa8 073f be9b 983e
00000080: 3711 95bf 3290 163e 4ddb 14be a956 8d3e
00000090: 918c 813e f6ed 813d 50f1 31be f015 be3e
000000a0: 1b00 21bf 12b6 b1be f19a 2f3e 822d 06bf
000000b0: 25ce 3f3b d5f1 19be 81a0 e8bc ab98 d13e
000000c0: 2ee7 da3e a17c cb3d 8b4b 06bd 5db8 ecbb
000000d0: e502 8bbe 92c0 aabe 2b68 b7bc 0feb 8b3d
000000e0: 0bd3 cfbd 42c4 1cbf d795 c13d 6ead bf3d
000000f0: 281a dabb 2e83 82be 92d6 bbbe 5d1a e5be
00000100: f5e6 353e 9407 973e 1793 24bf 566d 12be
00000110: dfc9 e03e 006a 1abf 1340 20be 1050 4b3f
00000120: f752 1f3e bc78 39bf 6a54 aebe 02b8 01bf
00000130: 9ab4 3e3e 8adc 8dbe a4de 26be 4e92 98be
00000140: fca2 2dbb fb13 213e 608d c0be 3107 8c3e
00000150: 7dfb 88bc e458 283e 8a5b e73e ece2 cdbd
00000160: 9bd3 5a3e 14eb 963d 82f1 313d d557 a03e
00000170: 00c7 02bf 897d d83d ec77 253f 7451 75be
00000180: 2975 913d 6812 cbbc 313a 473f a108 86be
00000190: 0460 7d3e 050f 39be a746 a83d ebfe 2fbf
000001a0: 16b5 543d 7848 21bf efc4 e23d 9011 433f
000001b0: 0fdc 4fbf e170 d5bd fecf e63d 4567 063f
000001c0: f677 21bf 255b 4d3e 1da8 7dbf 03a2 8bbd
000001d0: 5262 7a3e 7df5 0b3f 6ccc 953e e71a 36be
000001e0: 574b f13e 26ce 103e 4413 0abf 4a02 00be
000001f0: b6a5 fdbe 41b2 043e 13dc 893e e7ca 353e
00000200: 5e1c ac3e 2a62 bc3e ea0d 59be 9f4a f83e
00000210: 0600 093f 86f5 91bd c0f0 a4be 81f3 3fbe
00000220: d713 5cbe 5ed3 62be 80f2 eabe a576 5d3e
00000230: 3b83 ff3d 4fcb 933e bb1c 313d ec53 2c3e
00000240: 335e 15be e18f fb3e c104 82bd 1d3d 9d3e
00000250: f1bc a9bf 2aaa 843e 4251 523e b5c2 39bf
00000260: 46fe b5bd 8cc4 a53d 573a bc3e 92fa bb3e
00000270: 3005 a93d fbcf 11bd f88e 9cbd d594 8abe
00000280: 4ebf 54be fc19 663d edb0 c33e 2e1b 26bf
00000290: 0597 b83e 447a 513e 6ac3 d03e 9c24 2d3d
000002a0: 3866 79be c24f 69be 947b 513e 53ae d13e
000002b0: 4027 013f 938f 6c3d 74ce 48be 7bc4 bb3e
000002c0: 32b9 cb3e 1f05 1e3e 27d5 ce3b 2282 10bd
000002d0: 4320 28bf 5289 a1be 3eae ae3d a5de e2bd
000002e0: 36df 9d3e a0c3 2c3f 4675 b03e eecd 4cbf
000002f0: d066 edbd d591 a23e 0849 70bf d521 373e
00000300: 1a7e 7abe 8b93 623d d3f9 0bbd dd05 b93e
00000310: fa2b c73e a2db b33d 766e 50bf 2ea8 20bf
00000320: a9f0 28bf 3580 743e a733 683e ac59 5f3d
00000330: 7edf 073f dd97 ac3e 72ff 343e 780c af3d
00000340: 7840 8fbe 16ec 953e 372e 71bd 954a 84be
00000350: 113e 8c3e 138e 70be 40ea a7bd cf77 833e
00000360: b173 c33e 0fea 0d3e ff41 5dbd 60f0 76be
00000370: c2c6 2cbf fd87 72bf b99a 253d 695e 1c3d
00000380: fac3 263e c408 3c3e a104 1ebf fd0a 36be
00000390: 5662 43bf 74d2 68be 84f1 3bbf 4bca 96be
000003a0: a512 603e f9bd 223f bbd9 613e f01f d83d
000003b0: ebf0 c8bb 12e9 273d 7783 863e 7cf9 d53d
000003c0: e4dc 083e 4482 05bf 2fe6 04be 2bdf 91bd
000003d0: f937 25be bd79 033f 0ae1 133f ac46 d63e
000003e0: 8941 18bd 0ec5 7cbe 5d0b 533e d8b4 143f
000003f0: add7 7cba 5d27 b83e 48fd 16bf c795 93bc
-0.32873264 0.14541851 0.1958494 0.09354842 -0.39230943 0.17115644 -0.07606255 -0.66612214
-0.13418084 0.2363369 -0.62801033 0.25580966 0.18381746 -0.47877675 -0.15280744 -0.50175965
0.12565003 -0.2770954 0.25512534 0.5357927 0.14911199 0.5150051 0.09022438 0.01810216
-1.2032665 -1.100468 0.3047834 -0.28709227 -0.050884504 0.3181518 0.5299186 0.29806322
-1.1645879 0.14703444 -0.14536782 0.2760518 0.25302556 0.063442156 -0.1737721 0.37126112
-0.62890786 -0.3470922 0.17148949 -0.5241319 0.0029267159 -0.15033658 -0.028396847 0.4093679
0.427545 0.099358805 -0.032786887 -0.0072241263 -0.27150646 -0.33350044 -0.022388538 0.06831943
-0.10147675 -0.61236966 0.09452408 0.09359251 -0.00665595 -0.25490707 -0.36687142 -0.44746676
0.17763884 0.2949797 -0.6428694 -0.14299521 0.43904015 -0.60317993 -0.15649442 0.7941904
0.15558992 -0.7244985 -0.34048778 -0.506714 0.18623582 -0.2770732 -0.16295868 -0.29799122
-0.0026494851 0.15730278 -0.3760786 0.27349237 -0.016721481 0.16440159 0.45187026 -0.100530475
0.21369784 0.07369056 0.04344321 0.3131701 -0.510849 0.10570819 0.6463611 -0.23956853
0.07102425 -0.02478905 0.7782317 -0.26178458 0.24743658 -0.18072136 0.08216601 -0.6874835
0.05193051 -0.63001204 0.11072718 0.76198673 -0.8119516 -0.104219206 0.1127014 0.52501327
-0.6307367 0.200543 -0.99084646 -0.06818011 0.24451569 0.5467146 0.29257524 -0.177837
0.47127792 0.1414114 -0.53935647 -0.12500873 -0.4954049 0.12958623 0.26925716 0.17753182
0.33615392 0.36793643 -0.21196714 0.4849443 0.5351566 -0.07126908 -0.32214928 -0.18745233
-0.21491943 -0.22150943 -0.45888138 0.2162729 0.12476202 0.2886605 0.04324029 0.16828889
-0.14586715 0.49133208 -0.06348563 0.30710688 -1.3260785 0.25911075 0.2053881 -0.72562724
-0.088863894 0.08094129 0.3676326 0.36714607 0.082529426 -0.035598736 -0.076444566 -0.27066675
-0.20776102 0.056177124 0.3822092 -0.6488522 0.3605272 0.20456797 0.4077409 0.04227124
-0.243554 -0.22784331 0.20457298 0.4095331 0.50450516 0.05775411 -0.19610006 0.3667334
0.3978973 0.15431641 0.006312031 -0.035280354 -0.6567423 -0.3155008 0.08529328 -0.11077622
0.3083436 0.67486 0.34464473 -0.80001724 -0.115918756 0.31751886 -0.93861437 0.17884
-0.24462166 0.05531649 -0.034173798 0.36137286 0.3890074 0.08782126 -0.8141855 -0.6275662
-0.6599222 0.23877032 0.22675954 0.054528877 0.53075397 0.33709612 0.1767557 0.085473
-0.27978873 0.29281682 -0.058881965 -0.25838152 0.27391103 -0.23491697 -0.081989765 0.25677344
0.38174203 0.13858818 -0.054018017 -0.24115133 -0.6749078 -0.9473875 0.04043076 0.038175974
0.16285697 0.18362719 -0.61725813 -0.17777629 -0.76321924 -0.22736531 -0.734154 -0.29451212
0.21882112 0.63571125 0.22055714 0.105529666 -0.0061322353 0.040993758 0.26272175 0.10447976
0.13365513 -0.52151895 -0.12978433 -0.07122644 -0.16134633 0.5135763 0.5776526 0.41850793
-0.037171874 -0.24684545 0.20609803 0.58088446 -0.00096451753 0.35967532 -0.58980227 -0.018015755

fc2.bias f4 [10]
00000000: 0541 a7be c3e4 0b3e 5d55 063d 3a25 04be
00000010: 6971 0bbe 0c4d 883e caf8 49be b04a 0d3e
00000020: a877 9bbd 6951 28bd
-0.32666793 0.13661484 0.032796253 -0.12904826 -0.13617481 0.26621282 -0.19723812 0.13798022
-0.07591182 -0.041093264
