models/model_epoch8.pth (torch, 205023 bytes, 4 tensors)

fc1.weight f4 [64, 784]
0.017811516 0.02870034 -0.018704712 0.02721228 -0.028382476 -0.00470815 0.00972687 -0.017393952
-0.033382762 0.009174948 -0.030386884 -0.026991233 0.055607166 0.04845474 0.08884828 0.011230395
-0.022307057 0.013329553 0.020467129 0.0072398745 0.007574967 -0.02333439 0.008291585 -0.0007917413
0.01837636 -0.0015195821 -0.016895857 0.02937802 -0.0020281035 0.00688925 0.02071224 0.02714038
0.019025678 0.057281837 0.10398135 0.103056505 0.09170826 0.12004918 0.13464521 0.13930707
0.08730165 -0.03706606 -0.068428 0.13592745 0.2101333 0.13120356 0.084308244 0.18102008
0.14126158 0.029563336 0.09408603 0.09045757 -0.030163463 -0.02849605 0.023353318 0.033890598
-0.02880395 0.0017806846 0.080964744 0.009744833 0.050159995 0.20008011 0.14626627 0.20828341
0.37226048 0.4900674 0.41134328 0.323578 0.18208769 0.09068437 0.119660534 0.2547193
0.19242625 0.14794824 0.15619305 0.038490176 0.12291479 0.1773787 0.1647582 0.2037327
0.25316367 0.14872222 0.0037793901 -0.024614412 0.00020539336 -0.034028184 0.20743658 0.093918584
0.1055098 -0.024736576 0.0998281 0.013414144 0.03350675 0.18905827 0.022654716 0.03480239
0.054900397 0.10162995 -0.05688259 0.024517437 0.12247688 -0.041217517 0.044122167 0.008610492
-0.24435817 0.05741834 0.16049503 0.2736004 0.124265626 0.007118519 0.070483275 -0.024839675
-0.009546515 -0.03014837 -0.013788308 -0.20717959 -0.06081982 0.05659392 0.15775275 0.066728264
0.11828866 0.109115265 0.07901214 0.03925568 0.077009566 0.019345742 0.034817185 -0.018815845
0.052674048 -0.060833085 -0.077356376 0.05591972 -0.004549631 -0.08708621 -0.078983724 0.079027034
-0.084105246 -0.05919 0.042084202 0.196879 0.03157133 -0.019978022 0.14009532 -0.03328582
0.100648366 0.08504567 -0.008075642 -0.028315594 0.042173292 0.00066698215 0.015327575 -0.009872956
0.082482494 0.014466857 0.10094722 0.07030653 0.102157906 0.026412344 -0.06494897 0.011007827
-0.006377927 0.092428856 0.037524678 0.07821803 0.12005283 0.028700747 0.18799005 0.1754601
-0.022242231 0.14664085 -0.1365625 -0.13196091 -0.015800375 -0.0829063 -0.15103146 -0.09901201
-0.0935527 -0.08165931 -0.12872463 -0.13629662 -0.12122177 -0.107437804 -0.05618892 0.1125912
0.087718084 -0.031502984 -0.111604586 -0.020215152 -0.16616467 -0.19097926 -0.008619278 -0.0134223215
0.119485766 0.27211633 0.083093464 0.18666482 0.013434474 0.07174745 -0.062883 -0.29528418
-0.16107897 -0.17053738 -0.22086272 -0.015822947 -0.07954143 -0.094244026 -0.09523765 -0.1598967
-0.1543636 -0.07529163 0.009709043 0.006496236 0.0073731346 -0.017754406 -0.09584424 -0.1314037
-0.15985262 -0.049363248 -0.0030244216 -0.12182701 -0.0032482564 0.15992711 0.053452015 0.16936614
0.05320455 0.098384224 -0.04752907 -0.17155969 -0.13986897 -0.12989648 -0.13313457 -0.013952501
-0.17037174 -0.048038844 -0.05853184 -0.117543325 -0.08549658 -0.019405315 -0.031538326 -0.017403873
0.011979715 -0.03131992 -0.20214985 -0.16281727 -0.112218805 -0.17654876 -0.121442005 0.046183977
-0.11780071 -0.13215396 0.003698545 0.13034731 0.04119029 -0.12541206 -0.04817795 0.0624339
00000000: 75e9 913c fa1c eb3c a03a 99bc 4aec de3c
00000010: 5e82 e8bc d346 9abb 735d 1f3c c37d 8ebc
00000020: 5dbc 08bd 8552 163c eaed f8bc b81c ddbc
00000030: 57c4 633d 7a78 463d 16f6 b53d b1ff 373c
00000040: 4abd b6bc 3364 5a3c aeaa a73c 783c ed3b
00000050: 6e37 f83b c327 bfbc 6ed9 073c dc8c 4fba
00000060: 058a 963c b72c c7ba 2e69 8abc 2caa f03c
00000070: eee9 04bb 38bf e13b b7ac a93c 8155 de3c
00000080: bddb 9b3c 5ca0 6a3d 2df4 d43d 4a0f d33d
00000090: 8ad1 bb3d 58dc f53d 6fe0 093e 83a6 0e3e
000000a0: 35cb b23d 95d2 17bd fb23 8cbd 9130 0b3e
000000b0: 2f2d 573e 3a5a 063e cda9 ac3d 545d 393e
000000c0: e0a6 103e cf2e f23c 2db0 c03d d241 b93d
000000d0: 5e19 f7bc 8c70 e9bc 754f bf3c ded0 0a3d
000000e0: 43f6 ebbc dc65 e93a d8d0 a53d cba8 1f3c
000000f0: 9174 4d3d cde1 4c3e d3c6 153e 3f48 553e
00000100: ed98 be3e 1dea fa3e 969b d23e 04ac a53e
00000110: 3275 3a3e bab8 b93d 9510 f53d 916a 823e
00000120: 630b 453e be7f 173e 12f1 1f3e e0a7 1d3d
00000130: c0ba fb3d c3a2 353e 60b6 283e 4e9f 503e
00000140: ab9e 813e a34a 183e a5af 773b 2aa4 c9bc
00000150: dc5e 5739 2361 0bbd 416a 543e 6358 c03d
00000160: 8615 d83d 5ca4 cabc ad72 cc3d ffc6 5b3c
00000170: 603e 093d 7e98 413e 6296 b93c f38c 0e3d
00000180: 3ddf 603d 5d23 d03d b8fd 68bd cbd8 c83c
00000190: 29d5 fa3d b3d3 28bd 72b9 343d 0513 0d3c
000001a0: 0739 7abe 7e2f 6b3d cf58 243e 5a15 8c3e
000001b0: fa7e fe3d 7742 e93b 8959 903d 937c cbbc
000001c0: fc68 1cbc b7f9 f6bc 5be8 61bc e326 54be
000001d0: 341e 79bd 07cf 673d f089 213e d4a8 883d
000001e0: 5341 f23d d377 df3d 1ed1 a13d 90ca 203d
000001f0: 31b7 9d3d f67a 9e3c 779c 0e3d b023 9abc
00000200: bec0 573d 1d2c 79bd 056d 9ebd 140c 653d
00000210: 1215 95bb 415a b2bd 38c2 a1bd edd8 a13d
00000220: 5f3f acbd 3771 72bd 7c60 2c3d a69a 493e
00000230: f050 013d f3a8 a3bc 2675 0f3e b656 08bd
00000240: bb20 ce3d 6d2c ae3d b34f 04bc 1bf6 e7bc
00000250: e7bd 2c3d 6ad8 2e3a 8220 7b3c 2ec2 21bc
00000260: 95ec a83d 6506 6d3c 6bbd ce3d dffc 8f3d
00000270: 2a38 d13d b35e d83c f703 85bd 2c5a 343c
00000280: eefd d0bb 574b bd3d 7ab3 193d c630 a03d
00000290: 42de f53d d41d eb3c 7780 403e d0ab 333e
000002a0: 5735 b6bc 0529 163e 0ad7 0bbe c320 07be
000002b0: ca6f 81bc c7ca a9bd fea7 1abe cfc6 cabd
000002c0: 8f98 bfbd ff3c a7bd 64d0 03be 5791 0bbe
000002d0: 1f43 f8bd 5a08 dcbd 5a26 66bd 3796 e63d
000002e0: 8aa5 b33d 4609 01bd f290 e4bd 3f9a a5bc
000002f0: 1227 2abe 1190 43be df37 0dbc 4ce9 5bbc
00000300: f4b4 f43d d552 8b3e e82c aa3d 1025 3f3e
00000310: 451c 5c3c 54f0 923d cdc8 80bd 7d2f 97be
00000320: e3f1 24be 5aa1 2ebe d629 62be 209f 81bc
00000330: 9ee6 a2bd 0303 c1bd f50b c3bd f6bb 23be
00000340: 7e11 1ebe 8032 9abd ae12 1f3c 61de d43b
00000350: 569a f13b b071 91bc fc49 c4bd b18e 06be
00000360: 68b0 23be 1e31 4abd 6035 46bb 7080 f9bd
00000370: b3e0 54bb efc3 233e 80f0 5a3d 516e 2d3e
00000380: 04ed 593d ab7d c93d d8ad 42bd 58ad 2fbe
00000390: d039 0fbe 9503 05be 6e54 08be 0899 64bc
000003a0: ee75 2ebe 61c4 44bd 15bf 6fbd 8eba f0bd
000003b0: d518 afbd e5f7 9ebc 552e 01bd 9192 8ebc
000003c0: 9146 443c 5149 00bd 5f00 4fbe 92b9 26be
000003d0: f9d2 e5bd 33c9 34be 96b6 f8bd 692b 3d3d
000003e0: 8041 f1bd 5e53 07be 4a63 723b c479 053e
000003f0: 26b7 283d 056c 00be 3e56 45bd b0ba 7f3d

fc1.bias f4 [64]
0.060605098 0.05955434 -0.41841114 0.08177325 -0.046182208 -0.18682876 0.0900459 0.2975307
0.116574995 -0.3393829 0.08754638 -0.16848594 -0.11086328 -0.051643297 -0.13072868 -0.14883009
-0.09371336 0.10461022 0.29742488 0.16167521 -0.23280455 -0.1433403 0.28694052 -0.080956206
0.21422149 0.16950609 -0.27149758 0.39804006 -0.08902666 0.07483924 0.293121 -0.26392618
-0.17807598 -0.06477903 0.14879224 0.15490302 -0.19225718 0.19839096 0.37346688 -0.263211
0.07893103 0.116800964 -0.09405436 0.16862985 0.07653837 -0.22977434 -0.14418688 -0.1905666
-0.25573045 0.015878033 -0.20298192 -0.07492289 0.044454012 -0.12356547 0.25167927 -0.0052193836
0.14672053 0.029666057 -0.1167191 0.1374939 0.034291226 0.014877538 0.23005062 -0.11633217
00000000: 0d3d 783d 40ef 733d fc39 d6be bc78 a73d
00000010: 8e29 3dbd 0a50 3fbe fc69 b83d f255 983e
00000020: dfbe ee3d 98c3 adbe 844b b33d 9487 2cbe
00000030: 4a0c e3bd ec87 53bd bddd 05be ea66 18be
00000040: caec bfbd e23d d63d 1348 983e 308e 253e
00000050: 5164 6ebe cdc7 12be dee9 923e 5ecc a5bd
00000060: e15c 5b3e 0193 2d3e bb01 8bbe e8cb cb3e
00000070: 9c53 b6bd 5145 993d f513 963e 5521 87be
00000080: 8d59 36be deaa 84bd fe5c 183e e69e 1e3e
00000090: 11df 44be 0027 4b3e 0d37 bf3e 98c3 86be
000000a0: 98a6 a13d 5835 ef3d 939f c0bd 4ead 2c3e
000000b0: 26c0 9c3d f749 6bbe baa5 13be e423 43be
000000c0: 1aef 82be a612 823c 7eda 4fbe 2c71 99bd
000000d0: 6915 363d e50f fdbd 1bdc 803e 5d07 abbb
000000e0: e83d 163e 3b06 f33c 6c0a efbd 33cb 0c3e
000000f0: f574 0c3d ebc0 733c 6492 6b3e 903f eebd

fc2.weight f4 [10, 64]
-0.2666019 0.058921903 0.19417657 0.117698945 -0.30659702 0.15344504 -0.06098204 -0.5152378
-0.08555893 0.16790424 -0.43285626 0.21560846 0.14154999 -0.3588322 -0.11578016 -0.27873993
0.10982607 -0.104796134 0.13233766 0.40599123 0.09217929 0.41584325 0.075256534 0.044728905
-0.7905434 -0.7528379 0.251035 -0.2554136 0.043554123 0.20442145 0.37961861 0.24008371
-0.88197345 0.16187128 -0.15331589 0.28338522 0.19981332 0.07021513 -0.07552156 0.24000156
-0.3832152 -0.21705538 0.13116865 -0.45918325 0.052947443 -0.13328402 -0.019046782 0.30117756
0.31970742 0.16559587 0.012728098 0.05389203 -0.24275479 -0.21500027 -0.024429504 0.044564307
-0.0559685 -0.3993416 0.10308722 0.0890307 0.021064172 -0.20773563 -0.29992017 -0.3221279
0.1728733 0.29373485 -0.42103383 -0.07244875 0.38971633 -0.387252 -0.12346705 0.5210688
0.1275772 -0.46951708 -0.33135113 -0.45602527 0.17826292 -0.19904073 -0.19122331 -0.18777008
-0.037532452 0.14843129 -0.3214867 0.16245623 0.031704884 0.16462207 0.33871016 -0.019775268
0.16136293 0.051533528 0.026672259 0.23676497 -0.32534486 -0.03896345 0.4922597 -0.21765815
0.057476837 -0.044409152 0.524695 -0.25524512 0.20466761 -0.20733182 0.023566622 -0.46785498
0.04888682 -0.48064655 0.13387339 0.5326732 -0.58855003 -0.09610284 0.07998003 0.4209015
-0.4468071 0.08442197 -0.6641267 -0.040606003 0.24068902 0.3994297 0.23689151 -0.13909626
0.36832044 0.12902004 -0.45347333 -0.025001494 -0.4344413 0.11465332 0.22628325 0.13473572
0.32470155 0.28708556 -0.13390969 0.3908593 0.40633744 -0.060419895 -0.34160903 -0.11987
-0.13652943 -0.19768234 -0.29379216 0.15822895 0.079732455 0.20986035 0.051225744 0.13600056
-0.12555227 0.38154757 -0.0077968114 0.20996462 -1.0539962 0.19103062 0.21040188 -0.6742251
-0.055926356 0.08890772 0.27691716 0.310183 0.09909923 -0.026179977 -0.13055965 -0.1668814
-0.22718932 0.076247 0.3618343 -0.55518985 0.29552093 0.22689253 0.2857488 0.012971069
-0.17318359 -0.17688532 0.20250125 0.41506308 0.30185983 0.08110987 -0.13311848 0.30729145
0.29246196 0.1341079 -0.022847012 -0.052443948 -0.56219876 -0.23739932 0.08227768 -0.046736382
0.31476286 0.61965334 0.3228448 -0.66238964 -0.11508799 0.27370095 -0.7658703 0.14224318
-0.2450736 0.07160948 -0.06696707 0.27945474 0.36035097 0.0943846 -0.6566018 -0.4387152
-0.47451004 0.1996535 0.16696924 0.090560526 0.42966592 0.19917929 0.19154586 0.08161547
-0.2292911 0.14414302 -0.05596497 -0.17890461 0.18295635 -0.17859618 -0.04116991 0.15937982
0.31316924 0.16246682 -0.07376158 -0.07582961 -0.3260159 -0.67268854 0.053004757 0.040311627
0.1548376 0.16161321 -0.4612352 -0.19674373 -0.57567 -0.14207104 -0.60725486 -0.26939943
0.16300768 0.49022803 0.19835567 0.11068248 0.029109843 0.03746334 0.18313417 0.10601677
0.10267382 -0.387346 -0.05256827 -0.08997536 -0.12753358 0.4545699 0.42493972 0.35489225
0.008800521 -0.2819235 0.18344042 0.526402 -0.04589856 0.16229594 -0.503098 -0.008461829
00000000: 0b80 88be 1858 713d 39d6 463e 250c f13d
00000010: 49fa 9cbe b220 1d3e 4ec8 79bd a0e6 03bf
00000020: 8539 afbd 17ef 2b3e 569f ddbe 77c8 5c3e
00000030: 7bf2 103e dbb8 b7be 261e edbd 00b7 8ebe
00000040: 7eec e03d 5b9f d6bd 8683 073e 15de cf3e
00000050: 7fc8 bc3d 68e9 d43e 1920 9a3d a835 373d
00000060: 0d61 4abf fcb9 40bf a987 803e 92c5 82be
00000070: cf65 323d db53 513e 5f5d c23e 81d8 753e
00000080: 03c9 61bf 96c1 253e d7fe 1cbe de17 913e
00000090: dd9b 4c3e f3cc 8f3d 0cab 9abd f8c2 753e
000000a0: c834 c4be c443 5ebe 1351 063e 111a ebbe
000000b0: 6bdf 583d 9b7b 08be ff07 9cbc f233 9a3e
000000c0: b1b0 a33e f791 293e 8389 503c e4bd 5c3d
000000d0: b694 78be 0829 5cbe 6220 c8bc 1089 363d
000000e0: 3a3f 65bd 8176 ccbe 641f d33d ba55 b63d
000000f0: c58e ac3c a6b8 54be 238f 99be f3ed a4be
00000100: b305 313e 6a64 963e bf91 d7be 0360 94bd
00000110: e688 c73e e545 c6be 4bdc fcbd c464 053f
00000120: 99a3 023e 8b64 f0be dba6 a9be 257c e9be
00000130: 8e8a 363e 55d1 4bbe 0bd0 43be cd46 40be
00000140: a1bb 19bd 5ffe 173e e899 a4be ed5a 263e
00000150: fbdc 013d b092 283e 6b6b ad3e beff a1bc
00000160: 533c 253e d214 533d c87f da3c 8472 723e
00000170: 9a93 a6be 2398 1fbd 7709 fc3e c7e1 5ebe
00000180: d56c 6b3d 5fe6 35bd 6952 063f 7daf 82be
00000190: 6394 513e cb4e 54be ca0e c13c b08a efbe
000001a0: 8c3d 483d 4e17 f6be 1b16 093e 455d 083f
000001b0: 37ab 16bf 91d1 c4bd 92cc a33d 6780 d73e
000001c0: e6c3 e4be 6de5 ac3d 3504 2abf 7b52 26bd
000001d0: 2f77 763e 0d82 cc3e b093 723e 406f 0ebe
000001e0: 7f94 bc3e d41d 043e a82d e8be efcf ccbc
000001f0: 176f debe 5ccf ea3d ccb6 673e 29f8 093e
00000200: 483f a63e e1fc 923e 9f1f 09be b61e c83e
00000210: 760b d03e da7a 77bd 61e7 aebe 677e f5bd
00000220: 5fce 0bbe 3d6d 4abe ed6b 96be c506 223e
00000230: c54a a33d a2e5 563e 16d2 513d bb43 0b3e
00000240: c690 00be 345a c33e 657c ffbb f700 573e
00000250: 59e9 86bf 889d 433e 9773 573e 049a 2cbf
00000260: 0913 65bd 4015 b63d 16c8 8d3e 4ed0 9e3e
00000270: 89f4 ca3d 6477 d6bc 6eb1 05be f5e2 2abe
00000280: 51a4 68be 6327 9c3d 5842 b93e ec20 0ebf
00000290: 854e 973e 8456 683e ab4d 923e 9b84 543c
000002a0: 0a57 31be 6d21 35be 7d5c 4f3e 2683 d43e
000002b0: 5f8d 9a3e ee1c a63d 3650 08be 4e55 9d3e
000002c0: 93bd 953e 9553 093e a829 bbbc 77cf 56bd
000002d0: 42ec 0fbf cf18 73be 3381 a83d a66e 3fbd
000002e0: 9928 a13e 9aa1 1e3f ea4b a53e 5e92 29bf
000002f0: 41b3 ebbd 8822 8c3e 1310 44bf 32a8 113e
00000300: 93f4 7abe fea7 923d 0826 89bd b114 8f3e
00000310: ec7f b83e b74c c13d 0e17 28bf 479f e0be
00000320: fbf2 f2be f871 4c3e fcf9 2a3e cc77 b93d
00000330: 2cfd db3e a8f5 4b3e 9924 443e 0326 a73d
00000340: 49cb 6abe 3a9a 133e 863b 65bd c532 37be
00000350: e958 3b3e ebe1 36be c8a1 28bd 7734 233e
00000360: b857 a03e b45d 263e 5010 97bd 8e4c 9bbd
00000370: 8eeb a6be 5135 2cbf 841b 593d ce1d 253d
00000380: bf8d 1e3e ef7d 253e 0527 ecbe 3077 49be
00000390: 1c5f 13bf 127b 11be 0e75 1bbf b9ee 89be
000003a0: 7ceb 263e 2bff fa3e c01d 4b3e 7fad e23d
000003b0: c477 ee3c 2973 193d 8687 3b3e 521f d93d
000003c0: a746 d23d 3752 c6be d451 57bd 0045 b8bd
000003d0: 2a98 02be 63bd e83e b391 d93e 70b4 b53e
000003e0: 0f30 103c 4758 90be ced7 3b3e 48c2 063f
000003f0: 2100 3cbd e830 263e 08cb 00bf 7ca3 0abc

fc2.bias f4 [10]
-0.21954674 0.14090274 0.041401863 -0.11770617 -0.11374837 0.23794629 -0.1683436 0.14519888
-0.1445298 -0.07189587
00000000: dcd0 60be cf48 103e 0095 293d ef0f f1bd
00000010: e8f4 e8bd 31a8 733e 4462 2cbe 04af 143e
00000020: 9fff 13be 243e 93bd
