models/model_epoch16.pth (torch, 205023 bytes, 4 tensors)

fc1.weight f4 [64, 784]
00000000: 75e9 913c fa1c eb3c a03a 99bc 4aec de3c
00000010: 5e82 e8bc d346 9abb 735d 1f3c c37d 8ebc
00000020: 5dbc 08bd 8552 163c eaed f8bc b81c ddbc
00000030: 0c00 3f3d 20bf 5c3d a3eb eb3d 6249 9f3c
00000040: 4abd b6bc 3364 5a3c aeaa a73c 783c ed3b
00000050: 6e37 f83b c327 bfbc 6ed9 073c dc8c 4fba
00000060: 058a 963c b72c c7ba 2e69 8abc 2caa f03c
00000070: eee9 04bb 38bf e13b b7ac a93c 8155 de3c
00000080: d61c 9e3c 0d81 6c3d 690a d53d cb20 d03d
00000090: dd75 c93d c59e 0f3e 3612 493e 7594 6d3e
000000a0: 5116 483e c38a 32bc a41c 23be 1bbb 9b3d
000000b0: f692 8b3e 8ab9 773e 9529 3f3e b8d4 473e
000000c0: b35f 823d 46c8 5fbd 276b 883d 0b62 b73d
000000d0: 5e19 f7bc 8c70 e9bc 754f bf3c ded0 0a3d
000000e0: 43f6 ebbc dc65 e93a 51fe 993d 9bac 95bd
000000f0: 3356 373d 868c a13e 0d97 833e 5858 9a3e
00000100: bbc8 053f 2479 243f 9d95 0d3f 2a50 e73e
00000110: e2b5 2a3e 832a 0abd e78a 423e 9eb7 a33e
00000120: d57f 4c3e ab9d 3b3e d6ee 093e 7f5a abbd
00000130: 50df 713d 43d4 9e3e 23e0 883e 7d83 963e
00000140: 2d90 a13e 6e31 1a3e a5af 773b 2aa4 c9bc
00000150: dc5e 5739 2361 0bbd 4dcc 9f3e a4f6 923d
00000160: a7c1 423e 8b15 b93d 0062 963e 5591 a43d
00000170: a156 40bd 5a9c 333e 1d7e 0cbe ba97 c93c
00000180: 6cd2 3a3e 80fd 1e3e 6e98 2ebd bec9 b03d
00000190: 95ea 463e afa9 1a3d 65da f73d 8087 083e
000001a0: 0234 c9be f1c1 193e 1fea c13e 65e8 cf3e
000001b0: 3be1 143e eeb9 f6bd 2ae1 9f3d 937c cbbc
000001c0: fc68 1cbc 22d3 fabc c78f 813d 16b7 b3be
000001d0: 6be0 1dbe 2ab7 533e 693c b43e 5323 473e
000001e0: 85b2 673e 7b00 393e 7eae eb3d 296d c83d
000001f0: a6b3 f33d ccb6 03bb f75a b0bc 7a03 babd
00000200: 8923 863c c255 32be 622b 4cbe 71e0 8d3d
00000210: eaa6 d6bb c530 0bbe 99d7 a2bd 42b4 8a3e
00000220: 4e8d fcbb 87e8 84bd 8516 98bc 7fe4 953e
00000230: f050 013d f3a8 a3bc ab17 793e 4474 6cbb
00000240: 9f1e 1a3e a647 813e 965f ea3d 8b36 433d
00000250: 2d9a 723e 43fa db3d 1c8b f03d 727e de3c
00000260: 39c8 f03d 2ce6 cf3c be03 183e e717 093d
00000270: 788c 1c3e 2297 ce3b 6466 1cbe 22f3 d2bb
00000280: ad10 27bd c858 343e 5e30 c83d fcbc 643e
00000290: 01cf 653e d6eb 033e bbb6 933e 509e 893e
000002a0: 5735 b6bc e113 4d3e 396c ddbd e4c0 0bbe
000002b0: fab0 4cbd c328 d7bd a79c e4bd b3a0 b2bc
000002c0: 02c3 f8bc 28a2 91bd 8755 0dbe 957d 2fbe
000002d0: 1c6b 07be a62f 29be e4d8 71bd e768 7f3e
000002e0: aa97 563e 928d 93bd 8fa8 23be 7c37 a63c
000002f0: 4eb6 5fbe 0737 9ebe 253a f53b 113b 27bc
00000300: 7501 273e 2eae db3e 7a09 413e 0752 9a3e
00000310: e91b 5c3c 1dc6 903d 0fd3 7d3c 92f1 febe
00000320: 436c efbd b8e1 e3bd b2b9 99be 5d89 913c
00000330: 0a0f 02be 3548 03be 158b ecbd afe6 4cbe
00000340: 9452 4dbe 365d d4bd 08c6 a93d 1371 e33d
00000350: b84a c33d aab2 2e3c bb8a 2cbe 48cd 66be
00000360: f378 48be 15a9 f3bd 122c e3bc 70f2 36be
00000370: 038c 5e3c cc70 bf3e c631 ac3d f777 903e
00000380: 2f31 093e a75e 793e 601d b5bd d310 b3be
00000390: cab9 94bc efc7 cfbd eb9d 4cbe 24d9 5abd
000003a0: 2097 93be 84f4 79bd 3c47 71bd babe 2fbe
000003b0: f9d4 dbbd 67b0 3ebc 38af 783c 2ebb 783d
000003c0: 3beb 863d df01 e4bc a5d9 85be 4a53 5dbe
000003d0: 6dba f3bd d04c 92be f021 5ebe 2bf7 f33d
000003e0: b05c 32be 46da 27be a4e7 36bd 1caa 0b3e
000003f0: da3b 2d3d 9794 2ebe 6df0 433d 0011 ce3c
0.017811516 0.02870034 -0.018704712 0.02721228 -0.028382476 -0.00470815 0.00972687 -0.017393952
-0.033382762 0.009174948 -0.030386884 -0.026991233 0.046630904 0.05389321 0.115195535 0.019444171
-0.022307057 0.013329553 0.020467129 0.0072398745 0.007574967 -0.02333439 0.008291585 -0.0007917413
0.01837636 -0.0015195821 -0.016895857 0.02937802 -0.0020281035 0.00688925 0.02071224 0.02714038
0.01930086 0.05774026 0.10402376 0.10162505 0.09836934 0.1402541 0.19635853 0.23201163
0.19539763 -0.010897341 -0.15928894 0.07604047 0.2726056 0.24191871 0.18668206 0.1951474
0.063659094 -0.054634355 0.06661063 0.08954247 -0.030163463 -0.02849605 0.023353318 0.033890598
-0.02880395 0.0017806846 0.0751921 -0.073083125 0.04475994 0.31552523 0.2570118 0.30145526
0.52259415 0.64247346 0.55306417 0.45178348 0.16670945 -0.03373195 0.189983 0.31976026
0.19970639 0.18321864 0.13470015 -0.0836687 0.059050858 0.31021318 0.26733503 0.29397193
0.3155531 0.15057918 0.0037793901 -0.024614412 0.00020539336 -0.034028184 0.31210557 0.07175949
0.19019185 0.09037312 0.29371643 0.080355324 -0.046957616 0.17540112 -0.13719983 0.024608482
0.18244332 0.1552639 -0.042625837 0.08632229 0.19425423 0.03775948 0.12102202 0.13332939
-0.3929749 0.15015389 0.37873933 0.4060699 0.14539044 -0.12047182 0.078066185 -0.024839675
-0.009546515 -0.030618254 0.063262515 -0.3510062 -0.1541764 0.2067534 0.3520234 0.19447069
0.22626694 0.1806659 0.11507891 0.09786446 0.118994996 -0.002009797 -0.02152775 -0.09082694
0.016374366 -0.17415527 -0.19938424 0.069275744 -0.0065506594 -0.13592823 -0.07951278 0.2709065
-0.0077072745 -0.064896636 -0.018565426 0.2927589 0.03157133 -0.019978022 0.24325435 -0.0036080042
0.15050744 0.25249976 0.11444013 0.047659438 0.23691626 0.10741093 0.11745283 0.027159903
0.117569394 0.02537831 0.14845178 0.03347006 0.1528796 0.0063046375 -0.15273434 -0.006437675
-0.040787388 0.17611992 0.0977485 0.22337717 0.22442247 0.12882933 0.2885035 0.26878595
-0.022242231 0.20027114 -0.108116575 -0.136478 -0.049973466 -0.105058216 -0.111626916 -0.021805143
-0.030366424 -0.07111007 -0.13802157 -0.1713775 -0.13224453 -0.16522083 -0.059044734 0.24942361
0.20956293 -0.07204737 -0.15982269 0.020290129 -0.21846887 -0.30901358 0.007483738 -0.010206954
0.1630915 0.42906326 0.18851271 0.30140707 0.013434389 0.07069037 0.015492215 -0.4979368
-0.11690571 -0.11127037 -0.30024487 0.017765695 -0.1270105 -0.12820514 -0.11549965 -0.20009874
-0.20051032 -0.10369341 0.082897246 0.111055516 0.09535736 0.010662714 -0.16849796 -0.22539246
-0.19577388 -0.11897484 -0.027730975 -0.1786592 0.013583186 0.37390745 0.08407931 0.28216526
0.13397668 0.24352513 -0.088434935 -0.34973773 -0.018154997 -0.10145556 -0.19982116 -0.053429738
-0.28826237 -0.061024204 -0.058905825 -0.171626 -0.10733981 -0.011638737 0.015178494 0.060725383
0.065878354 -0.027832923 -0.26142612 -0.21613804 -0.11900792 -0.28574228 -0.21692634 0.11912378
-0.1741817 -0.16391858 -0.044654503 0.1363911 0.042293407 -0.1704887 0.04783671 0.02515459

fc1.bias f4 [64]
00000000: 4e1e 933d 0961 7b3d 8e0a e7be 96ea dc3c
00000010: 09be 0fbe 6d64 4bbe d6d3 3d3e 4fe9 883e
00000020: cc83 bc3d 0556 cebe 5279 ba3d 1717 12be
00000030: 729b 11be 8f2b 2c3d d534 ebbd ce9f b1bd
00000040: c5d0 07be 7df9 fe3d a9ad b13e 515e 463e
00000050: b786 8dbe 32a5 2bbe ae29 cb3e 71c9 80bd
00000060: 7e72 8d3e e0b0 4e3e fb81 b8be 4bda fb3e
00000070: 870d 66bd 75b4 343d 32bb a03e 36dc 93be
00000080: 8f6d 81be 28a9 2abe a938 4f3e 642b 603e
00000090: b902 49be c075 013e bd1c bb3e f22a 8fbe
000000a0: 580d 033e 6690 293e b853 00be f9f4 603e
000000b0: a704 b03d a1f3 56be eb89 59be 2f55 73be
000000c0: 917d 4fbe 2bef a23b c0b5 3ebe 96b0 a7bd
000000d0: 4cbc c5bb 220c 3ebe 39f7 893e 7b95 0abd
000000e0: 104f 9a3d 8126 b9ba 08f6 dfbd 1f32 263e
000000f0: 392b 923d 9ab5 40bd 8dc8 7c3e 891a b6bd
0.071835145 0.061371837 -0.4512524 0.026967328 -0.14037336 -0.19862528 0.1853784 0.267405
0.09204826 -0.40300003 0.09105171 -0.1426662 -0.14219454 0.04203373 -0.11484686 -0.086730585
-0.13263233 0.1244993 0.34702805 0.19371916 -0.27641842 -0.16762236 0.39680237 -0.06288422
0.27626413 0.2018466 -0.36036667 0.49189982 -0.056165244 0.04411741 0.3139282 -0.28878945
-0.252789 -0.1666609 0.20236458 0.21891552 -0.19629945 0.12642574 0.36545363 -0.27962452
0.12798059 0.1655899 -0.12531936 0.2196845 0.08594637 -0.20991375 -0.21244018 -0.23762964
-0.20262744 0.0049723587 -0.1862402 -0.08187978 -0.0060344096 -0.18559316 0.26946428 -0.033833962
0.07534611 -0.0014125855 -0.109355986 0.16230057 0.0713715 -0.04704819 0.24685879 -0.0889178

fc2.weight f4 [10, 64]
00000000: f086 abbe 0d1d 0e3e 9ee8 5a3e 365f ad3d
00000010: f3c6 cbbe f5ea 253e a9e0 63bd 808f 2abf
00000020: 1ec3 1abe 092f 7a3e 07b7 2ebf 2bcd 803e
00000030: a127 483e 9fd5 f8be 385b 36be c136 0cbf
00000040: a354 053e 5ae3 91be 5cfd 8e3e 6339 123f
00000050: dd9f 1d3e fa81 003f 49da de3d 0fbd 473c
00000060: a776 9dbf b468 94bf f2c0 a63e d078 94be
00000070: 328e 33bd 9cac a43e ea5c 0e3f 0c6e 9c3e
00000080: 1ddf 9bbf 7778 1b3e 9411 18be 18bd 923e
00000090: 53ae 853e eb8a 783d 3383 42be f5fc d03e
000000a0: 821b 2dbf 203d b6be 4352 333e 0018 09bf
000000b0: 22b9 813c 872e 23be f058 d8bc 5b9d d93e
000000c0: 4e05 df3e 7f8d 9c3d d101 06bd 37e9 f7bc
000000d0: 9044 7dbe 8bc8 b4be ecd5 5cbc 4b55 8a3d
000000e0: 312a cfbd 1e09 22bf d401 bd3d a84e c23d
000000f0: 0e1e 6bba 3539 82be 703e bbbe f976 ecbe
00000100: c2fc 443e ba55 9a3e 94cf 2fbf e6fb 22be
00000110: 29bb ed3e de78 23bf 2025 23be 2129 533f
00000120: 0436 203e 434f 40bf 6377 abbe 6f0a 04bf
00000130: 5154 473e 503e 9cbe 7fbd 15be 50b8 9bbe
00000140: ea52 d73b 088f 283e a08b c3be 6a26 943e
00000150: 089e 64bc d310 2d3e 3349 ef3e ac45 bbbd
00000160: 3326 6a3e 66a4 a33d d81f 473d cf25 a83e
00000170: 2b4b 05bf f3f0 f53d d1a1 2a3f 7d9b 6fbe
00000180: 4cc0 b63d 639d 1cbd 40d9 4e3f d177 88be
00000190: 7d98 843e 8cb8 34be c778 a63d 4b73 37bf
000001a0: 17fa a43d f99a 25bf b2bd f53d f68d 4c3f
000001b0: 9d03 55bf 3191 b9bd 9378 003e 06d8 093f
000001c0: d44d 26bf ea63 583e f03b 85bf 7c5f 69bd
000001d0: 7143 7c3e fc5c 113f 5258 933e 38d0 42be
000001e0: 5e0b f73e c6a0 063e e584 0fbf 2e78 f8bd
000001f0: 2957 f7be 59df 113e 44e4 883e 4d12 493e
00000200: a7e0 ac3e 8e7d c03e 3d22 5fbe f96f 023f
00000210: 3e33 0d3f 9504 92bd 0c94 9fbe 66ae 4fbe
00000220: 2b25 68be 6cfd 60be 3a79 f7be b6ab 583e
00000230: f524 ff3d 51c4 953e 9c7a 0e3d be62 323e
00000240: de74 21be e0c7 023f fe0d 8dbd 2a44 a33e
00000250: c636 adbf e825 8b3e 5163 4f3e c68c 39bf
00000260: 8872 b3bd facd a43d 912a c63e 6985 c23e
00000270: 4383 b33d 6013 2cbd 5e6b b0bd c2b7 8dbe
00000280: f998 61be bd95 683d 2690 bd3e 382c 20bf
00000290: a48d bc3e 1066 553e 36de d63e 2fd1 7e3d
000002a0: 5193 78be af32 6fbe 538a 503e ada9 d43e
000002b0: 2722 053f 9802 6e3d aa08 46be b04f bb3e
000002c0: b26d d03e 6143 173e 9d31 703b 95a6 26bd
000002d0: 7184 2cbf 32a3 a5be 33f3 ae3d c57a debd
000002e0: 623e 9d3e edf6 303f 32b9 af3e f41a 55bf
000002f0: 8309 f4bd 5c55 a63e 267e 71bf b82a 473e
00000300: 44e9 7bbe 4589 773d c903 91bc 7858 bb3e
00000310: 614c d03e 4dd5 b53d 0cfc 57bf ea79 27bf
00000320: 608c 2cbf 966c 783e e1e5 793e 75ba 5e3d
00000330: ee29 0e3f 1459 bd3e 3865 313e 63d8 bb3d
00000340: f967 92be 1dfe 983e 28bc 4fbd 7abb 8ebe
00000350: fdd5 8e3e 840f 74be e6a2 afbd 94f4 863e
00000360: aee7 c03e 11d8 f53d 1aa8 5fbd 44c7 80be
00000370: 9cbe 3abf bebc 7bbf 38ef 0d3d 4817 e63c
00000380: e03d 283e 7ac8 343e a18e 23bf c068 43be
00000390: ad0c 48bf 5d28 76be 65ef 3ebf 936f 9fbe
000003a0: 571a 563e 414d 253f 6e9b 5a3e e9e8 db3d
000003b0: bbb5 53bc 0283 183d a1a5 8e3e 5ac9 d63d
000003c0: 9b34 103e 9153 08bf 0feb 03be 5fb4 85bd
000003d0: a07c 2dbe 6cd3 023f 246d 153f 6b8b d73e
000003e0: 6995 15bd 3651 85be 6943 593e a731 153f
000003f0: c072 cf3b e043 bd3e 2173 1abf be5e 163a
-0.33501387 0.1387827 0.21377799 0.08465426 -0.39800224 0.1620291 -0.055634174 -0.66625214
-0.15113494 0.24432005 -0.6824803 0.2515653 0.19546367 -0.4860048 -0.17808235 -0.5477105
0.13020568 -0.28493768 0.27927673 0.57118815 0.15393014 0.5019833 0.10881478 0.012191071
-1.2301835 -1.1594453 0.3256908 -0.28998423 -0.04383678 0.3216294 0.55610526 0.3055271
-1.2177464 0.15182672 -0.14850456 0.28659892 0.2610956 0.060679357 -0.18995361 0.4081799
-0.676201 -0.3559351 0.17511849 -0.53552246 0.015835349 -0.15935718 -0.026409596 0.42502865
0.43558735 0.07644176 -0.032716576 -0.030262573 -0.24733186 -0.35309252 -0.013478737 0.067545496
-0.10115469 -0.6329516 0.09228864 0.09487659 -0.0008969017 -0.2543427 -0.36571074 -0.4618452
0.19237044 0.3014353 -0.68676114 -0.15916404 0.46431854 -0.63856304 -0.15932131 0.8248463
0.15645605 -0.75120944 -0.33489522 -0.5157842 0.19465758 -0.3051629 -0.14623068 -0.30414057
0.0065711634 0.16460812 -0.38192463 0.28935558 -0.013953693 0.16900949 0.46735534 -0.09144148
0.22866134 0.07990341 0.048614353 0.32841346 -0.5206782 0.12008848 0.6665316 -0.23399158
0.089233965 -0.038236033 0.8080025 -0.26653913 0.2589759 -0.17648524 0.08128505 -0.716603
0.08055513 -0.64689595 0.11999072 0.79904115 -0.8320864 -0.09060896 0.12545995 0.5384525
-0.64962506 0.21131864 -1.0408916 -0.056975827 0.24635102 0.5678251 0.2877832 -0.19024742
0.4825086 0.13147268 -0.56062156 -0.121322975 -0.48308685 0.14245357 0.26736653 0.19635887
0.33765146 0.3759579 -0.21790405 0.50952107 0.55156314 -0.0712978 -0.31167638 -0.20281371
-0.22670428 -0.21971673 -0.48334676 0.21159253 0.12458221 0.2925134 0.0347849 0.1742048
-0.15767238 0.51086235 -0.068874344 0.31887943 -1.353234 0.27177358 0.2025273 -0.7248043
-0.087620795 0.080470994 0.3870435 0.3799241 0.087652706 -0.042010665 -0.08614229 -0.2767926
-0.2203101 0.056783427 0.3702404 -0.6256747 0.36826813 0.20839715 0.41966408 0.06221121
-0.24274947 -0.23359178 0.20365267 0.41535702 0.5200524 0.058107942 -0.19339243 0.36584234
0.4070869 0.14771797 0.0036650666 -0.04068621 -0.6738959 -0.3235107 0.0854248 -0.1086326
0.30711657 0.6912678 0.3432098 -0.8324425 -0.11915877 0.32487 -0.9433311 0.1944989
-0.24600703 0.060433645 -0.017702 0.36590934 0.40683272 0.088785745 -0.8436897 -0.654204
-0.67401695 0.24260172 0.24404098 0.054377038 0.5553273 0.36982024 0.17323768 0.09172132
-0.2859495 0.29881373 -0.05071655 -0.27877408 0.27897635 -0.23834044 -0.08575992 0.26358473
0.37676758 0.12004102 -0.054603674 -0.25152028 -0.72947097 -0.9833487 0.034651965 0.028087273
0.16429853 0.176546 -0.6388951 -0.19082928 -0.7814434 -0.24038835 -0.7458404 -0.31139812
0.20908485 0.64571005 0.21348354 0.107377835 -0.012921746 0.037234314 0.2786074 0.104876235
0.14082567 -0.5325251 -0.12882636 -0.06528544 -0.16942072 0.51103854 0.5836966 0.42098555
-0.03651944 -0.26038522 0.21217121 0.5827889 0.006330818 0.36965847 -0.6033192 0.00057361636

fc2.bias f4 [10]
00000000: e2bf adbe 5478 123e 3334 f23c 2943 0bbe
00000010: 2a4a 05be 5d71 8b3e 3fc6 46be c84e 093e
00000020: 635e 90bd 7412 36bd
-0.33935457 0.14303714 0.029565906 -0.13599838 -0.13016573 0.27234927 -0.19411562 0.13408959
-0.07049253 -0.044451192
