models/model_epoch13.pth (torch, 205023 bytes, 4 tensors)

fc1.weight f4 [64, 784]
0	0x3c91e975	0.017811516
1	0x3ceb1cfa	0.02870034
2	0xbc993aa0	-0.018704712
3	0x3cdeec4a	0.02721228
4	0xbce8825e	-0.028382476
5	0xbb9a46d3	-0.00470815
6	0x3c1f5d73	0.00972687
7	0xbc8e7dc3	-0.017393952
8	0xbd08bc5d	-0.033382762
9	0x3c165285	0.009174948
10	0xbcf8edea	-0.030386884
11	0xbcdd1cb8	-0.026991233
12	0x3d3e4adf	0.04645812
13	0x3d4a211a	0.049347974
14	0x3dddda12	0.10832609
15	0x3c9a65bf	0.018847344
16	0xbcb6bd4a	-0.022307057
17	0x3c5a6433	0.013329553
18	0x3ca7aaae	0.020467129
19	0x3bed3c78	0.0072398745
20	0x3bf8376e	0.007574967
21	0xbcbf27c3	-0.02333439
22	0x3c07d96e	0.008291585
23	0xba4f8cdc	-0.0007917413
24	0x3c968a05	0.01837636
25	0xbac72cb7	-0.0015195821
26	0xbc8a692e	-0.016895857
27	0x3cf0aa2c	0.02937802
28	0xbb04e9ee	-0.0020281035
29	0x3be1bf38	0.00688925
30	0x3ca9acb7	0.02071224
31	0x3cde5581	0.02714038
32	0x3c9e17d6	0.019298475
33	0x3d6c7a5b	0.057733875
34	0x3dd4f8af	0.10398995
35	0x3dd0c571	0.10193909
36	0x3dbd6372	0.09247483
37	0x3e015436	0.1262978
38	0x3e3fdd8e	0.1873686
39	0x3e629c08	0.22129834
40	0x3e30ef37	0.17278753
41	0xbce5feed	-0.02807566
42	0xbe033d90	-0.12816453
43	0x3da21506	0.07914166
44	0x3e81a30c	0.25319707
45	0x3e50f782	0.20406917
46	0x3e09db8c	0.13462657
47	0x3e3e072e	0.18557426
48	0x3dd379c9	0.10325963
49	0xbc96a35b	-0.01838844
50	0x3d980dc2	0.07424499
51	0x3db72f98	0.08944625
52	0xbcf7195e	-0.030163463
53	0xbce9708c	-0.02849605
54	0x3cbf4f75	0.023353318
55	0x3d0ad0de	0.033890598
56	0xbcebf643	-0.02880395
57	0x3ae965dc	0.0017806846
58	0x3d9a0062	0.07519604
59	0xbd65d0dd	-0.05610739
60	0x3d1ef7be	0.038810484
61	0x3e8f37a6	0.27972144
62	0x3e654b8a	0.22392097
63	0x3e896121	0.26831916
64	0x3eebac7a	0.46030027
65	0x3f1582b6	0.58402574
66	0x3f042b36	0.51628435
67	0x3ed35669	0.41276863
68	0x3e39d451	0.18147399
69	0x3c09dd6d	0.008414608
70	0x3e25ad8d	0.16179486
71	0x3e9fb2f7	0.31191227
72	0x3e62234f	0.22083782
73	0x3e2f80e6	0.17139015
74	0x3e23ef85	0.16009338
75	0xbcfcecbd	-0.030874604
76	0x3dad0cfa	0.08449741
77	0x3e928a72	0.2862125
78	0x3e685baf	0.22691225
79	0x3e879bc1	0.26486018
80	0x3e998309	0.29982784
81	0x3e1aec9a	0.15129319
82	0x3b77afa5	0.0037793901
83	0xbcc9a42a	-0.024614412
84	0x39575edc	0.00020539336
85	0xbd0b6123	-0.034028184
86	0x3e8a7273	0.27040443
87	0x3d8d2dfb	0.06893536
88	0x3e2e775a	0.17037717
89	0x3d7b3353	0.061328243
90	0x3e825605	0.25456253
91	0x3d927e13	0.07152953
92	0xbc96a409	-0.018388765
93	0x3e3af1e6	0.1825634
94	0xbd6d16bc	-0.05788301
95	0x3d2930b1	0.0413062
96	0x3e04ed3e	0.12981126
97	0x3dfa0aec	0.122091144
98	0xbd81b409	-0.06333167
99	0x3d76271f	0.060095903
100	0x3e2526cf	0.16128086
101	0x3b1f7f6c	0.0024337424
102	0x3dbf314f	0.09335577
103	0x3da1ee44	0.07906774
104	0xbeba758c	-0.36417806
105	0x3e10b177	0.14130197
106	0x3eb2a2b0	0.34889746
107	0x3ecd3d4e	0.40085834
108	0x3e1fea56	0.15616736
109	0xbd712fa9	-0.058883343
110	0x3db3481b	0.087539874
111	0xbccb7c93	-0.024839675
112	0xbc1c68fc	-0.009546515
113	0xbcfa9637	-0.030589206
114	0x3d3e9dd7	0.046537247
115	0xbe9d3195	-0.3070189
116	0xbe021e52	-0.12706879
117	0x3e1fbcff	0.1559944
118	0x3e95b1ca	0.29237205
119	0x3e1da17f	0.15393637
120	0x3e3dd5eb	0.18538634
121	0x3e1be2b1	0.15223195
122	0x3def2b2f	0.116781585
123	0x3dccbf00	0.09997368
124	0x3de56acf	0.11202013
125	0xbbda793d	-0.0066672848
126	0xbb8ef80e	-0.0043630665
127	0xbd8ea21e	-0.06964515
128	0x3ceef458	0.029169247
129	0xbe0d2a3f	-0.13785647
130	0xbe2be1e3	-0.16785388
131	0x3d462a5a	0.048380233
132	0xbca3db05	-0.020001898
133	0xbdf45ab3	-0.11931362
134	0xbd90b54d	-0.070658304
135	0x3e60889e	0.21927115
136	0xbd4b4e92	-0.049635477
137	0xbd626367	-0.05527058
138	0x3d44e309	0.04806808
139	0x3e921664	0.28532708
140	0x3d0150f0	0.03157133
141	0xbca3a8f3	-0.019978022
142	0x3e6a2ec2	0.22869399
143	0xbcfa81d0	-0.030579478
144	0x3e026bf5	0.12736495
145	0x3e484368	0.19556963
146	0x3d914164	0.070925504
147	0x3bab5d6d	0.005229643
148	0x3e208117	0.15674244
149	0x3d759064	0.059952155
150	0x3d9cb8c9	0.076524325
151	0x3c898df9	0.01679133
152	0x3df3f7d9	0.119125076
153	0x3cffad9c	0.031210713
154	0x3e135452	0.14387634
155	0x3d5d09ba	0.053964354
156	0x3e102f3d	0.1408052
157	0x3cfed3ca	0.031106848
158	0xbddb9ae1	-0.107229
159	0x3bc472cd	0.0059951306
160	0xbc918357	-0.017762823
161	0x3e0ef5a3	0.1396089
162	0x3d651b7c	0.055934414
163	0x3e15ed8f	0.14641403
164	0x3e2a6a3b	0.16642086
165	0x3d916e8d	0.07101164
166	0x3e92a03a	0.28637868
167	0x3e870cb4	0.2637688
168	0xbcb63557	-0.022242231
169	0x3e4e8438	0.20167625
170	0xbe25a020	-0.16174364
171	0xbe19038f	-0.14942764
172	0xbc607dc8	-0.013701864
173	0xbdc77d63	-0.097407125
174	0xbe1dd0ed	-0.1541173
175	0xbd879818	-0.066208065
176	0xbd2d6fd1	-0.042342965
177	0xbd8ba6fc	-0.06818959
178	0xbe162213	-0.14661436
179	0xbe2a7571	-0.16646363
180	0xbe059604	-0.13045508
181	0xbe06b493	-0.13154821
182	0xbd364448	-0.04449871
183	0x3e57d46b	0.21077125
184	0x3e31280a	0.1730043
185	0xbd129d12	-0.035794325
186	0xbe001cc2	-0.1251097
187	0x3c85213f	0.016251205
188	0xbe4c2363	-0.19935374
189	0xbe8ad8d2	-0.27118546
190	0xbc683d1b	-0.014174725
191	0xbd0d93d3	-0.034564804
192	0x3de33b64	0.11095312
193	0x3ec240c8	0.3794005
194	0x3e238462	0.15968469
195	0x3e849ae5	0.25899425
196	0x3c5c1be9	0.013434389
197	0x3db87785	0.090071715
198	0xbd63a57c	-0.05557774
199	0xbecba93f	-0.39777562
200	0xbdf6d108	-0.12051588
201	0xbe1dd97b	-0.15414993
202	0xbe958819	-0.29205397
203	0xbaf6ffa1	-0.0018844494
204	0xbdf1c241	-0.11804629
205	0xbe008120	-0.12549257
206	0xbe070c2c	-0.13188237
207	0xbe5674f1	-0.20943047
208	0xbe3ef4b2	-0.18648031
209	0xbdbe69a2	-0.092974916
210	0x3d79a7df	0.06095111
211	0x3d99d497	0.075112514
212	0x3d776708	0.060400993
213	0xbb12a343	-0.0022375144
214	0xbe1626d6	-0.14663252
215	0xbe51a4aa	-0.2047297
216	0xbe47c8f5	-0.19510253
217	0xbdb0da5d	-0.086353995
218	0xbc24fc77	-0.010069958
219	0xbe38bb25	-0.1804014
220	0xbcb491a1	-0.022042098
221	0x3e9736ca	0.29533988
222	0x3da9b5df	0.08286642
223	0x3e7720a7	0.2413355
224	0x3d7544cd	0.059880067
225	0x3e4ec70d	0.2019312
226	0xbd9f7375	-0.077856936
227	0xbe8790e2	-0.26477724
228	0xbda05f7d	-0.07830713
229	0xbdf56142	-0.11981441
230	0xbe4aba3a	-0.19797602
231	0xbd758cb4	-0.059948638
232	0xbe89c35c	-0.2690686
233	0xbda0fc1c	-0.07860586
234	0xbda1c912	-0.07899679
235	0xbe202186	-0.15637788
236	0xbdc9534d	-0.098303415
237	0xbc63f244	-0.013912741
238	0x3a004260	0.0004892703
239	0x3cf5f425	0.030023644
240	0x3d05227b	0.032503586
241	0xbd1d5917	-0.03841504
242	0xbe7b1955	-0.24521382
243	0xbe576c98	-0.21037519
244	0xbe0cfe9e	-0.13769004
245	0xbe895b03	-0.2682725
246	0xbe405816	-0.18783602
247	0x3db5b6f2	0.08872785
248	0xbe34863b	-0.1762933
249	0xbe1fe947	-0.15616332
250	0xbc920f23	-0.017829483
251	0x3e1f51a5	0.15558489
252	0x3d2cb97f	0.04216909
253	0xbe2d0a0b	-0.16898362
254	0x3ca43f67	0.020049764
255	0x3d3c72f7	0.046008077

fc1.bias f4 [64]
0	0x3d8ef7a8	0.069808304
1	0x3d8a7080	0.06759739
2	0xbee9207e	-0.45532602
3	0x3d4d8100	0.050171852
4	0xbdc64533	-0.096811675
5	0xbe49bc9e	-0.19700858
6	0x3e0f02b4	0.13965875
7	0x3e8e8a35	0.2783982
8	0x3dbe5994	0.092944294
9	0xbec425d5	-0.38310114
10	0x3db1f92a	0.086901024
11	0xbe1dfbe0	-0.15428114
12	0xbe02ac24	-0.12760979
13	0x3c039787	0.008031732
14	0xbdf6f11a	-0.12057705
15	0xbde22bbc	-0.11043498
16	0xbdf89113	-0.12137046
17	0x3e08f45d	0.13374467
18	0x3eac7ef4	0.33690608
19	0x3e42a89b	0.1900963
20	0xbe88fbcc	-0.26754606
21	0xbe1ad180	-0.1511898
22	0x3ec313be	0.38101
23	0xbd891607	-0.066936545
24	0x3e83da05	0.25752273
25	0x3e54acd1	0.20769049
26	0xbea69a68	-0.32539678
27	0x3ee74328	0.45168424
28	0xbdb1421a	-0.08655186
29	0x3d5da3eb	0.054111402
30	0x3e9f3032	0.31091458
31	0xbe8ec4fc	-0.27884662
32	0xbe701740	-0.23446369
33	0xbe08fdaf	-0.13378023
34	0x3e3f40fd	0.18677135
35	0x3e4c5823	0.19955496
36	0xbe4f66dd	-0.20254083
37	0x3e1b00da	0.15137044
38	0x3ebb92f5	0.36635557
39	0xbe8cbb80	-0.274868
40	0x3ddf11bc	0.108920544
41	0x3e19b7fb	0.15011589
42	0xbde67adc	-0.11253902
43	0x3e51f604	0.20504004
44	0x3da4727e	0.0802965
45	0xbe5b4882	-0.21414378
46	0xbe37d71e	-0.17953154
47	0xbe59ebdd	-0.21281381
48	0xbe6d258d	-0.23158856
49	0x3c0a8f59	0.008457028
50	0xbe47d563	-0.19514994
51	0xbda3e5c6	-0.0800281
52	0x3bc31e57	0.0059545445
53	0xbe26e1c4	-0.1629706
54	0x3e8c135d	0.27358523
55	0xbcc1f315	-0.02367548
56	0x3de37903	0.111070655
57	0x3c9163b9	0.017747747
58	0xbde60ce3	-0.11232927
59	0x3e1bcc7c	0.15214723
60	0x3d94f1cf	0.07272684
61	0xbc927082	-0.017875914
62	0x3e70b247	0.23505507
63	0xbdc8d567	-0.09806328

fc2.weight f4 [10, 64]
0	0xbe9b1caa	-0.30295306
1	0x3dfc002f	0.123047225
2	0x3e493af3	0.19651394
3	0x3ddf25a3	0.108958505
4	0xbebebb6e	-0.37252373
5	0x3e29ef43	0.16595177
6	0xbd8b24eb	-0.06794151
7	0xbf1d96db	-0.6155831
8	0xbe030253	-0.12793855
9	0x3e653550	0.22383618
10	0xbf187e25	-0.5956748
11	0x3e8190b8	0.25305724
12	0x3e49955e	0.19685885
13	0xbee6048a	-0.44925338
14	0xbe070a39	-0.13187493
15	0xbede34bb	-0.43399605
16	0x3df63037	0.12020915
17	0xbe5e66aa	-0.2171885
18	0x3e58eaa0	0.21183252
19	0x3f0692e0	0.52567863
20	0x3e160303	0.14649586
21	0x3efdc4bd	0.49564162
22	0x3d809dc0	0.062800884
23	0x3d14f33b	0.036364775
24	0xbf8e1b2a	-1.110204
25	0xbf821a6d	-1.0164315
26	0x3e9b1ac0	0.30293846
27	0xbe888a60	-0.26668072
28	0xbcd208d5	-0.025638977
29	0x3e952482	0.29129416
30	0x3f01bba3	0.50676936
31	0x3e8eab7d	0.2786521
32	0xbf8a9ee5	-1.0829741
33	0x3e180a8a	0.1484777
34	0xbe0cc1c7	-0.13745795
35	0x3e8c448d	0.2739605
36	0x3e7a96c9	0.24471582
37	0x3d841432	0.064491645
38	0xbe05009b	-0.12988512
39	0x3eac976f	0.33709285
40	0xbf1191b3	-0.56862944
41	0xbe9b86cc	-0.3037628
42	0x3e2c40e7	0.16821633
43	0xbf03851c	-0.51374984
44	0x3c52766b	0.012845616
45	0xbe0fa0cb	-0.14026181
46	0xbcec176d	-0.028819764
47	0x3ec78955	0.38971964
48	0x3eccf2b0	0.40028906
49	0x3dedd6b0	0.11613214
50	0xbc9e153e	-0.019297238
51	0xbb8e9c48	-0.0043521263
52	0xbe81bfce	-0.25341648
53	0xbe9a4045	-0.3012716
54	0xbcc118e5	-0.023571441
55	0x3d922e96	0.07137792
56	0xbdb9043b	-0.0903401
57	0xbf12c675	-0.5733407
58	0x3dd1598b	0.10222157
59	0x3dadf8a4	0.0849469
60	0xbbf6c258	-0.007530492
61	0xbe751119	-0.23932303
62	0xbeb4f129	-0.3534024
63	0xbed119bc	-0.40839946
64	0x3e32c26b	0.17456977
65	0x3e97cadd	0.2964696
66	0xbf166706	-0.5875095
67	0xbde8bed2	-0.11364521
68	0x3eda1113	0.42591152
69	0xbf09b44b	-0.5379073
70	0xbe12c6d1	-0.14333655
71	0x3f3c9963	0.7367155
72	0x3e30a395	0.17249902
73	0xbf266dd8	-0.6501136
74	0xbea84b18	-0.32869792
75	0xbefa812b	-0.48926672
76	0x3e3944ed	0.180927
77	0xbe89d236	-0.2691819
78	0xbe28db9b	-0.16490023
79	0xbe777f5c	-0.24169677
80	0xbc17eed0	-0.009273246
81	0x3e1a1381	0.15046503
82	0xbeb34c07	-0.35018942
83	0x3e750d7b	0.23930924
84	0xbc785066	-0.015155887
85	0x3e29b3cc	0.16572493
86	0x3ee06c2a	0.43832523
87	0xbda10548	-0.078623354
88	0x3e59be6b	0.21264045
89	0x3d949d26	0.07256536
90	0x3d05462a	0.032537617
91	0x3e98da4c	0.29854047
92	0xbeec3f42	-0.46142012
93	0x3da1d957	0.079027824
94	0x3f206fb2	0.62670434
95	0xbe6aac8f	-0.22917388
96	0x3daf0e0a	0.085475996
97	0xbd0853e3	-0.033283126
98	0x3f388fdd	0.7209452
99	0xbe88270a	-0.26592284
100	0x3e6645ff	0.22487639
101	0xbe4b79d9	-0.198707
102	0x3d9c28b6	0.076249525
103	0xbf24d7d1	-0.6439181
104	0x3d84c985	0.06483749
105	0xbf184aff	-0.59489435
106	0x3dea52b1	0.114415534
107	0x3f37f3db	0.7185647
108	0xbf3fe099	-0.74952084
109	0xbdbdc850	-0.09266722
110	0x3dd8dfab	0.10589536
111	0x3efc40f6	0.4926831
112	0xbf16e902	-0.5894929
113	0x3e31f941	0.17380239
114	0xbf6b7014	-0.9196789
115	0xbd7b67e1	-0.061378364
116	0x3e7f8b60	0.24955511
117	0x3f0230f7	0.50855964
118	0x3e9530f6	0.29138917
119	0xbe30987b	-0.17245667
120	0x3ee30a6a	0.44343883
121	0x3e060378	0.1308726
122	0xbf06be5f	-0.52634233
123	0xbdc6c4fe	-0.09705542
124	0xbeed0046	-0.4628927
125	0x3df876eb	0.12132057
126	0x3e876a62	0.2644835
127	0x3e23abec	0.15983552
128	0x3eae81a7	0.34083292
129	0x3eb18862	0.34674364
130	0xbe39e845	-0.1815501
131	0x3ee4e4ce	0.44705814
132	0x3f0301c6	0.5117458
133	0xbd9c5438	-0.07633251
134	0xbe98609f	-0.29761216
135	0xbe2ee4e1	-0.17079498
136	0xbe400d1e	-0.18755004
137	0xbe4ef0c9	-0.2020904
138	0xbed2a556	-0.41141766
139	0x3e4ca792	0.19985798
140	0x3de5a9c7	0.11214023
141	0x3e837f93	0.2568327
142	0x3d2a00d2	0.04150469
143	0x3e254256	0.16138586
144	0xbe10b707	-0.1413232
145	0x3ef2e3c2	0.4743939
146	0xbd3f5f3c	-0.046721682
147	0x3e91fa3a	0.2851122
148	0xbfa14ac4	-1.2600942
149	0x3e6aa787	0.22915469
150	0x3e4fe32d	0.20301504
151	0xbf37a345	-0.71733505
152	0xbd832597	-0.06403654
153	0x3d951cf7	0.07280915
154	0x3eb6b19b	0.35682377
155	0x3eb41e2d	0.35179272
156	0x3d92871b	0.071546756
157	0xbd27049c	-0.04077588
158	0xbda7ff57	-0.08202999
159	0xbe6810fd	-0.2266273
160	0xbe54d4d4	-0.20784312
161	0x3d621aa1	0.055201177
162	0x3ebcf26a	0.36903697
163	0xbf1c35d8	-0.6101966
164	0x3ea92dc8	0.3304274
165	0x3e479943	0.19492058
166	0x3ebfe84c	0.37481916
167	0x3d3f714b	0.046738904
168	0xbe61f9d9	-0.22067966
169	0xbe5a604b	-0.21325795
170	0x3e54ba56	0.20774207
171	0x3ecc00e1	0.3984442
172	0x3eee77cd	0.46575776
173	0x3d8e1d00	0.06939125
174	0xbe3d3b05	-0.18479545
175	0x3eb28a5b	0.34871182
176	0x3ebdca76	0.37068528
177	0x3e194a96	0.14969859
178	0x3a1037fc	0.00055015064
179	0xbc2b6777	-0.01046168
180	0xbf200e5a	-0.625219
181	0xbe9b31c8	-0.30311418
182	0x3db9e0ed	0.09076104
183	0xbdcb268e	-0.09919463
184	0x3e9a66a0	0.30156422
185	0x3f296d88	0.66182756
186	0x3eaee73b	0.3416079
187	0xbf418fd7	-0.7561011
188	0xbdfb3ec9	-0.12267835
189	0x3e9df406	0.30850238
190	0xbf5f7da6	-0.873011
191	0x3e266798	0.16250455
192	0xbe816822	-0.2527476
193	0x3d844f17	0.06460398
194	0xbcd61ff1	-0.026138278
195	0x3ea58ef7	0.32335636
196	0x3ebfe696	0.3748061
197	0x3de8bacb	0.11363753
198	0xbf465842	-0.7747842
199	0xbf1743f5	-0.5908807
200	0xbf1cf133	-0.6130554
201	0x3e651f31	0.2237518
202	0x3e5707f1	0.20999123
203	0x3d74f96a	0.059808172
204	0x3f03f8a2	0.5155126
205	0x3ea4dd27	0.32199976
206	0x3e37072a	0.17873827
207	0x3da0fd9c	0.07860872
208	0xbe8d0915	-0.27545992
209	0x3e80d29d	0.25160685
210	0xbd11236b	-0.035434168
211	0xbe7c2f66	-0.24627456
212	0x3e8cb2ac	0.27480066
213	0xbe5d6c56	-0.21623358
214	0xbd7f831c	-0.062380895
215	0x3e65c07f	0.22436713
216	0x3ebfcb2b	0.37459692
217	0x3e147cff	0.14500807
218	0xbd5b2bd2	-0.053508587
219	0xbe3fe1b7	-0.18738447
220	0xbf14b762	-0.5809232
221	0xbf650e95	-0.89475375
222	0x3cef217a	0.029190768
223	0x3d090f0f	0.033461627
224	0x3e1db5af	0.15401338
225	0x3e411004	0.18853766
226	0xbf18c3ca	-0.5967375
227	0xbe4cda82	-0.20005229
228	0xbf328345	-0.6973155
229	0xbe61a252	-0.22034577
230	0xbf352ad0	-0.7076845
231	0xbe90468e	-0.2817883
232	0x3e3952d4	0.18098003
233	0x3f200a73	0.62515944
234	0x3e58de45	0.21178539
235	0x3de5ce23	0.11220958
236	0x3bce912c	0.006303927
237	0x3cfefdf1	0.031126948
238	0x3e737b5d	0.23777528
239	0x3dd3e294	0.10345951
240	0x3dfff622	0.12498118
241	0xbf02dbfe	-0.5111693
242	0xbdce4990	-0.10072625
243	0xbdaf0359	-0.085455604
244	0xbe284eca	-0.16436306
245	0x3f051e49	0.51999336
246	0x3f086fc9	0.5329557
247	0x3ecd9149	0.40149906
248	0xbcdbb995	-0.02682189
249	0xbe7c4238	-0.24634635
250	0x3e539339	0.2066163
251	0x3f110ae1	0.56657225
252	0x3bd36ddc	0.0064523052
253	0x3e9fe65b	0.31230435
254	0xbf11c42b	-0.56939954
255	0xba9597f9	-0.0011413089

fc2.bias f4 [10]
0	0xbe9721a0	-0.2951784
1	0x3e157694	0.14596015
2	0x3d1b61e4	0.037935153
3	0xbdf76311	-0.12079442
4	0xbe067291	-0.13129641
5	0x3e865fe7	0.26245043
6	0xbe4c9d25	-0.19981821
7	0x3e0a95f3	0.13533764
8	0xbdc46b45	-0.095907725
9	0xbd5d51fe	-0.054033272
