models/model_epoch12.pth (torch, 205023 bytes, 4 tensors)

fc1.weight f4 [64, 784]
0.017811516 0.02870034 -0.018704712 0.02721228 -0.028382476 -0.00470815 0.00972687 -0.017393952
-0.033382762 0.009174948 -0.030386884 -0.026991233 0.051909663 0.053784676 0.10601386 0.018448142
-0.022307057 0.013329553 0.020467129 0.0072398745 0.007574967 -0.02333439 0.008291585 -0.0007917413
0.01837636 -0.0015195821 -0.016895857 0.02937802 -0.0020281035 0.00688925 0.02071224 0.02714038
0.01928609 0.05770618 0.10397941 0.10193553 0.090532504 0.122126564 0.1839566 0.21548155
0.16794363 -0.023185218 -0.11088243 0.0873456 0.23039445 0.18373813 0.106760055 0.18280277
0.10293572 -0.018545564 0.07494879 0.08889406 -0.030163463 -0.02849605 0.023353318 0.033890598
-0.02880395 0.0017806846 0.07523839 -0.04931508 0.04137956 0.24951029 0.1931564 0.23812783
0.45146832 0.5756925 0.5031844 0.3942709 0.19611843 0.026878633 0.1490951 0.29516622
0.21683025 0.1628116 0.15464538 -0.025115544 0.078464665 0.2528104 0.21591064 0.26271975
0.28839144 0.15008436 0.0037793901 -0.024614412 0.00020539336 -0.034028184 0.26515654 0.07284135
0.14900255 0.04579145 0.23096345 0.059654217 -0.009772461 0.18105522 -0.047164805 0.026968013
0.11770928 0.11940483 -0.061351594 0.05689999 0.16477056 0.00024078178 0.076299034 0.06915328
-0.3227638 0.15583852 0.33146825 0.40255722 0.17022078 -0.04006352 0.072613984 -0.024839675
-0.009546515 -0.030574739 0.048059277 -0.29856342 -0.12482211 0.13150302 0.2671601 0.13601135
0.16994974 0.13836151 0.11234697 0.08302181 0.10462485 0.0054527763 0.011442411 -0.058654375
0.036877368 -0.12615055 -0.16185018 0.044190682 -0.006467232 -0.0935146 -0.056371372 0.19328733
-0.049818892 -0.05206007 0.05638033 0.28444874 0.03157133 -0.019978022 0.22871113 -0.021729354
0.12507764 0.17798857 0.06248474 4.255221e-05 0.11888241 0.037594814 0.057034306 0.0025483435
0.104643665 0.018500792 0.12782344 0.058693532 0.12656581 0.016981473 -0.1122145 -0.0012079879
-0.016766772 0.12863863 0.058207843 0.13142335 0.16325593 0.08135366 0.28378668 0.26267335
-0.022242231 0.19822538 -0.15205045 -0.13231292 -0.00035484004 -0.07913912 -0.1464304 -0.07231201
-0.06444535 -0.09216265 -0.1615799 -0.17340511 -0.1365639 -0.12963371 -0.057951633 0.18267807
0.15429291 -0.039040834 -0.13062288 -0.00026514893 -0.20444989 -0.26009434 -0.0075856363 -0.025471624
0.12204733 0.37335473 0.14970179 0.2585185 0.013434389 0.08609975 -0.053133186 -0.367397
-0.12399959 -0.14067808 -0.26261348 -0.012754743 -0.12564728 -0.13903973 -0.13848044 -0.20471805
-0.18329158 -0.09293691 0.04314908 0.057743408 0.052080546 -0.0043560327 -0.14338462 -0.20095216
-0.20669101 -0.08654487 -0.009319061 -0.17042154 -0.02495672 0.26663822 0.07668086 0.24083246
0.056605767 0.18945497 -0.07315031 -0.22241649 -0.074304216 -0.11335005 -0.17615102 -0.053144738
-0.2606435 -0.07978558 -0.08585209 -0.15866949 -0.10538415 -0.018950615 -0.012855372 0.022188902
0.03517051 -0.024148222 -0.23481216 -0.21333574 -0.1525785 -0.26452294 -0.18179177 0.08390327
-0.16997626 -0.1569681 -0.02536279 0.157931 0.042135175 -0.1610043 -0.0003539536 0.078314245
00000000: 75e9 913c fa1c eb3c a03a 99bc 4aec de3c
00000010: 5e82 e8bc d346 9abb 735d 1f3c c37d 8ebc
00000020: 5dbc 08bd 8552 163c eaed f8bc b81c ddbc
00000030: 3a9f 543d 524d 5c3d cb1d d93d 8f20 973c
00000040: 4abd b6bc 3364 5a3c aeaa a73c 783c ed3b
00000050: 6e37 f83b c327 bfbc 6ed9 073c dc8c 4fba
00000060: 058a 963c b72c c7ba 2e69 8abc 2caa f03c
00000070: eee9 04bb 38bf e13b b7ac a93c 8155 de3c
00000080: ddfd 9d3c 515d 6c3d 28f3 d43d 93c3 d03d
00000090: 1b69 b93d 7e1d fa3d 1e5f 3c3e 32a7 5c3e
000000a0: 6af9 2b3e edee bdbc 5416 e3bd 40e2 b23d
000000b0: 86ec 6b3e d925 3c3e 04a5 da3d a630 3b3e
000000c0: f6cf d23d deec 97bc c07e 993d 170e b63d
000000d0: 5e19 f7bc 8c70 e9bc 754f bf3c ded0 0a3d
000000e0: 43f6 ebbc dc65 e93a 9616 9a3d 9cfe 49bd
000000f0: 9d7d 293d a07f 7f3e cbca 453e c8d7 733e
00000100: db26 e73e 9560 133f b1d0 003f e0dd c93e
00000110: 45d3 483e 9430 dc3c 63ac 183e 0720 973e
00000120: c008 5e3e 16b8 263e 5c5b 1e3e 1dbf cdbc
00000130: 15b2 a03d 5d70 813e ae17 5d3e 3483 863e
00000140: 0ba8 933e b7af 193e a5af 773b 2aa4 c9bc
00000150: dc5e 5739 2361 0bbd 99c2 873e d92d 953d
00000160: 2094 183e d18f 3b3d af81 6c3e fb57 743d
00000170: ac1c 20bc 8a66 393e e22f 41bd 06ec dc3c
00000180: 9011 f13d 858a f43d cf4b 7bbd f70f 693d
00000190: 9db9 283e 5e7a 7c39 ab42 9c3d 3ca0 8d3d
000001a0: 4c41 a5be 2294 1f3e 35b6 a93e fb1b ce3e
000001b0: 5b4e 2e3e a519 24bd a4b6 943d 937c cbbc
000001c0: fc68 1cbc e077 fabc ced9 443d 4edd 98be
000001d0: bca2 ffbd baa8 063e 35c9 883e 8f46 0b3e
000001e0: 4e07 2e3e a4ae 0d3e 2b16 e63d 5707 aa3d
000001f0: 8e45 d63d 34ad b23b f378 3b3c 923f 70bd
00000200: b90c 173d 9c2d 01be 0ebc 25be 4a01 353d
00000210: 13eb d3bb 9584 bfbd abe5 66bd 1ded 453e
00000220: e50e 4cbd f13c 55bd 10ef 663d 44a3 913e
00000230: f050 013d f3a8 a3bc 4033 6a3e c201 b2bc
00000240: 5a14 003e a342 363e 00f0 7f3d 167a 3238
00000250: 9f78 f33d 05fd 193d ce9c 693d 1c02 273b
00000260: 6b4f d63d f98e 973c 26e4 023e a168 703d
00000270: 789a 013e bb1c 8b3c b7d0 e5bd 5955 9eba
00000280: 785a 89bc d8b9 033e 596b 6e3d d893 063e
00000290: 902c 273e bf9c a63d 7d4c 913e 1f7d 863e
000002a0: 5735 b6bc 98fb 4a3e 1db3 1bbe 0a7d 07be
000002b0: d309 bab9 b113 a2bd daf1 15be 5218 94bd
000002c0: ecfb 83bd c5bf bcbd 3475 25be 1c91 31be
000002d0: 68d7 0bbe b3be 04be b15e 6dbd f60f 3b3e
000002e0: f6fe 1d3e 48e9 1fbd 01c2 05be b003 8bb9
000002f0: 505b 51be 162b 85be ee90 f8bb dea9 d0bc
00000300: f3f3 f93d 5a28 bf3e 6d4b 193e 895c 843e
00000310: e91b 5c3c 1155 b03d 2fa2 59bd 761b bcbe
00000320: 7ff3 fdbd ea0d 10be 4675 86be 45f9 50bc
00000330: aea9 00be 6e60 0ebe d1cd 0dbe 9ca1 51be
00000340: cab0 3bbe b555 bebd 17bd 303d 5a84 6c3d
00000350: 6952 553d 0dbd 8ebb 6bd3 12be 67c6 4dbe
00000360: cfa6 53be 703e b1bd faae 18bc fc82 2ebe
00000370: 0972 ccbc ce84 883e db0a 9d3d c99c 763e
00000380: 73db 673d 7c00 423e d4cf 95bd 26c1 63be
00000390: cf2c 98bd 1224 e8bd ef60 34be 4cae 59bd
000003a0: 1173 85be 9f66 a3bd 38d3 afbd 417a 22be
000003b0: a5d3 d7bd 523e 9bbc 579f 52bc 80c5 b53c
000003c0: f40e 103d 7ed2 c5bc 9972 70be af74 5abe
000003d0: 8a3d 1cbe 8d6f 87be 9f27 3abe 7ad5 ab3d
000003e0: 420e 2ebe 3fbc 20be a0c5 cfbc aab8 213e
000003f0: ef95 2c3d 50de 24be d992 b9b9 3863 a03d

fc1.bias f4 [64]
0.0659218 0.058968317 -0.45228294 0.062220767 -0.086460285 -0.20585972 0.13910401 0.2783242
0.10650343 -0.37421897 0.08857325 -0.1542252 -0.12872481 -0.001694783 -0.11818943 -0.12076054
-0.1155853 0.13009377 0.3354206 0.18503541 -0.26025525 -0.16046524 0.35347837 -0.07975822
0.25838953 0.19202764 -0.3182312 0.43859798 -0.08125421 0.05990946 0.29780927 -0.28102297
-0.21827681 -0.12674992 0.17054182 0.18559763 -0.19461666 0.16181736 0.3627039 -0.2836182
0.10999868 0.14381453 -0.10778218 0.2034191 0.09423885 -0.21286616 -0.18168922 -0.20942385
-0.24183127 0.012891942 -0.20329364 -0.078924954 0.02165625 -0.16822112 0.26136127 -0.029776203
0.108465515 0.023542803 -0.11332578 0.14491896 0.06645474 -0.009162098 0.24225569 -0.09739212
00000000: 0202 873d c388 713d a191 e7be 34db 7e3d
00000010: 1712 b1bd e4cc 52be 4871 0e3e 8280 8e3e
00000020: 781e da3d a199 bfbe e465 b53d 36ed 1dbe
00000030: 70d0 03be 7b23 deba 4d0d f2bd 4d51 f7bd
00000040: fcb7 ecbd 4d37 053e 40bc ab3e ec79 3d3e
00000050: 2d40 85be 0051 24be 1efb b43e 4758 a3bd
00000060: a24b 843e e5a2 443e 33ef a2be ea8f e03e
00000070: 9b68 a6bd 9f63 753d 757a 983e 3ee2 8fbe
00000080: f583 5fbe bbca 01be 84a2 2e3e 4e0d 3e3e
00000090: 9749 47be 73b3 253e 53b4 b93e 6836 91be
000000a0: fd46 e13d 1e44 133e e7bc dcbd 194d 503e
000000b0: 4c00 c13d 96f9 59be bd0c 3abe 3573 56be
000000c0: 9ea2 77be b938 533c 352c 50be 68a3 a1bd
000000d0: 7368 b13c 2842 2cbe 25d1 853e 39ed f3bc
000000e0: 2b23 de3d d6dc c03c 5917 e8bd a365 143e
000000f0: 6c19 883d a01c 16bc e011 783e 8575 c7bd

fc2.weight f4 [10, 64]
-0.30863246 0.106678255 0.18070684 0.11208763 -0.36906245 0.16854988 -0.07098353 -0.59913033
-0.12858209 0.2057114 -0.5778231 0.23601615 0.18274267 -0.42801753 -0.1361202 -0.40460858
0.10910431 -0.19600615 0.22010426 0.47254714 0.12612614 0.4777427 0.09734971 0.02889397
-1.0585364 -0.95436764 0.30413157 -0.27293438 -0.02184974 0.28479517 0.47326156 0.26980865
-1.0513378 0.15036738 -0.1373521 0.28150246 0.2470087 0.07850302 -0.12529635 0.29968107
-0.53422534 -0.28636423 0.15888825 -0.49560127 0.027833866 -0.1444011 -0.021181542 0.36118102
0.38109058 0.11714463 -0.04450428 0.01219216 -0.25330883 -0.28940272 -0.027300438 0.05877796
-0.098743275 -0.55223304 0.08508766 0.08712569 0.0046419255 -0.2275628 -0.3332945 -0.41329548
0.19433817 0.2973611 -0.5529318 -0.122365355 0.42790678 -0.50950116 -0.12884802 0.68465066
0.17516665 -0.5976611 -0.3376247 -0.491216 0.17772132 -0.25950012 -0.1697892 -0.2350948
-0.02037497 0.152839 -0.3514912 0.22352394 -0.0035408414 0.16798608 0.4083596 -0.056737132
0.19411305 0.066652395 0.037773993 0.29487455 -0.45039663 0.04773754 0.5876357 -0.22094734
0.064795256 -0.034629557 0.68526584 -0.26915795 0.22529133 -0.19096623 0.06354483 -0.5940362
0.05434429 -0.57366693 0.11845748 0.69071096 -0.73196787 -0.10003956 0.095353976 0.49134383
-0.5465822 0.1601668 -0.87613493 -0.03636761 0.2423367 0.49586555 0.27657205 -0.16344717
0.42405963 0.13694192 -0.5039946 -0.10096535 -0.47591263 0.12024267 0.25581902 0.15315318
0.3212791 0.32362643 -0.19207212 0.4398542 0.4890662 -0.0684007 -0.31598997 -0.15030369
-0.17256057 -0.20780128 -0.38361278 0.19293779 0.10906101 0.2407683 0.03730133 0.1397312
-0.1419085 0.47320113 -0.040096603 0.26478302 -1.2211173 0.22388305 0.22939588 -0.71042025
-0.04889013 0.07961483 0.33207873 0.33298394 0.08347133 -0.026864186 -0.08533664 -0.2206279
-0.19336306 0.06886165 0.36754355 -0.5935208 0.31017405 0.19877858 0.354184 0.026693877
-0.21043335 -0.20163731 0.21293287 0.39851063 0.43877295 0.065484695 -0.17144363 0.3443778
0.3569647 0.1353572 -0.011987058 -0.02170302 -0.6028428 -0.2791333 0.078140244 -0.096987
0.31669894 0.66119367 0.3326773 -0.72676325 -0.10763805 0.29875314 -0.85418767 0.1572292
-0.26193964 0.06820203 -0.04145265 0.32788652 0.37072474 0.099866636 -0.77124864 -0.5728718
-0.58985895 0.22793554 0.21126059 0.07463204 0.5079427 0.29329467 0.18659413 0.08097461
-0.26400244 0.21153489 -0.032900505 -0.2353263 0.2593505 -0.20366582 -0.06616051 0.21300186
0.35178512 0.14936431 -0.055357352 -0.1657121 -0.53726697 -0.83641624 0.03680008 0.034181833
0.16246946 0.17154554 -0.5757463 -0.2070624 -0.68917084 -0.21578193 -0.6853868 -0.2870126
0.18342938 0.5916971 0.21305373 0.10610065 0.017968351 0.036234863 0.21846141 0.09502715
0.113816924 -0.4772805 -0.0807906 -0.08106588 -0.15490308 0.49981943 0.50662506 0.39331424
-0.028983077 -0.26038635 0.20031744 0.5726438 -0.006190895 0.2873489 -0.5581061 -0.010072917
00000000: 1305 9ebe 217a da3d 370b 393e 338e e53d
00000010: c1f5 bcbe 5798 2c3e d05f 91bd 9b60 19bf
00000020: 06ab 03be 02a6 523e 37ec 13bf 38ae 713e
00000030: e520 3b3e 1d25 dbbe 1863 0bbe db28 cfbe
00000040: 1572 df3d d6b5 48be 0363 613e b3f1 f13e
00000050: 3627 013e b19a f43e 495f c73d 0cb3 ec3c
00000060: 1f7e 87bf 7051 74bf 22b7 9b3e 0ebe 8bbe
00000070: 3afe b2bc acd0 913e 574f f23e 5c24 8a3e
00000080: 3d92 86bf e8f9 193e 07a6 0cbe 1721 903e
00000090: d9ef 7c3e 31c6 a03d b04d 00be cc6f 993e
000000a0: fec2 08bf 559e 92be 9ab3 223e 73bf fdbe
000000b0: d903 e43c e2dd 13be ea84 adbc b8ec b83e
000000c0: 4e1e c33e 86e9 ef3d 1f4a 36bd a0c1 473c
000000d0: b2b1 81be 982c 94be 2ba5 dfbc 28c1 703d
000000e0: ea39 cabd 255f 0dbf 7042 ae3d f46e b23d
000000f0: 4b1b 983b 3906 69be 94a5 aabe 779b d3be
00000100: 9600 473e b73f 983e f08c 0dbf b09a fabd
00000110: 9916 db3e ab6e 02bf bcf0 03be 4445 2f3f
00000120: e35e 333e 5100 19bf 25dd acbe aa80 fbbe
00000130: 94fc 353e 33dd 84be 38dd 2dbe b1bc 70be
00000140: 69e9 a6bc d481 1c3e a8f6 b3be 76e3 643e
00000150: 760d 68bb 8b04 2c3e 8214 d13e 3265 68bd
00000160: 92c5 463e 0d81 883d e7b8 1a3d ccf9 963e
00000170: 639a e6be 7088 433d 4b6f 163f 0540 62be
00000180: 60b3 843d b9d7 0dbd 956d 2f3f 12cf 89be
00000190: c5b2 663e a78c 43be cb23 823d c212 18bf
000001a0: 1e98 5e3d d6db 12bf d699 f23d 6fd2 303f
000001b0: 3f62 3bbf 8ae1 ccbd f248 c33d 6b91 fb3e
000001c0: d0ec 0bbf c402 243e 614a 60bf 34f6 14bd
000001d0: 1d27 783e 17e2 fd3e da9a 8d3e b25e 27be
000001e0: 581e d93e 813a 0c3e ca05 01bf ecc6 cebd
000001f0: d2aa f3be ca41 f63d b6fa 823e 30d4 1c3e
00000200: b27e a43e 5db2 a53e 8eae 44be 9234 e13e
00000210: e366 fa3e ab15 8cbd 70c9 a1be 36e9 19be
00000220: b8b3 30be dcc9 54be e568 c4be 7c91 453e
00000230: 615b df3d f78b 763e 48c9 183d b215 0f3e
00000240: 7650 11be 6b47 f23e 563c 24bd a491 873e
00000250: 924d 9cbf 9941 653e c1e6 6a3e 1ade 35bf
00000260: 0441 48bd 1a0d a33d 3906 aa3e df7c aa3e
00000270: 04f3 aa3d 4812 dcbc fac4 aebd 48ec 61be
00000280: f700 46be 5607 8d3d ab2e bc3e fbf0 17bf
00000290: 22cf 9e3e 9d8c 4b3e 9b57 b53e 1ead da3c
000002a0: d77b 57be 037a 4ebe 130b 5a3e 9609 cc3e
000002b0: d9a6 e03e d71c 863d eb8e 2fbe 4952 b03e
000002c0: 14c4 b63e 149b 0a3e 5e65 44bc 88ca b1bc
000002d0: e853 1abf 8fea 8ebe fe07 a03d 1fa1 c6bd
000002e0: 5d26 a23e fd43 293f ae54 aa3e 280d 3abf
000002f0: 5771 dcbd 2cf6 983e 0bac 5abf b100 213e
00000300: f41c 86be 82ad 8b3d 41ca 29bd bee0 a73e
00000310: a2cf bd3e e186 cc3d 8d70 45bf baa7 12bf
00000320: ff00 17bf ef67 693e b254 583e afd8 983d
00000330: 8808 023f b82a 963e 8812 3f3e 04d6 a53d
00000340: 542b 87be 9a9c 583e aec2 06bd 61f9 70be
00000350: 97c9 843e c68d 50be 297f 87bd 291d 5a3e
00000360: 2e1d b43e f5f2 183e 64be 62bd 6fb0 29be
00000370: 548a 09bf 601f 56bf aebb 163d 4002 0c3d
00000380: 655e 263e a2a9 2f3e 1c64 13bf 2a08 54be
00000390: 806d 30bf f0f5 5cbe 8275 2fbf 51f3 92be
000003a0: e9d4 3b3e 7679 173f c22a 5a3e 4c4b d93d
000003b0: 5d32 933c 026b 143d 59b4 5f3e 989d c23d
000003c0: d918 e93d 1c5e f4be 8b75 a5bd de05 a6bd
000003d0: ea9e 1ebe 55e8 ff3e 2eb2 013f 7c60 c93e
000003e0: eb6d edbc 5c51 85be 0420 4d3e c998 123f
000003f0: fedc cabb 651f 933e 0be0 0ebf e008 25bc

fc2.bias f4 [10]
-0.28494152 0.14514118 0.03613729 -0.12270816 -0.1225735 0.25365677 -0.19027643 0.13727137
-0.10321649 -0.0559621
00000000: dbe3 91be e49f 143e b204 143d 6a4e fbbd
00000010: d107 fbbd 4ddf 813e d3d7 42be de90 0c3e
00000020: 2b63 d3bd 8438 65bd
