models/model_epoch2.pth (torch, 205023 bytes, 4 tensors)

fc1.weight f4 [64, 784]
0.017811516 0.02870034 -0.018704712 0.02721228 -0.028382476 -0.00470815 0.00972687 -0.017393952
-0.033382762 0.009174948 -0.030386884 -0.026991233 0.055816147 0.030424215 0.046315935 -0.019351145
-0.022307057 0.013329553 0.020467129 0.0072398745 0.007574967 -0.02333439 0.008291585 -0.0007917413
0.01837636 -0.0015195821 -0.016895857 0.02937802 -0.0020281035 0.00688925 0.02071224 0.02714038
-0.005379863 0.034290545 0.08687649 0.085890315 0.07286803 0.09084329 0.10450955 0.09364976
0.067393966 0.032557357 0.034280002 0.1350965 0.17403698 0.09859645 0.05064702 0.08162032
0.07862751 0.06512198 0.08641651 0.053414423 -0.030163463 -0.02849605 0.023353318 0.033890598
-0.02880395 0.0017806846 0.03412285 0.020169541 0.00640925 0.07101478 0.05986931 0.13508628
0.16300498 0.21129882 0.19863993 0.23559086 0.1749681 0.1544597 0.0962004 0.15928763
0.12529978 0.08267812 0.11835252 0.106338754 0.123134576 0.07669742 0.075983815 0.08098108
0.11278936 0.0627078 0.0037793901 -0.024614412 0.00020539336 -0.034028184 0.086219445 0.062104717
0.028656512 0.027951669 0.024971277 0.0534223 0.058228116 0.085603476 0.05299422 0.07197155
0.054683078 0.092284426 0.0040304777 0.021251362 0.049591023 -0.042783447 0.017698947 -0.04106995
-0.073456615 0.021445595 0.0057807104 0.07911376 0.039002657 0.050616346 0.009583 -0.024839675
-0.009546515 -0.007925652 -0.0121681085 -0.06001318 -0.012795016 0.0021093534 0.03168165 -0.0018713082
0.03708796 0.06237196 0.054786578 0.025380919 0.03440754 0.03185102 0.04245 0.05092397
0.057937063 -0.0043041287 0.020701325 0.005318407 -0.007980799 -0.02481613 -0.027315544 -0.011249615
-0.06567442 -0.055858206 0.033041816 0.078319855 0.03157133 -0.019978022 0.011051611 -0.054481026
-0.016778704 -0.04000328 -0.092562325 -0.061882485 -0.02682147 -0.0051133805 0.0023241185 -0.010015789
0.039982863 -0.0042372663 0.04131664 0.055533372 0.043920636 0.06550976 0.009257148 0.027259033
0.024473172 0.06289323 0.066900104 0.068817206 0.072755076 -0.011737265 0.05760115 0.04840152
-0.022242231 0.03761911 -0.058625452 -0.07049384 -0.013230476 -0.07243423 -0.10663527 -0.08455409
-0.06665548 -0.049496155 -0.086291105 -0.06986236 -0.053183038 -0.023918664 -0.05841368 -0.002379561
0.0038762814 -0.015680932 -0.045256183 -0.01365661 -0.056432106 -0.03159607 0.0045134514 0.043477755
0.09316109 0.085089155 0.022853287 0.07390913 0.0134657975 -0.03600074 -0.034827977 -0.097040996
-0.023303695 -0.079494536 -0.11398726 -0.042107522 -0.043330405 -0.04311167 -0.047184076 -0.03976006
-0.05578901 -0.044882998 -0.053776536 -0.092991196 -0.08041676 -0.08294792 -0.04930572 -0.041191485
-0.06369595 -0.013229734 -0.036094423 -0.030651204 0.011049991 0.0037061854 0.028658535 0.07428661
0.07036979 0.001863365 0.009492681 -0.024791526 -0.004563442 -0.05520559 -0.08868186 -0.0195424
-0.06167452 0.011402275 0.0057049757 -0.020785108 -0.0079454295 -0.031776972 -0.042280976 -0.0727514
-0.03190802 -0.07271101 -0.11477882 -0.03517207 -0.048623174 -0.05196202 -0.06621646 -0.034960028
-0.030550541 -0.041715465 0.0061336523 0.068260595 -0.00086467207 -0.042013794 -0.03729654 -0.005496844
00000000: 75e9 913c fa1c eb3c a03a 99bc 4aec de3c
00000010: 5e82 e8bc d346 9abb 735d 1f3c c37d 8ebc
00000020: 5dbc 08bd 8552 163c eaed f8bc b81c ddbc
00000030: 799f 643d 343c f93c c7b5 3d3d 4b86 9ebc
00000040: 4abd b6bc 3364 5a3c aeaa a73c 783c ed3b
00000050: 6e37 f83b c327 bfbc 6ed9 073c dc8c 4fba
00000060: 058a 963c b72c c7ba 2e69 8abc 2caa f03c
00000070: eee9 04bb 38bf e13b b7ac a93c 8155 de3c
00000080: 9049 b0bb 3e74 0c3d 4dec b13d 43e7 af3d
00000090: d53b 953d 0c0c ba3d 1a09 d63d 72cb bf3d
000000a0: d905 8a3d dd5a 053d 3069 0c3d bd56 0a3e
000000b0: c036 323e f0ec c93d 4073 4f3d 8e28 a73d
000000c0: 7607 a13d ac5e 853d 24fb b03d 15c9 5a3d
000000d0: 5e19 f7bc 8c70 e9bc 754f bf3c ded0 0a3d
000000e0: 43f6 ebbc dc65 e93a 67c4 0b3d 983a a53c
000000f0: b004 d23b 3270 913d 8639 753d 0f54 0a3e
00000100: c7ea 263e b85e 583e 4468 4b3e bb3e 713e
00000110: d62a 333e af2a 1e3e b704 c53d 4c1c 233e
00000120: 964e 003e 2553 a93d ce62 f23d 22c8 d93d
00000130: fb2d fc3d 8913 9d3d 679d 9b3d 69d9 a53d
00000140: 1cfe e63d f26c 803d a5af 773b 2aa4 c9bc
00000150: dc5e 5739 2361 0bbd d293 b03d 8461 7e3d
00000160: 10c1 ea3c e6fa e43c 9090 cc3c 57d1 5a3d
00000170: 9b80 6e3d e050 af3d 7810 593d d265 933d
00000180: 5dfb 5f3d 9eff bc3d 1912 843b 5617 ae3c
00000190: f51f 4b3d b23d 2fbd 62fd 903c f738 28bd
000001a0: 6c70 96bd acae af3c 1d6c bd3b 6506 a23d
000001b0: 40c1 1f3d 1653 4f3d 0402 1d3c 937c cbbc
000001c0: fc68 1cbc 98da 01bc bf5c 47bc 61d0 75bd
000001d0: 30a2 51bc 143d 0a3b 9ec4 013d af46 f5ba
000001e0: 8be9 173d be79 7f3d e467 603d a5eb cf3c
000001f0: ecee 0c3d 3776 023d 0de0 2d3d a795 503d
00000200: 6a4f 6d3d a609 8dbb d395 a93c 0846 ae3b
00000210: e6c1 02bc 324b cbbc d9c4 dfbc 4e50 38bc
00000220: 4f80 86bd 93cb 64bd db56 073d 2966 a03d
00000230: f050 013d f3a8 a3bc d111 353c 7f27 5fbd
00000240: 7e73 89bc 7bda 23bd 5191 bdbd 7d78 7dbd
00000250: b3b8 dbbc 258e a7bb 3d50 183b 4419 24bc
00000260: 12c5 233d c4d8 8abb a33b 293d f676 633d
00000270: 20e6 333d fb29 863d 4bab 173c 564e df3c
00000280: f67b c83c 2ace 803d ec02 893d 09f0 8c3d
00000290: 9d00 953d a84d 40bc 2fef 6b3d ac40 463d
000002a0: 5735 b6bc 7f16 1a3d 3e21 70bd 135f 90bd
000002b0: a3c4 58bc 6658 94bd 9863 dabd b22a adbd
000002c0: ab82 88bd 7bbc 4abd 64b9 b0bd ff13 8fbd
000002d0: 75d6 59bd 13f1 c3bc 2f43 6fbd 69f2 1bbb
000002e0: 3609 7e3b 4c75 80bc 8c5e 39bd f9bf 5fbc
000002f0: 5a25 67bd e16a 01bd 93e5 933b bb15 323d
00000300: 3ecb be3d 3943 ae3d d136 bb3c ac5d 973d
00000310: a69f 5c3c 8375 13bd c8a7 0ebd 6ebd c6bd
00000320: 64e7 bebc 08ce a2bd 2772 e9bd f078 2cbd
00000330: 397b 31bd dd95 30bd 1744 41bd 72db 22bd
00000340: 0483 64bd 3cd7 37bd c944 5cbd 2b72 bebd
00000350: 8bb1 a4bd 99e0 a9bd cbf4 49bd 67b8 28bd
00000360: 0673 82bd 87c1 58bc bfd7 13bd 3c18 fbbc
00000370: 050b 353c 79e3 723b 4ec5 ea3c 9423 983d
00000380: 091e 903d 273c f43a 3187 1b3c 9917 cbbc
00000390: ed88 95bb 421f 62bd d69e b5bd 6217 a0bc
000003a0: 6c9e 7cbd 9cd0 3a3c cef0 ba3b 8845 aabc
000003b0: 8c2d 02bc 9228 02bd d12e 2dbd b0fe 94bd
000003c0: fcb1 02bd 83e9 94bd 2811 ebbd 9710 10bd
000003d0: 1829 47bd 21d6 54bd 7f9c 87bd 3f32 0fbd
000003e0: 2145 fabc d6dd 2abd cefc c83b 36cc 8b3d
000003f0: 29ab 62ba a816 2cbd 42c4 18bd df1e b4bb

fc1.bias f4 [64]
-0.053542547 0.0723735 -0.23875192 0.12142294 0.019572826 -0.15511894 -0.0007977786 0.2534668
0.040745214 -0.17454286 0.08715742 -0.090949185 -0.044373278 -0.053123817 -0.12583745 -0.15171738
-0.01200655 0.059892885 0.19216831 0.09642439 -0.12220235 -0.070137784 0.13401449 -0.07365384
0.1451586 0.10981487 -0.14473066 0.23255576 -0.06556561 0.088223964 0.20678113 -0.14022979
-0.059848346 -0.00856343 0.054299355 0.04468769 -0.14460291 0.2199977 0.28962278 -0.16482541
0.07787 0.060732692 -0.037186723 0.07951713 0.037463754 -0.20262153 -0.0997121 -0.11440826
-0.18342419 0.00837056 -0.15650591 -0.040441446 0.06356973 -0.017403325 0.15404972 0.059045292
0.113991246 0.0026779722 -0.06772026 0.13784139 -0.026131507 0.048632354 0.16370374 -0.117092334
00000000: 6e4f 5bbd 8f38 943d 627b 74be 97ac f83d
00000010: 3157 a03c 80d7 1ebe 0422 51ba 67c6 813e
00000020: 74e4 263d 5dbb 32be 977f b23d 9143 babd
00000030: c1c0 35bd 5c98 59bd 88db 00be cd5b 1bbe
00000040: 1fb7 44bc 3e52 753d c5c7 443e 277a c53d
00000050: 3a45 fabd 66a4 8fbd 183b 093e d3d7 96bd
00000060: 75a4 143e 9ee6 e03d 4634 14be 1923 6e3e
00000070: 4347 86bd c4ae b43d 6fbe 533e 6698 0fbe
00000080: 8a23 75bd a14d 0cbc 0069 5e3d 700a 373d
00000090: c912 14be 1447 613e 7049 943e fec7 28be
000000a0: 4e7a 9f3d d8c2 783d 1b51 18bd e1d9 a23d
000000b0: 9873 193d 057c 4fbe dc35 ccbd e14e eabd
000000c0: 8dd3 3bbe ac24 093c 1643 20be eea5 25bd
000000d0: d930 823d 6b91 8ebc 36bf 1d3e 7ad9 713d
000000e0: 3e74 e93d eb80 2f3b ebb0 8abd 4b26 0d3e
000000f0: be11 d6bc b832 473d f4a1 273e 1bce efbd

fc2.weight f4 [10, 64]
-0.14917961 -0.08940333 0.16872048 0.07172301 -0.15818357 0.17790055 -0.009183586 -0.30939922
-0.058525044 0.0054028514 -0.25781888 0.21006234 -0.047914144 -0.17147137 -0.15744902 -0.22703975
0.13671 0.0066571925 0.10632691 0.2295804 -0.094137155 0.066020034 0.18542793 0.070490874
-0.33545905 -0.40990862 -0.022818737 -0.18066607 0.0937386 0.051219016 0.20538677 0.19922145
-0.37634808 0.20201463 -0.23667072 0.24064027 0.11017748 0.11765517 -0.021936959 0.12279619
-0.19807346 -0.09022282 0.046237186 -0.3073545 0.040458016 -0.1495678 0.00010357143 0.2347666
0.2696595 0.14599738 0.017020278 0.07534709 -0.16485736 -0.09111977 -0.07109787 0.03747854
0.09303643 -0.11212161 0.13672051 0.13918674 0.01526484 -0.22647908 -0.18284144 -0.24672401
0.17328298 0.24359871 -0.25414994 -0.012997608 0.22143887 -0.2680714 -0.09285746 0.0770559
0.1325465 -0.33899534 -0.263627 -0.31872267 0.14926997 -0.11807351 -0.1616623 -0.15680191
-0.16533138 0.10217954 -0.27593255 -0.057109065 0.11561546 0.2068129 0.24644889 0.18341145
0.09096221 0.074365765 0.05973061 0.15597165 -0.19506244 -0.14575177 0.02665714 -0.15643404
-0.03703857 -0.10199957 0.19693458 -0.2318529 0.19634272 -0.22381581 -0.1991451 -0.2721834
0.050172262 -0.2789619 0.1341854 0.097541414 -0.34285757 -0.074895926 0.10681903 0.21296863
-0.24749418 0.07192633 -0.33930984 -0.0016058866 0.10349419 0.18513681 0.036716327 -0.022256339
0.20886795 0.09621146 -0.3003856 0.20970045 -0.36781865 0.15051162 0.18917386 0.11964115
0.21779732 0.05275785 -0.08998476 0.24420738 0.2747543 -0.043657333 -0.26218924 -0.17564397
-0.1563973 -0.17176223 -0.2536404 0.10091699 0.10908128 0.17995317 0.036944613 0.17404394
-0.15910046 0.23934929 -0.080553986 0.0593053 -0.52462125 0.0198436 0.13670072 -0.40343562
-0.08960746 0.038958125 0.13126566 0.23501918 0.148617 -0.11400323 0.00983253 -0.15601759
-0.21595745 0.0727357 0.1971884 -0.2724632 0.14602521 0.22431915 0.067275986 0.022195889
-0.17613111 -0.11628675 0.14759205 0.28621644 0.15227892 0.11254341 -0.10742839 0.20025979
0.14200221 0.15691917 -0.028417943 -0.11940696 -0.28976625 -0.20709968 0.036597844 0.026216192
0.21361756 0.35875455 0.22120832 -0.39620948 -0.16762896 0.20969474 -0.55374473 0.13854319
-0.14384386 0.02423494 -0.08378947 0.18615706 0.23221064 0.13118255 -0.36914068 -0.12732767
-0.20956522 0.1781943 0.11230375 0.10876877 0.2418767 0.08299173 0.1927362 0.04330953
-0.1732226 0.14407195 -0.058563415 -0.10943201 0.08374559 -0.10993479 -0.024605906 -0.0044808444
0.20114599 0.12674586 -0.11470503 -0.0011093359 -0.18611658 -0.27228945 0.012306119 0.052460413
0.10946501 0.15190966 -0.11544416 -0.14579344 -0.29741374 -0.082709216 -0.30014202 -0.22947167
0.12017611 0.20137556 0.14943117 0.118360534 0.04888514 0.003402915 0.17017324 0.08402856
0.079248935 -0.22910543 -0.03862665 -0.09815702 -0.15422884 0.21134886 0.2266237 0.18128408
0.07148425 -0.27593246 0.15210308 0.28611934 -0.09207062 -0.027072731 -0.2937379 -0.055553667
00000000: 8ac2 18be 1819 b7bd 10c5 2c3e 83e3 923d
00000010: e0fa 21be 902b 363e c076 16bc 9369 9ebe
00000020: f5b7 6fbd 670a b13b d600 84be 951a 573e
00000030: 9f41 44bd 3196 2fbe 513a 21be 1c7d 68be
00000040: b5fd 0b3e 9424 da3b ecc1 d93d 2017 6b3e
00000050: fbca c0bd 8335 873d d2e0 3d3e 855d 903d
00000060: 4ac1 abbe 8bdf d1be 5cee babc 8700 39be
00000070: 06fa bf3d 08cb 513d e950 523e b500 4c3e
00000080: b2b0 c0be ecdc 4e3e cf59 72be 676a 763e
00000090: bba4 e13d 32f5 f03d 23b5 b3bc 927c fb3d
000000a0: c5d3 4abe bec6 b8bd 3463 3d3d 925d 9dbe
000000b0: 4eb7 253d 4d28 19be 7d34 d938 a866 703e
000000c0: cf10 8a3e 5680 153e 1c6e 8b3c 934f 9a3d
000000d0: 5ed0 28be 019d babd c39b 91bd 1983 193d
000000e0: e289 be3d 04a0 e5bd 7600 0c3e f886 0e3e
000000f0: 6119 7a3c 22ea 67be c93a 3bbe 38a5 7cbe
00000100: 1871 313e f171 793e f11f 82be ebf3 54bc
00000110: dfc0 623e a840 89be 0d2c bebd 7ccf 9d3d
00000120: 45ba 073e cc90 adbe 1efa 86be 9e2f a3be
00000130: 3ada 183e 86d0 f1bd cd8a 25be ae90 20be
00000140: a14c 29be 8243 d13d 0847 8dbe 32eb 69bd
00000150: ccc7 ec3d c3c6 533e 195d 7c3e 36d0 3b3e
00000160: 654a ba3d 144d 983d 16a8 743d 08b7 1f3e
00000170: 73be 47be f43f 15be 1360 da3c 3f30 20be
00000180: c1b5 17bd 27e5 d0bd 38a9 493e d96a 6dbe
00000190: 110e 493e f92f 65be b1ec 4bbe 9f5b 8bbe
000001a0: 6e81 4d3d 18d4 8ebe e667 093e cbc3 c73d
000001b0: 078b afbe 0963 99bd f0c3 da3d 7314 5a3e
000001c0: 1d6f 7dbe 1d4e 933d 05ba adbe 9d7c d2ba
000001d0: c3f4 d33d 8194 3d3e dc63 163d ed52 b6bc
000001e0: 7be1 553e 840a c53d 24cc 99be b7bb 563e
000001f0: ba52 bcbe b81f 1a3e cbb6 413e 6b06 f53d
00000200: 4306 5f3e 9e18 583d ee49 b8bd 8011 7a3e
00000210: 98ac 8c3e 08d2 32bd ab3d 86be 03dc 33be
00000220: 9d26 20be 70e2 2fbe 28dd 81be 91ad ce3d
00000230: 0266 df3d a545 383e 3c53 173d 9338 323e
00000240: 3beb 22be fb17 753e 7df9 a4bd 1dea 723d
00000250: 944d 06bf 0c8f a23c 46fb 0b3e 1d8f cebe
00000260: 1e84 b7bd 8e92 1f3d 816a 063e dea8 703e
00000270: 0e2f 183e 877a e9bd 9f18 213c 13c3 1fbe
00000280: f323 5dbe 74f6 943d c2eb 493e 4c80 8bbe
00000290: a287 153e ebb3 653e fec7 893d 27d4 b53c
000002a0: b75b 34be bf27 eebd 5f22 173e f68a 923e
000002b0: 01ef 1b3e 297d e63d 6a03 dcbd e710 4d3e
000002c0: 0769 113e 6baf 203e bfcc e8bc a38b f4bd
000002d0: 3e5c 94be f011 54be 9fe7 153d 57c3 d63c
000002e0: 90be 5a3e adae b73e 6f84 623e f8db cabe
000002f0: eda6 2bbe 38ba 563e 37c2 0dbf 44de 0d3e
00000300: ce4b 13be 5a88 c63c d099 abbd f59f 3e3e
00000310: a0c8 6d3e b854 063e 0200 bdbe 2f62 02be
00000320: 4498 56be 9178 363e 82ff e53d 29c2 de3d
00000330: 87ae 773e 91f7 a93d a35c 453e 5565 313d
00000340: 4461 31be 9987 133e 31e0 6fbd e41d e0bd
00000350: cf82 ab3d 7e25 e1bd 5392 c9bc 0cd4 92bb
00000360: 37f9 4d3e abc9 013e 79ea eabd 2367 91ba
00000370: 5895 3ebe 8669 8bbe 9b9f 493c bbe0 563d
00000380: 312f e03d 358e 1b3e fd6d ecbd e04a 15be
00000390: 9d46 98be 7363 a9bd 37ac 99be 9ffa 6abe
000003a0: e41e f63d 6535 4e3e 7c04 193e 0267 f23d
000003b0: c93b 483d 7103 5f3b e541 2e3e 2a17 ac3d
000003c0: 444d a23d 9d9a 6abe fa36 1ebd 8c06 c9bd
000003d0: 2aee 1dbe d66b 583e 0b10 683e 89a2 393e
000003e0: 5666 923d 0547 8dbe e9c0 1b3e 3c7e 923e
000003f0: 858f bcbd a2c7 ddbc d064 96be 3e8c 63bd

fc2.bias f4 [10]
-0.0642198 0.14255114 -0.023934457 -0.08690252 -0.07938967 0.118937254 -0.10205084 0.09401769
-0.14044653 -0.06648894
00000000: ac85 83bd edf8 113e 3212 c4bc f3f9 b1bd
00000010: 0d97 a2bd 6095 f33d 0800 d1bd 598c c03d
00000020: 37d1 0fbe 5a2b 88bd
