models/model_epoch5.pth (torch, 205023 bytes, 4 tensors)

fc1.weight f4 [64, 784]
000000 75 e9 91 3c fa 1c eb 3c a0 3a 99 bc 4a ec de 3c
       0.017811516 0.02870034 -0.018704712 0.02721228
000010 5e 82 e8 bc d3 46 9a bb 73 5d 1f 3c c3 7d 8e bc
       -0.028382476 -0.00470815 0.00972687 -0.017393952
000020 5d bc 08 bd 85 52 16 3c ea ed f8 bc b8 1c dd bc
       -0.033382762 0.009174948 -0.030386884 -0.026991233
000030 a4 c4 6c 3d a7 c0 11 3d 46 ce 64 3d 08 15 3a bc
       0.05780472 0.03558412 0.05586078 -0.011357553
000040 4a bd b6 bc 33 64 5a 3c ae aa a7 3c 78 3c ed 3b
       -0.022307057 0.013329553 0.020467129 0.0072398745
000050 6e 37 f8 3b c3 27 bf bc 6e d9 07 3c dc 8c 4f ba
       0.007574967 -0.02333439 0.008291585 -0.0007917413
000060 05 8a 96 3c b7 2c c7 ba 2e 69 8a bc 2c aa f0 3c
       0.01837636 -0.0015195821 -0.016895857 0.02937802
000070 ee e9 04 bb 38 bf e1 3b b7 ac a9 3c 81 55 de 3c
       -0.0020281035 0.00688925 0.02071224 0.02714038
000080 41 7b 8d 3c 8f d5 62 3d b2 79 d3 3d bd 3b d5 3d
       0.017270686 0.055379447 0.10325946 0.10411785
000090 9d cb c0 3d 8f 81 f6 3d 3a 34 e8 3d 6f 87 c2 3d
       0.09413836 0.1203643 0.113380864 0.09498488
0000a0 45 7b 8b 3d 9e e4 1d 3c 20 1a 90 bc f8 4d 10 3e
       0.06810621 0.009637026 -0.017590582 0.14092243
0000b0 43 cd 48 3e a6 67 02 3e 9a 66 a3 3d 52 27 23 3e
       0.19609551 0.12734851 0.07978554 0.15932968
0000c0 fe d1 0c 3e 47 b6 70 3d 8c 84 cd 3d 84 93 b4 3d
       0.1375198 0.058767583 0.10035047 0.08817199
0000d0 5e 19 f7 bc 8c 70 e9 bc 75 4f bf 3c de d0 0a 3d
       -0.030163463 -0.02849605 0.023353318 0.033890598
0000e0 43 f6 eb bc dc 65 e9 3a 4a 9a 89 3d b6 28 36 3d
       -0.02880395 0.0017806846 0.067188814 0.04447242
0000f0 c3 3f 73 3d 09 a0 ea 3d cb 36 c0 3d aa a5 37 3e
       0.05938698 0.114563055 0.09385451 0.1793429
000100 4e 9b 8f 3e 03 72 c5 3e 11 93 a4 3e ee 97 94 3e
       0.28048176 0.38563547 0.32143453 0.29022163
000110 25 a7 40 3e b3 06 0b 3e 68 84 d0 3d c4 4a 56 3e
       0.1881376 0.13576774 0.101815045 0.20926958
000120 7d dd 20 3e 27 3f fe 3d 89 e3 1a 3e 4d e6 c6 3d
       0.15709491 0.12414389 0.1512586 0.09711895
000130 6e 7d 1c 3e 64 82 1b 3e 50 c9 0b 3e 58 b3 26 3e
       0.15282223 0.15186459 0.13651013 0.16279352
000140 fa 1c 5e 3e f7 ec 04 3e a5 af 77 3b 2a a4 c9 bc
       0.21690741 0.1298102 0.0037793901 -0.024614412
000150 dc 5e 57 39 23 61 0b bd 73 ff 10 3e 98 ec bb 3d
       0.00020539336 -0.034028184 0.14159946 0.09175986
000160 eb c1 78 3d 2b d4 12 bc 4c fe 49 3d 9a d3 43 3c
       0.06073181 -0.008961718 0.049314782 0.011952305
000170 f7 60 ed 3c 1e 90 22 3e 8d 7f 47 3d 88 eb 04 3d
       0.0289769 0.15875289 0.048705626 0.032451183
000180 66 01 0e 3d 20 cb c5 3d df 08 32 bd fe 66 f4 3b
       0.034669302 0.09657884 -0.04346549 0.0074585667
000190 a6 31 92 3d 2f 09 8d bd 8e a6 f8 3b 69 fd c8 bc
       0.07138376 -0.06886517 0.0075882142 -0.024534898
0001a0 b3 9d 15 be 83 d6 52 3d 1d 1a a1 3d ae 18 2e 3e
       -0.14610939 0.051474106 0.07866309 0.17001602
0001b0 72 71 ac 3d 46 5f b6 3c 74 08 22 3d 93 7c cb bc
       0.084200755 0.022262227 0.039558843 -0.024839675
0001c0 fc 68 1c bc 01 df a6 bc 7e 95 4d bd b3 2f 0b be
       -0.009546515 -0.020370008 -0.050191395 -0.13592415
0001d0 1e cc 01 bd a0 46 98 3c d0 bb 92 3d c4 81 8c 3c
       -0.031688802 0.018588364 0.07164729 0.01715172
0001e0 e1 0d 91 3d 57 33 cb 3d 6d 88 a8 3d 4d 4b 08 3d
       0.07082725 0.09921902 0.08229146 0.033274937
0001f0 f2 78 56 3d e6 5b bc 3c fa 3e 38 3d 15 79 b5 3c
       0.052361436 0.02299304 0.044981934 0.022152463
000200 11 14 7d 3d ac 55 a5 bc 81 15 44 bc 4f e2 39 3d
       0.061786715 -0.020182453 -0.011968018 0.04538184
000210 38 d0 20 3c 55 63 42 bd 36 49 9b bd cf c3 d1 bb
       0.009815268 -0.04745801 -0.07582323 -0.006401516
000220 80 f5 e1 bd d9 2a 87 bd 03 b1 3e 3d 2e b3 17 3e
       -0.110331535 -0.065999694 0.04655553 0.14814445
000230 f0 50 01 3d f3 a8 a3 bc 76 de 8f 3d e5 a8 30 bd
       0.03157133 -0.019978022 0.07024853 -0.04312982
000240 46 30 10 3d b5 4d 10 3b 60 3e 7c bd 54 43 5e bd
       0.035202287 0.0022018973 -0.061582923 -0.054263428
000250 ac 37 cb bb bd fd 49 bc 69 1b 35 bb c2 bd c9 bc
       -0.006201705 -0.012328562 -0.0027634746 -0.024626616
000260 90 c7 47 3d a9 e3 0e bc 48 75 83 3d 23 69 83 3d
       0.048774302 -0.008721271 0.06418854 0.064165376
000270 29 b4 8d 3d cd a1 24 3d 49 b2 e1 bc d2 f1 8d 3c
       0.069191284 0.040193368 -0.027550833 0.017327223
000280 e1 6f cf 3b 9b 71 9a 3d 3e 51 3d 3d a7 6a 87 3d
       0.0063304757 0.075412 0.046220057 0.06612139
000290 d4 b7 c7 3d 07 36 a4 3c 47 da f1 3d 32 2b fe 3d
       0.09751859 0.020045293 0.11809211 0.124105826
0002a0 57 35 b6 bc cc 99 a1 3d 56 25 e7 bd 9e 15 cc bd
       -0.022242231 0.078906626 -0.11286418 -0.09965061
0002b0 a3 db 35 bd 92 ad cc bd d8 04 11 be 89 6b f4 bd
       -0.044398915 -0.099940434 -0.14162004 -0.11934573
0002c0 3a 4d fb bd 26 12 c9 bd 87 58 01 be 7d 2f e8 bd
       -0.12270589 -0.09817915 -0.12631427 -0.11337183
0002d0 14 e7 c3 bd 73 38 97 bd c8 2b 84 bd d1 7e 36 3d
       -0.09565559 -0.07383814 -0.06453663 0.044554535
0002e0 ca cd 01 3d a9 2e 2c bd 5b 81 c1 bd 9e 00 dd bc
       0.031690396 -0.042036686 -0.09448501 -0.026977833
0002f0 b8 b7 e1 bd 65 5c c6 bd ae 18 0d ba 07 4c 15 3d
       -0.1102137 -0.096855916 -0.00053824007 0.03644946
000300 27 37 09 3e 4c d0 51 3e 0e 64 77 3d 24 3d 17 3e
       0.13399945 0.20489615 0.060398154 0.14769417
000310 75 22 5c 3c ad d2 1e 3c 78 90 88 bd e4 d2 54 be
       0.01343595 0.009693784 -0.0666818 -0.20783573
000320 53 c2 16 be a8 55 2f be a3 c3 46 be c0 5d 75 bd
       -0.14722566 -0.17122519 -0.19410567 -0.05990386
000330 b1 51 b7 bd e5 bf b6 bd 71 c2 a4 bd 7b d8 d5 bd
       -0.08951128 -0.0892332 -0.08044899 -0.10441681
000340 05 19 ee bd f0 d8 93 bd 2c be 19 bd 75 b8 65 bd
       -0.11625866 -0.07219112 -0.037534878 -0.056084115
000350 4d 36 2a bd 08 87 5c bd a1 9d 87 bd 64 7b 9a bd
       -0.04155569 -0.053839713 -0.06621862 -0.07543066
000360 33 b3 e2 bd c9 08 b6 bc 2b d4 a7 bb 00 e6 74 bd
       -0.11069336 -0.022220986 -0.005121728 -0.059789658
000370 47 42 46 3c d6 6e 88 3d f7 e2 2f 3d 86 4e 0d 3e
       0.012100763 0.06661765 0.04294106 0.13799486
000380 5f 53 9a 3d ef 85 5e 3d 83 18 09 bd e0 ea ee bd
       0.07535433 0.054326948 -0.03347064 -0.116658926
000390 3a f1 fe bd 5a 9f 12 be 82 a9 0a be 8b 97 1e bd
       -0.12448354 -0.143186 -0.13541225 -0.03871874
0003a0 03 60 03 be 5a 61 18 bd a6 19 17 bd fd 1f a8 bd
       -0.12829594 -0.037202217 -0.036889695 -0.08209226
0003b0 d0 03 59 bd 33 00 c9 bc 4b 45 5c bd bc bf 8e bd
       -0.05298215 -0.024536228 -0.05377702 -0.06970164
0003c0 a6 4a d9 bc 1f 55 5d bd 70 10 26 be 29 f2 b8 bd
       -0.026524853 -0.054036256 -0.16217208 -0.090305634
0003d0 64 19 9b bd 47 cf d9 bd 10 5a 97 bd 41 f4 17 3c
       -0.07573202 -0.10635238 -0.07390225 0.009274543
0003e0 ba de af bd bd f1 d4 bd 47 b6 1c 3d 77 a6 eb 3d
       -0.085874036 -0.103976704 0.03825977 0.1150636
0003f0 66 4f 1e 3d 15 58 b6 bd 6c 6e 8d bd eb 26 2b 3c
       0.03864994 -0.08903519 -0.06905827 0.0104462905

fc1.bias f4 [64]
000000 ea 59 95 3c cd 84 92 3d 23 2f bc be 7c 3d e4 3d
       0.01823135 0.07154236 -0.36754712 0.1114454
000010 50 92 a9 bc 50 b9 36 be 29 02 35 3d e1 a0 9a 3e
       -0.02069965 -0.17844129 0.044191513 0.30200866
000020 b5 a4 b3 3d 50 32 93 be 1f cb c8 3d b8 37 31 be
       0.0877165 -0.28749323 0.09804367 -0.17306411
000030 82 50 96 bd 5c 53 ae bd 1d 6f 10 be a3 9c 29 be
       -0.073395744 -0.08511993 -0.14104886 -0.16563658
000040 8c 1d 84 bd cb 88 b7 3d f4 e9 73 3e 62 af fb 3d
       -0.06450948 0.08961638 0.23819715 0.12289311
000050 f7 3f 3d be 53 83 fe bd b3 82 59 3e 44 dc 9f bd
       -0.18481432 -0.12427392 0.21241264 -0.07805684
000060 fd 66 43 3e 25 57 2b 3e 59 9e 64 be 7f c6 b5 3e
       0.19082256 0.16732462 -0.2232603 0.35503003
000070 21 bc cd bd cb eb 9e 3d 39 d0 93 3e 40 19 6d be
       -0.10045648 0.07759818 0.288698 -0.23154163
000080 df 06 0e be 05 79 cc bc 5f 8e f6 3d 47 88 e1 3d
       -0.13869809 -0.02496005 0.12038874 0.11012321
000090 90 3c 46 be 95 96 62 3e 9d 3f b6 3e d1 0c 7d be
       -0.1935904 0.22127755 0.35595408 -0.2471192
0000a0 fa cd 95 3d 31 8c ae 3d 13 24 85 bd 92 80 04 3e
       0.073146775 0.08522833 -0.06501021 0.1293967
0000b0 12 2b 47 3d af 00 71 be a4 ae f8 bd 81 e0 2a be
       0.04862506 -0.23535417 -0.12142685 -0.16687204
0000c0 43 9e 84 be 25 f8 44 3c 45 75 55 be 8f cb 88 bd
       -0.25901994 0.012022053 -0.20845516 -0.06679451
0000d0 c1 9f 7c 3d 12 6c 99 bd 75 37 6f 3e e2 fd f9 3c
       0.06167579 -0.07491316 0.23360999 0.030516569
0000e0 c1 db 1b 3e 7b bf b3 3c ef 84 ef bd cd 31 13 3e
       0.15220548 0.021941891 -0.11695277 0.14374466
0000f0 1a 10 31 bc 6b 5d 4c 3d 44 58 61 3e fc bf 01 be
       -0.010807062 0.049893778 0.22006327 -0.12670892

fc2.weight f4 [10, 64]
000000 cf 16 5e be e5 d7 c8 3c 13 a5 39 3e ad e9 fa 3d
       -0.21688388 0.024517009 0.18129377 0.12251601
000010 6f 37 87 be f3 6e 25 3e 46 30 3d bd dd 84 d6 be
       -0.2640948 0.16155605 -0.046188615 -0.41898242
000020 71 9e 78 bd 6a d5 98 3d f0 c2 a8 be 00 10 4d 3e
       -0.060697976 0.074625805 -0.32961226 0.20025635
000030 8e b8 82 3d 88 6d 7d be 48 69 08 be 21 f7 74 be
       0.06382857 -0.24748814 -0.13321412 -0.23922397
000040 f7 24 e8 3d 57 64 89 bd 45 f8 e2 3d 16 93 a6 3e
       0.113351755 -0.067085914 0.1108251 0.32534093
000050 8a dd 58 3d ab bc a4 3e 5c 17 04 3e 9a 5a 73 3d
       0.05294565 0.32175192 0.12899536 0.059412576
000060 d9 76 0c bf 74 e7 15 bf 6b 20 2a 3e d0 c7 64 be
       -0.5486885 -0.58556294 0.16613929 -0.22341847
000070 7c 15 af 3d 65 41 04 3e ad f5 90 3e be 8f 56 3e
       0.0854902 0.12915571 0.28312436 0.20953271
000080 35 7f 33 bf cc 06 34 3e 68 d3 32 be 43 87 9b 3e
       -0.7011598 0.17580718 -0.17463458 0.30376634
000090 58 f6 15 3e e3 4e 9f 3d b0 68 11 bd 17 a3 2f 3e
       0.14644754 0.07778718 -0.03550023 0.17152058
0000a0 02 34 8f be ee d9 12 be e0 2a d7 3d fa dd c9 be
       -0.27969366 -0.14340946 0.10506225 -0.39427167
0000b0 1c b3 28 3d 7f 10 16 be 5c 6f 3f bc c6 e7 8a 3e
       0.041186437 -0.1465473 -0.011684265 0.27129954
0000c0 41 fa 88 3e 04 f2 36 3e b8 3e a8 3c 88 88 a9 3d
       0.2675343 0.17865759 0.02053772 0.082779944
0000d0 c6 61 58 be 65 2b 1b be 3c 28 c6 bc 10 e3 1a 3d
       -0.21131048 -0.15153272 -0.024189107 0.0378142
0000e0 c4 20 49 bb 65 38 88 be 68 84 dc 3d 7f c0 cf 3d
       -0.0030689696 -0.26605526 0.10767442 0.101441376
0000f0 85 e8 8d 3c 36 37 46 be e5 17 75 be c9 4e 8a be
       0.017322788 -0.19356999 -0.23934896 -0.27013233
000100 a3 bc 31 3e ae 1e 8d 3e de ee b2 be d3 df 9a bd
       0.17357115 0.2756247 -0.34947866 -0.07562222
000110 8e 7c b6 3e c0 ab a9 be 41 26 f6 bd 77 00 9e 3e
       0.35641903 -0.33138847 -0.12019015 0.3085973
000120 84 38 f9 3d 4d 9e d5 be 32 1c 9f be c6 4e d5 be
       0.121689826 -0.41722336 -0.310762 -0.41661662
000130 21 9c 1b 3e d0 f3 03 be 8e b7 44 be ce c3 3b be
       0.15196277 -0.12885976 -0.19210646 -0.18336412
000140 74 44 ab bd d6 92 1a 3e 60 6c a5 be 88 6b ae 3d
       -0.08362666 0.15095076 -0.32309246 0.08516604
000150 3e 7b 5d 3d 22 58 36 3e f1 0c 8e 3e 1d 03 47 3d
       0.05407261 0.17807057 0.27744249 0.048586953
000160 3e 35 01 3e 81 9e 83 3d 17 3a 07 3d 65 ac 67 3e
       0.12617967 0.064267166 0.033014383 0.22624357
000170 37 9f 7d be e5 27 04 be 47 79 b7 3e 9e 0e 56 be
       -0.24767767 -0.12905844 0.35834715 -0.20904014
000180 c2 43 4f 3d 5d 95 3e bd 94 09 be 3e c7 bc 88 be
       0.05060173 -0.046529163 0.37116683 -0.26706526
000190 7d e1 50 3e 78 fd 62 be e0 a1 a8 bd 68 26 bd be
       0.20398517 -0.22167003 -0.08234 -0.36943364
0001a0 d7 47 6b 3d d0 9d d1 be e4 12 21 3e 05 c1 bc 3e
       0.05744156 -0.40940714 0.15729862 0.36866012
0001b0 f4 88 f9 be 8a 9f cc bd 93 5b c2 3d b1 af bd 3e
       -0.487373 -0.09991367 0.09490123 0.37048104
0001c0 40 21 b5 be a3 8a 4e 3d d5 83 fd be 13 b5 af bc
       -0.3537693 0.050425183 -0.49514642 -0.021448648
0001d0 65 b1 43 3e 5e 0f 9b 3e 20 c8 38 3e 8c 93 99 bd
       0.1911064 0.30285162 0.18045092 -0.074988455
0001e0 0c 80 9e 3e fe bf d1 3d b3 c4 cf be ca 48 ae 3d
       0.30957067 0.10241698 -0.40579757 0.08509977
0001f0 cb 98 d7 be c0 11 09 3e 05 e8 49 3e 45 c1 02 3e
       -0.4210876 0.13385677 0.19717415 0.12769039
000200 a9 27 90 3e ae 56 60 3e 68 7f dc bd 31 f0 b3 3e
       0.28155258 0.21908066 -0.10766488 0.3514419
000210 ef c0 a2 3e 8d 0f f5 bc 6a 8e a7 be a7 ba 03 be
       0.31787822 -0.029914642 -0.3272584 -0.12864171
000220 03 6c f1 bd 7e e6 33 be 4b 5d 84 be 0c ea 14 3e
       -0.1178818 -0.17568395 -0.25852427 0.14542407
000230 16 b9 b1 3d 0b 32 2b 3e 6a 43 60 3d d7 86 15 3e
       0.086778805 0.16718309 0.05475179 0.14602219
000240 3a c0 08 be a5 32 a3 3e 20 02 ba bc 3c be 20 3e
       -0.13354579 0.31874576 -0.022706091 0.15697569
000250 eb 70 5d bf e4 b3 01 3e 19 06 28 3e 29 0a 23 bf
       -0.86500424 0.12666279 0.16408576 -0.6368738
000260 0b 03 a7 bd 13 1a 93 3d 29 c6 4c 3e bc ee 87 3e
       -0.08154877 0.07182708 0.19997467 0.26549327
000270 eb ed f2 3d ac a9 55 bd 30 a2 bd bd 83 ba 12 be
       0.118617855 -0.052163765 -0.092594504 -0.14328961
000280 ec 11 6a be 32 92 a9 3d 19 06 a0 3e a9 46 f7 be
       -0.22858399 0.08279838 0.31254652 -0.48296097
000290 e2 3a 81 3e 76 b3 62 3e 36 71 46 3e 73 08 1f bc
       0.25240237 0.22138771 0.19379124 -0.009706604
0002a0 59 1d 1d be 61 35 2b be b0 65 4b 3e 77 d6 cd 3e
       -0.15343226 -0.16719581 0.1986301 0.40202686
0002b0 dd ed 67 3e db fc bc 3d 77 47 e3 bd 29 fd 84 3e
       0.22649331 0.09227916 -0.11097615 0.25974396
0002c0 68 97 5b 3e 5a 76 f5 3d 38 c3 45 bd fa 59 76 bd
       0.21444476 0.119854644 -0.04828188 -0.060144402
0002d0 94 d5 f3 be 52 41 57 be 58 9e 99 3d cf 2b ce bc
       -0.47623885 -0.21021011 0.07500905 -0.025167374
0002e0 33 0c 9a 3e b7 57 0f 3f fb f0 9a 3e 9d af 0e bf
       0.30087432 0.5599322 0.30261979 -0.55736715
0002f0 5a b4 05 be 5c 13 81 3e 6c fe 37 bf e7 6b fa 3d
       -0.1305708 0.25210083 -0.7187259 0.12227612
000300 4f 80 6e be 74 c9 ac 3d 02 16 a2 bd 57 11 54 3e
       -0.23291133 0.08436862 -0.07914354 0.2070974
000310 97 ff ae 3e 57 02 cd 3d fd 17 0d bf c5 87 9e be
       0.34179375 0.10010212 -0.5511473 -0.3096296
000320 71 ee af be d1 ec 3b 3e 5b 33 0c 3e 6b 71 c2 3d
       -0.34361604 0.18352057 0.13691466 0.09494289
000330 e2 f3 b5 3e 7d 4c d5 3d 4e 30 52 3e 54 b0 82 3d
       0.3553763 0.104149796 0.2052624 0.06381288
000340 43 81 6c be f8 1b 00 3e 87 5f 6c bd 60 cb 21 be
       -0.23096184 0.12510669 -0.05770829 -0.15800238
000350 5c fd 02 3e 1c 93 0f be 9d e9 10 bd 99 85 ca 3d
       0.12791961 -0.14020962 -0.03537904 0.09888763
000360 d0 39 86 3e 3c 75 23 3e 6d 81 a5 bd 55 57 e7 bc
       0.26215982 0.1596269 -0.08081327 -0.028239885
000370 6d 01 55 be 8f e1 fa be 06 1b 6c 3d c9 84 45 3d
       -0.20801325 -0.49000213 0.05764296 0.048222337
000380 fc d1 0c 3e 26 da 23 3e d7 bd a5 be 98 1f 4a be
       0.13751978 0.16001186 -0.323714 -0.19738615
000390 33 d0 ef be f8 83 ce bd cc d7 fe be d3 01 89 be
       -0.4683853 -0.10083765 -0.49774015 -0.26759204
0003a0 4d f5 ff 3d c9 08 d3 3e c5 ad 2e 3e 71 96 d9 3d
       0.12497959 0.4121764 0.17058475 0.106243975
0003b0 2b 0e 22 3d 3d 74 a1 3c 4b 1c 37 3e 40 83 ca 3d
       0.039564293 0.019708747 0.17881887 0.09888315
0003c0 25 b9 c3 3d 54 bb 9f be 53 08 65 bc df 3f b3 bd
       0.09556798 -0.31197608 -0.013979035 -0.08752417
0003d0 aa 69 d9 bd 7b 5f b3 3e 5e fb ae 3e 0b 62 92 3e
       -0.10615857 0.35033783 0.34176153 0.28590426
0003e0 c2 b3 33 3d 9f 11 96 be 46 2d 1e 3e 16 57 dd 3e
       0.043872602 -0.2931032 0.15446958 0.43230504
0003f0 13 6c 84 bd e8 40 8f 3d a1 fa de be e0 3e ce bc
       -0.06465926 0.06994802 -0.4355059 -0.025176466

fc2.bias f4 [10]
000000 d4 b9 25 be a7 df 24 3e c3 fc 36 3c 49 24 d5 bd
       -0.16184169 0.16100942 0.0111686615 -0.104073115
000010 9a e7 ca bd bf e1 53 3e a2 11 0b be 0e 0c 0d 3e
       -0.09907456 0.20691584 -0.13580945 0.1377413
000020 b6 10 2f be b7 ae a3 bd
       -0.17096218 -0.079923086
