models/model_epoch14.pth (torch, 205023 bytes, 4 tensors)

fc1.weight f4 [64, 784]
00000000: 75e9 913c fa1c eb3c a03a 99bc 4aec de3c
00000010: 5e82 e8bc d346 9abb 735d 1f3c c37d 8ebc
00000020: 5dbc 08bd 8552 163c eaed f8bc b81c ddbc
00000030: 752e 3e3d 0f56 4d3d bfc5 e03d 76c7 9b3c
00000040: 4abd b6bc 3364 5a3c aeaa a73c 783c ed3b
00000050: 6e37 f83b c327 bfbc 6ed9 073c dc8c 4fba
00000060: 058a 963c b72c c7ba 2e69 8abc 2caa f03c
00000070: eee9 04bb 38bf e13b b7ac a93c 8155 de3c
00000080: e617 9e3c 587a 6c3d f708 d53d 92f8 d03d
00000090: 4e98 c33d 37a8 073e bfcb 423e 9784 663e
000000a0: a1ac 3a3e 222d 94bc ea9c 06be 647b a43d
000000b0: 6ff8 843e cc12 613e 0c49 243e 40cb 473e
000000c0: 1728 bf3d 92b4 11bd 8a09 923d 2fe2 b63d
000000d0: 5e19 f7bc 8c70 e9bc 754f bf3c ded0 0a3d
000000e0: 43f6 ebbc dc65 e93a d7e9 993d d9fe 68bd
000000f0: 118b 1b3d 4fbb 8f3e 9e68 663e faea 893e
00000100: d169 f73e 08ab 1a3f 3fe5 033f 7175 d13e
00000110: 5a3c 3e3e 1f65 753b c30d 333e c44d a23e
00000120: fa19 5c3e 47ed 393e 756c 1e3e c5b8 54bd
00000130: 336b 983d 2ee5 933e a2d4 6f3e 874e 8b3e
00000140: 9113 9c3e 21ed 1a3e a5af 773b 2aa4 c9bc
00000150: dc5e 5739 2361 0bbd d6d5 903e 6a4e 943d
00000160: 7aab 293e 1ab4 733d 2725 853e c3a3 9a3d
00000170: b114 03bd 46b1 2d3e 2f91 b2bd 0b31 eb3c
00000180: c52d 153e 7b3c 013e c5df 87bd 7107 5d3d
00000190: c71d 273e 814c d93b fcd4 d13d d6d8 ca3d
000001a0: d7cd c0be e174 143e 1dcc bb3e 2034 d93e
000001b0: f3da 1e3e 6f19 aabd 3f87 ab3d 937c cbbc
000001c0: fc68 1cbc 50ae fabc 9d1b 543d 0f89 9fbe
000001d0: 298e e8bd 54bb 463e 1047 aa3e a050 323e
000001e0: 55a8 4a3e 0df9 1b3e 3f2b df3d bfe5 b53d
000001f0: d5f5 d73d e0d9 39bc b13d 45bc 2010 a9bd
00000200: 7dc7 a63c 47ed 1bbe f746 37be 548f 783d
00000210: 4db5 08bc ef78 01be e6db a0bd fc40 793e
00000220: d345 c2bc 2195 8abd 5662 c53b ff6d 993e
00000230: f050 013d f3a8 a3bc 9b20 703e 15cd 93bc
00000240: afdf 293e 679a 723e a6a7 b43d 8b17 8c3c
00000250: 25f2 393e ed39 973d 8bce ac3d a266 663c
00000260: d6ed f73d 6079 153d ce66 163e f8a4 353d
00000270: 6e01 133e b822 e13c d0c2 07be be0f a0bb
00000280: 7467 d2bc 379b 133e 0d98 603d 0b20 1d3e
00000290: eb1d 393e b30a b73d cc90 993e 2b4f 8e3e
000002a0: 5735 b6bc 120b 4a3e c73c 1bbe dba9 12be
000002b0: 7c26 60bc 391c cebd d5aa 20be dee0 8fbd
000002c0: 8cb4 43bd 0bcd 9abd 2ae0 11be a9e5 2bbe
000002d0: e61c 08be ae2e 14be 4697 6bbd 0359 583e
000002e0: 1553 393e 9292 37bd 91fb 0fbe eef0 9e3c
000002f0: 7217 4fbe 7815 93be dff1 8bbc 5425 48bd
00000300: e21d f03d e6bd c73e 1777 2d3e 629a 893e
00000310: e91b 5c3c 2623 b23d 28da 1fbd c8ce d4be
00000320: e173 ecbd fe1d 25be 681b a0be e607 2dbc
00000330: 2817 0cbe 3b19 0dbe 7c95 09be 832a 63be
00000340: 3d04 55be 4c1f dcbd e9e6 693d 6d45 8a3d
00000350: 1e31 823d 090b e23b cb12 11be dd2c 4bbe
00000360: c463 42be 89e6 d2bd 9471 0cbd fb4f 4abe
00000370: 7fc4 a9bc 9909 a43e be6e a73d 3192 803e
00000380: 3898 a73d 006b 613e e397 b2bd 6e98 8ebe
00000390: bac2 78bd 0131 06be fc7f 5bbe 985c 90bd
000003a0: f095 91be c3aa acbd 1bb2 aabd be62 33be
000003b0: 12a9 edbd 8658 d7bc 001a ccbb 768b f43c
000003c0: 3840 213d b50a 13bd 9901 76be 446d 4abe
000003d0: 0080 04be cb7b 93be 2a36 63be c182 9c3d
000003e0: 6d20 3fbe 1220 22be 2c34 09bd 8940 163e
000003f0: 7ccd 2c3d 03f8 32be 100f a33c 61f0 183d
0.017811516 0.02870034 -0.018704712 0.02721228 -0.028382476 -0.00470815 0.00972687 -0.017393952
-0.033382762 0.009174948 -0.030386884 -0.026991233 0.046431024 0.0501309 0.10975217 0.019016009
-0.022307057 0.013329553 0.020467129 0.0072398745 0.007574967 -0.02333439 0.008291585 -0.0007917413
0.01837636 -0.0015195821 -0.016895857 0.02937802 -0.0020281035 0.00688925 0.02071224 0.02714038
0.019298505 0.057733864 0.104021005 0.10203661 0.09550534 0.13247763 0.19023035 0.22511517
0.18229915 -0.018087927 -0.13145795 0.080313474 0.2597079 0.21979827 0.1604349 0.19511127
0.093338184 -0.035572596 0.07130726 0.0892986 -0.030163463 -0.02849605 0.023353318 0.033890598
-0.02880395 0.0017806846 0.075153045 -0.056883667 0.03797442 0.28072593 0.22500846 0.26937085
0.4832292 0.6041722 0.51521677 0.40909913 0.1857771 0.0037444306 0.17485718 0.31699955
0.21494284 0.1815692 0.1547106 -0.051934022 0.07442322 0.28885788 0.23420957 0.2720835
0.30483678 0.1512952 0.0037793901 -0.024614412 0.00020539336 -0.034028184 0.28288144 0.07241519
0.1656932 0.05949793 0.26004907 0.07550766 -0.032002155 0.16962156 -0.08719098 0.028709909
0.14568241 0.12620728 -0.066344775 0.053962175 0.16319953 0.0066314344 0.10245702 0.099046394
-0.37657043 0.14497711 0.36679164 0.4242258 0.1551321 -0.08305632 0.083754055 -0.024839675
-0.009546515 -0.030600697 0.051784147 -0.31159255 -0.1135524 0.19407398 0.3325734 0.17413568
0.19790776 0.15231724 0.108969204 0.08881711 0.105449356 -0.011343449 -0.012038634 -0.08255029
0.020358795 -0.15227233 -0.17898165 0.060683563 -0.008344007 -0.12643789 -0.07854442 0.24341196
-0.023714935 -0.06766725 0.0060236854 0.29966733 0.03157133 -0.019978022 0.23449938 -0.018042127
0.16589235 0.23691712 0.08821039 0.01710107 0.18158777 0.07384095 0.084378324 0.0140625555
0.121059105 0.036492705 0.14687654 0.04434678 0.14356014 0.027482376 -0.13257909 -0.004884689
-0.025684096 0.14414679 0.054832507 0.15344255 0.18077819 0.089375876 0.29993284 0.27794775
-0.022242231 0.19730785 -0.15159903 -0.14322607 -0.01368105 -0.10063977 -0.15690167 -0.07025312
-0.047779605 -0.0755864 -0.14245668 -0.16786827 -0.13292274 -0.14470932 -0.057517312 0.21127705
0.180981 -0.044817515 -0.14060809 0.019401994 -0.20223787 -0.28727317 -0.017083107 -0.048863724
0.1172445 0.3901207 0.1693996 0.26875597 0.013434389 0.0869811 -0.03902641 -0.41564012
-0.1154554 -0.16124722 -0.3127091 -0.010560965 -0.13680708 -0.13779156 -0.1343593 -0.22184186
-0.20802398 -0.10748157 0.05710498 0.06751523 0.063570246 0.006898288 -0.14167325 -0.19841333
-0.1898337 -0.10297877 -0.034288004 -0.19757073 -0.02072358 0.32038572 0.08175419 0.25111535
0.0818333 0.22013474 -0.08720376 -0.2785067 -0.06073258 -0.13104631 -0.21435541 -0.07048911
-0.28434706 -0.08431008 -0.08334752 -0.17518136 -0.11604513 -0.026287328 -0.0062286854 0.029851656
0.039367884 -0.035898883 -0.24024047 -0.19768244 -0.12939453 -0.28805384 -0.2218863 0.07642127
-0.18664713 -0.15832546 -0.03349702 0.14673056 0.042188153 -0.17477421 0.019904643 0.03733862

fc1.bias f4 [64]
00000000: 841a 793d ba06 903d ecaf ebbe 19f6 2f3d
00000010: ca5c ecbd e68b 4dbe e8ed 203e c76a 8a3e
00000020: 7137 b83d a281 c6be 1934 c23d 06c2 18be
00000030: 914a 0bbe 2daa d73c 2bfd ddbd 1129 d5bd
00000040: bcf7 00be 593c 033e cedd ae3e ffdb 433e
00000050: 872c 8cbe 3f59 1ebe 29b8 c43e 4446 87bd
00000060: c1f2 8e3e 386b 583e 75f3 adbe 47d6 ee3e
00000070: fec6 9abd 129c 4f3d af45 993e 3541 95be
00000080: 644e 69be c6c9 14be 0f3f 473e 1346 4f3e
00000090: 941c 46be f56a 0e3e 2f3f b73e 6fe7 92be
000000a0: 50fd f13d 3f5d 253e 0e16 e6bd fbc5 5b3e
000000b0: 49b9 b93d ce9f 5abe 04c2 42be 901e 66be
000000c0: cb82 65be 5e7c b93a cefe 42be 92a4 adbd
000000d0: e5d6 883a 8593 39be c019 883e d5f9 f1bc
000000e0: 0c5a db3d 8810 993b 22b7 ddbd 0351 213e
000000f0: c38e a43d e209 a7bc 77eb 753e 56ce babd
0.060816303 0.07032533 -0.46032655 0.042959306 -0.115411356 -0.20072898 0.15715754 0.2703459
0.089949496 -0.38770777 0.09482593 -0.14917764 -0.13602664 0.026326263 -0.108393036 -0.104082234
-0.12594503 0.1281599 0.341536 0.1912689 -0.27377722 -0.15463732 0.38421753 -0.06605199
0.27919582 0.2113465 -0.33974805 0.46647856 -0.07557486 0.05068595 0.29935977 -0.29151312
-0.2278381 -0.14530095 0.19457649 0.20241575 -0.19346839 0.13907988 0.35790393 -0.28692195
0.11815894 0.16148852 -0.11234675 0.21462242 0.090685435 -0.21350023 -0.19019324 -0.22472596
-0.22413175 0.0014151444 -0.19042513 -0.08478655 0.001044002 -0.1812268 0.26582146 -0.029538075
0.107105345 0.00467116 -0.108259454 0.1575356 0.08035042 -0.020390455 0.24015604 -0.09121387

fc2.weight f4 [10, 64]
00000000: 1b54 a4be c636 f13d dc75 543e f617 b73d
00000010: 7a12 c9be ce9e 263e a1cf 9abd 79d4 1ebf
00000020: 63bf 1abe 3b88 723e c2f3 1cbf f255 803e
00000030: 70f3 3b3e 8749 e9be 364e 17be eccb ebbe
00000040: 62d1 023e de5f 75be d790 713e f2e7 073f
00000050: 044c 073e de8a f63e 2f8f b93d ba07 653c
00000060: c1ac 93bf e43a 87bf 48e4 963e 8459 89be
00000070: d18f 1cbd e8a4 9b3e 0277 013f 101e 943e
00000080: 89a2 90bf 5b37 163e d981 0bbe 2cfa 913e
00000090: 1741 7e3e c664 643d 8106 26be 51dc bb3e
000000a0: a460 1cbf 95d7 a7be fe78 2b3e 673c 03bf
000000b0: 1875 433c f4a5 11be cee0 02bd fce0 cb3e
000000c0: 27ea cf3e 82bc dd3d 5332 d7bc 2673 9fbc
000000d0: 98fe 88be e9ce acbe b2cc 1cbc c1ba 8f3d
000000e0: fce6 bebd 5b05 14bf bcfc c73d b719 c13d
000000f0: 8c79 5dbc d978 6ebe dff7 bdbe 0e80 e1be
00000100: 33b8 3b3e 4b9a 9c3e bddd 1dbf fceb 00be
00000110: 55b5 da3e 94f6 11bf 9210 1dbe f2cc 423f
00000120: 2d27 373e 2384 2cbf ae56 a6be ddee febe
00000130: ddbb 413e 9c98 8cbe 8225 21be 25fa 8bbe
00000140: 562a 72bc 164f 213e 5fe9 bbbe f204 793e
00000150: bbb4 2ebc 7eb9 303e 5d55 e13e 8082 adbd
00000160: 5d6b 583e 578b a53d c17b 213d 7c88 9b3e
00000170: 7d6d fbbe 2684 b13d eac3 223f e937 72be
00000180: a4d9 a13d c748 d3bc d4f5 423f 5d77 8bbe
00000190: 1afe 703e 7b4e 3dbe e172 8e3d 3122 2bbf
000001a0: a452 803d 4e82 1cbf 1b4a e33d 0db4 393f
000001b0: 9596 49bf 71d0 b7bd a9e8 db3d 75c7 023f
000001c0: 77c0 1abf 7b52 443e 048d 76bf 4d04 85bd
000001d0: 4e31 723e f2fc 043f 320d 953e 2df9 2cbe
000001e0: 58e9 e83e ca36 0a3e 1ce7 09bf b489 e3bd
000001f0: cfae fabe 1d5c 053e 90bd 883e a533 303e
00000200: 55c2 ac3e 0d2c ac3e e310 53be a84c ec3e
00000210: 31f2 063f 1732 91bd f0fe 9abe 4174 36be
00000220: 8807 54be ea7d 5ebe 9075 e3be c22d 523e
00000230: a550 e63d 8560 8c3e 3c2a 1f3d 9dff 203e
00000240: 407a 1abe edfa fa3e 2daa 6bbd 90c9 933e
00000250: 571a a7bf f94f 6d3e ef65 4f3e e599 38bf
00000260: ea6f 67bd cbc1 9e3d 3b4b be3e a28b b73e
00000270: dc07 c03d 2d41 23bd 5bd1 8fbd dc86 81be
00000280: 89b9 5cbe 17fd 633d 9c93 b73e 7ea0 1fbf
00000290: 8a5a b33e 50be 553e 6ed0 c73e b6b4 483d
000002a0: cdfe 66be 2655 58be 17f2 583e 0b79 d93e
000002b0: f04f f73e 3899 833d 3c71 3dbe 9a7d ba3e
000002c0: b027 c63e 8b36 1a3e e76f 2b3a 1e07 20bc
000002d0: ff83 23bf b899 9cbe 0674 8f3d b0e5 d7bd
000002e0: 6be4 a13e c2db 2c3f edc6 b13e dd73 48bf
000002f0: 9bbf f0bd 820e a63e c470 66bf 1659 353e
00000300: b244 7fbe a1b8 873d e6ad 92bc 81f6 ae3e
00000310: 4595 c23e 0c6b bc3d b964 4ebf 6989 1dbf
00000320: b7ff 1fbf 16ca 703e 30ed 763e ff75 7b3d
00000330: b880 0a3f a7ef af3e 8448 403e 468b dd3d
00000340: 0950 8cbe 8b4f 883e 7f26 20bd 31b7 78be
00000350: 4bcd 913e 01c5 5dbe 25f7 9ebd 8289 743e
00000360: 8d4a bf3e 7b1c 1a3e e7d1 4bbd d54f 58be
00000370: 49a1 21bf d944 68bf 4016 103d 8692 fa3c
00000380: 42a7 2b3e 44eb 303e e766 1abf 21d7 4cbe
00000390: d86b 3fbf 4960 71be 9df0 34bf 830e 92be
000003a0: 5d70 503e 1634 203f 9f7c 5e3e 39f0 ce3d
000003b0: 3b6a b43b 1899 403d 9fe6 803e 8072 bb3d
000003c0: efd4 013e c768 01bf 500c dabd a92e a0bd
000003d0: c7b2 2abe d2d5 023f e99a 0f3f 88ec cf3e
000003e0: 8dcd 36bd 51f4 7dbe 0e89 533e 7a47 153f
000003f0: 8a3c 86bb 0f4e ad3e 64ff 12bf 596a 18bc
-0.32095417 0.11778025 0.20748085 0.08940117 -0.3927191 0.16271517 -0.07559133 -0.6204296
-0.1511207 0.2368478 -0.61309445 0.2506557 0.18354583 -0.4556391 -0.14775929 -0.46054018
0.12775186 -0.23962352 0.23590408 0.53088295 0.13212591 0.48152822 0.09060513 0.013978893
-1.1537095 -1.0564847 0.2947104 -0.26826108 -0.03822309 0.3039925 0.50572217 0.28929186
-1.1299602 0.14669554 -0.13623752 0.28511178 0.24829517 0.055760168 -0.16213419 0.36691526
-0.6108496 -0.32781664 0.16745374 -0.5126404 0.011929773 -0.14223462 -0.03195267 0.39820087
0.40608332 0.10826971 -0.026269114 -0.019464087 -0.2675674 -0.3375161 -0.009570288 0.07018042
-0.093214005 -0.5782067 0.09765002 0.09428733 -0.013517749 -0.23288287 -0.37103173 -0.4404301
0.18331985 0.30586466 -0.6166647 -0.12590021 0.4271647 -0.57016873 -0.15338352 0.7609397
0.17886038 -0.67389125 -0.32488006 -0.49791613 0.1891932 -0.27460182 -0.15736964 -0.27339283
-0.0147806015 0.15752825 -0.36701486 0.24318293 -0.010663207 0.1725826 0.4401044 -0.084721565
0.21134706 0.080832176 0.03942466 0.30377567 -0.4910697 0.086677834 0.6358019 -0.2365414
0.0790284 -0.025791539 0.76156354 -0.27239504 0.23534432 -0.18486969 0.06955505 -0.66849047
0.062657624 -0.6113633 0.11098119 0.7254036 -0.78745395 -0.08975304 0.10737736 0.510856
-0.6044993 0.19172089 -0.9630892 -0.06494961 0.23651621 0.51948464 0.2911163 -0.16891928
0.45490527 0.13497463 -0.5386827 -0.11110249 -0.48961493 0.1302342 0.26707125 0.17207201
0.33742014 0.33627358 -0.2061191 0.46152234 0.52713305 -0.07089632 -0.30272627 -0.17817785
-0.20705998 -0.2172772 -0.4442563 0.20525268 0.112458505 0.2741739 0.038858637 0.15722509
-0.15085697 0.49019566 -0.05753534 0.28864717 -1.3054913 0.23175038 0.20253728 -0.72109824
-0.056503214 0.07751807 0.3716677 0.3584872 0.09376499 -0.03985708 -0.07022353 -0.25298202
-0.21555151 0.055661287 0.35854805 -0.62354267 0.35030013 0.2087338 0.39026207 0.049000464
-0.22558136 -0.21126232 0.211861 0.4247516 0.48303175 0.064257085 -0.18500227 0.3642395
0.38702154 0.15059869 0.0006539807 -0.009767322 -0.63873285 -0.30586028 0.070045516 -0.10541856
0.31619582 0.67522824 0.3472208 -0.78301793 -0.11755296 0.32432944 -0.90015817 0.17709765
-0.24928549 0.06627012 -0.017905187 0.34172443 0.3800451 0.09200105 -0.8062244 -0.61537796
-0.62499565 0.2351459 0.24113917 0.061391827 0.5410266 0.34362528 0.18777663 0.1081758
-0.27404812 0.26623186 -0.039099213 -0.24288632 0.2847694 -0.21657182 -0.07761983 0.2388058
0.37361565 0.15049927 -0.049760725 -0.21124204 -0.63136727 -0.90730053 0.03517747 0.030587446
0.16763023 0.17277247 -0.60313267 -0.2000394 -0.7477393 -0.23571886 -0.70679647 -0.28526697
0.20355363 0.62579477 0.21727227 0.101044126 0.0055058277 0.047021 0.2517595 0.091526985
0.12678884 -0.505505 -0.1064688 -0.078214 -0.1666976 0.51107514 0.5609575 0.40610147
-0.044629622 -0.2480023 0.20657751 0.5831219 -0.0040965723 0.33848616 -0.57420945 -0.009302699

fc2.bias f4 [10]
00000000: f9f3 a3be e30a 153e a873 233d 65e3 f7bd
00000010: 9ae8 08be e832 873e 1cbb 51be 4c52 0b3e
00000020: 41a6 b6bd c45d 36bd
-0.32022074 0.14554934 0.03990522 -0.12103919 -0.1336998 0.26406026 -0.20481533 0.13605613
-0.08918429 -0.044523016
