models/model_epoch10.pth (torch, 205023 bytes, 4 tensors)

fc1.weight f4 [64, 784]
000000 75 e9 91 3c fa 1c eb 3c a0 3a 99 bc 4a ec de 3c
       0.017811516 0.02870034 -0.018704712 0.02721228
000010 5e 82 e8 bc d3 46 9a bb 73 5d 1f 3c c3 7d 8e bc
       -0.028382476 -0.00470815 0.00972687 -0.017393952
000020 5d bc 08 bd 85 52 16 3c ea ed f8 bc b8 1c dd bc
       -0.033382762 0.009174948 -0.030386884 -0.026991233
000030 65 96 56 3d 02 56 59 3d 09 7b d4 3d fb 0d 92 3c
       0.05238952 0.05306054 0.103750296 0.017828932
000040 4a bd b6 bc 33 64 5a 3c ae aa a7 3c 78 3c ed 3b
       -0.022307057 0.013329553 0.020467129 0.0072398745
000050 6e 37 f8 3b c3 27 bf bc 6e d9 07 3c dc 8c 4f ba
       0.007574967 -0.02333439 0.008291585 -0.0007917413
000060 05 8a 96 3c b7 2c c7 ba 2e 69 8a bc 2c aa f0 3c
       0.01837636 -0.0015195821 -0.016895857 0.02937802
000070 ee e9 04 bb 38 bf e1 3b b7 ac a9 3c 81 55 de 3c
       -0.0020281035 0.00688925 0.02071224 0.02714038
000080 f1 46 9d 3c be 9c 6b 3d 34 1c d5 3d da c6 d1 3d
       0.019198867 0.057522528 0.1040577 0.10243006
000090 dd ce b8 3d 3b d0 f4 3d d5 8f 21 3e f3 45 32 3e
       0.09023831 0.11953779 0.15777524 0.17409496
0000a0 1e a6 06 3e ab e5 55 bc c4 f6 b0 bd d8 0d d5 3d
       0.13149306 -0.013055245 -0.08640817 0.10403031
0000b0 41 53 5f 3e e7 89 19 3e 9d 36 8f 3d 56 6a 3b 3e
       0.21809103 0.14994012 0.069928385 0.18302283
0000c0 fb ea 0a 3e 1f 30 bc 38 92 9f 9c 3d b0 4f b5 3d
       0.135662 8.973502e-05 0.07647623 0.0885309
0000d0 5e 19 f7 bc 8c 70 e9 bc 75 4f bf 3c de d0 0a 3d
       -0.030163463 -0.02849605 0.023353318 0.033890598
0000e0 43 f6 eb bc dc 65 e9 3a c3 22 9c 3d 30 6a d7 bc
       -0.02880395 0.0017806846 0.07623818 -0.026295751
0000f0 c4 09 ea 3c d4 49 63 3e 6b 26 2a 3e 71 8a 60 3e
       0.02856911 0.22196132 0.16616218 0.21927811
000100 aa 0f d1 3e 88 56 09 3f 0b 8f e9 3e b6 02 ac 3e
       0.40832263 0.5364766 0.45616946 0.33595818
000110 7d 64 33 3e 83 c5 52 3d 50 2c f9 3d 20 29 84 3e
       0.17518802 0.051457893 0.12166655 0.25812626
000120 84 1e 53 3e a2 c3 14 3e 8f 97 14 3e 45 6b 48 3c
       0.2061711 0.14527753 0.1451094 0.012232606
000130 9d 60 e4 3d 0f 72 68 3e 61 93 48 3e 08 3a 79 3e
       0.1115124 0.2269976 0.1958747 0.24338543
000140 c0 a1 8f 3e f6 95 18 3e a5 af 77 3b 2a a4 c9 bc
       0.28053093 0.14900956 0.0037793901 -0.024614412
000150 dc 5e 57 39 23 61 0b bd c8 f0 80 3e 33 67 9e 3d
       0.00020539336 -0.034028184 0.25183702 0.077345274
000160 a9 e2 00 3e 87 b4 e8 3b 30 d5 31 3e cf a4 be 3c
       0.12586464 0.0071015987 0.17366481 0.023271946
000170 5f f7 fc 3b e9 0b 46 3e 7c ab 8f bc 9b 80 e4 3c
       0.0077199186 0.19340481 -0.017537825 0.027893355
000180 94 09 9c 3d e7 45 c7 3d 78 ee 96 bd b0 dc 92 3c
       0.076190144 0.0973013 -0.07369703 0.017927498
000190 3d 83 f9 3d 7b 17 4e bd ba c8 4a 3d ff ab 00 3d
       0.12183235 -0.05031536 0.049507834 0.03141403
0001a0 53 42 93 be 44 0c c4 3d 84 07 67 3e 98 7b a5 3e
       -0.2876154 0.09572652 0.2256146 0.32320857
0001b0 38 5c 17 3e f7 cc 1f bc 6d a3 99 3d 93 7c cb bc
       0.14781272 -0.009753457 0.07501874 -0.024839675
0001c0 fc 68 1c bc 9a 9a f8 bc 88 39 f8 3b 77 66 80 be
       -0.009546515 -0.030347157 0.0075752176 -0.25078174
0001d0 4d ff a7 bd 18 20 d1 3d 72 32 61 3e a1 bb e2 3d
       -0.08202992 0.102111995 0.219919 0.110709436
0001e0 1f a1 1c 3e ff da 0c 3e 64 4b ca 3d 63 57 69 3d
       0.15295838 0.13755415 0.09877661 0.056968104
0001f0 c3 f2 a3 3d 2d bd 07 3b 5a c4 9a 3c b4 8e 17 bd
       0.080052875 0.0020712123 0.018892456 -0.037001327
000200 5a 54 40 3d 0a 6c b7 bd cf 17 fb bd ba 15 3d 3d
       0.046955444 -0.08956154 -0.122604005 0.0461633
000210 8f 81 33 bc 12 26 cb bd cf bc b0 bd 91 2d ec 3d
       -0.010956182 -0.09919371 -0.086297624 0.115321286
000220 e7 98 73 bd 11 d2 47 bd 2a 62 71 3d 3d 3d 82 3e
       -0.05947199 -0.04878432 0.058931507 0.25437346
000230 f0 50 01 3d f3 a8 a3 bc 69 c3 38 3e da 6d d7 bc
       0.03157133 -0.019978022 0.18043293 -0.026297498
000240 23 62 e2 3d 19 fc 05 3e fc 29 11 3d ca 58 1f bc
       0.11053874 0.13084449 0.03544043 -0.009725759
000250 b8 e0 b4 3d b2 80 bb 3c 65 c0 ed 3c d2 ce 3d bc
       0.08831924 0.022888515 0.029022405 -0.011584954
000260 61 32 be 3d dd ff e3 3c 0b 1a 05 3e c6 07 93 3d
       0.09286953 0.027831966 0.12998216 0.07179217
000270 6d 63 f4 3d 75 64 c2 3c 47 ce bd bd e6 f7 4e bc
       0.119330265 0.023729542 -0.0926786 -0.012632346
000280 e5 b0 dc bc e4 77 ae 3d 09 e7 0d 3d a7 db d3 3d
       -0.026939819 0.08518961 0.03464416 0.1034463
000290 59 5a 21 3e ad 42 96 3d 33 2a 84 3e 68 72 6e 3e
       0.15757121 0.07336936 0.25813445 0.2328583
0002a0 57 35 b6 bc 94 3e 2f 3e 26 7b 17 be 9e 87 0e be
       -0.022242231 0.17113715 -0.14793071 -0.13918921
0002b0 df a9 0f bc 1f f3 96 bd 23 c9 0c be e6 de b2 bd
       -0.008768528 -0.073705904 -0.13748603 -0.08733921
0002c0 54 0d b2 bd e5 03 c1 bd 4f 14 19 be be 97 18 be
       -0.086939484 -0.09424571 -0.14949153 -0.14901635
0002d0 bd 4d f2 bd 91 06 d8 bd 16 e8 2e bd ec 4f 1f 3e
       -0.11831234 -0.105481274 -0.042701803 0.15557832
0002e0 cc 7d f9 3d 18 05 fd bc 30 39 f3 bd b8 9c 63 bc
       0.12182197 -0.030886218 -0.11876142 -0.013892345
0002f0 33 d8 48 be 5c f3 7a be b4 17 99 bc 58 70 c0 bc
       -0.19613723 -0.24506897 -0.01868806 -0.02349107
000300 49 f2 0c 3e d9 87 a9 3e a5 a1 00 3e 54 4f 5d 3e
       0.137643 0.33111456 0.12561662 0.21612293
000310 eb 1b 5c 3c 0b 63 81 3d b6 a4 6f bd 17 12 ad be
       0.013434391 0.06317719 -0.05850669 -0.33802864
000320 7a 8b 21 be a5 f6 2b be f5 8c 78 be 5d b1 74 bc
       -0.15775862 -0.16793306 -0.24272521 -0.014934865
000330 29 a8 eb bd bb 24 fa bd 5d d0 e8 bd 3f 7a 33 be
       -0.115066834 -0.12214037 -0.11367867 -0.17527102
000340 74 ee 24 be 14 2d a3 bd 3f 1b 0b 3d d3 4b 1f 3d
       -0.16106588 -0.07967582 0.03396153 0.03889067
000350 f2 d0 00 3d 73 d1 aa bb f6 2f e7 bd 3e 42 24 be
       0.031449266 -0.0052129566 -0.11288445 -0.16040894
000360 31 19 3b be a6 9f a2 bd 13 f9 38 bc d9 9b 1b be
       -0.18271329 -0.07940607 -0.011289853 -0.1519617
000370 fa b2 a4 bc 3e 2d 58 3e e0 2e 94 3d 27 1b 4c 3e
       -0.020104874 0.21111009 0.07235503 0.19932233
000380 15 02 7f 3c 0c 8d 22 3e d8 86 77 bd 30 e4 53 be
       0.015564461 0.15874118 -0.06043133 -0.20692515
000390 aa a9 f2 bd e5 82 07 be 90 4b 2f be a0 12 27 bd
       -0.11848767 -0.13233526 -0.17118669 -0.040789247
0003a0 75 41 60 be c9 ef 73 bd ce a5 7d bd 43 11 0a be
       -0.2189997 -0.05955485 -0.0619257 -0.13483147
0003b0 51 e1 c5 bd 1f b1 98 bc 9d e1 a8 bc d4 d0 8b ba
       -0.09662116 -0.018639145 -0.020615393 -0.0010667094
0003c0 b3 5d b7 3c af 58 dd bc f2 db 57 be 40 30 38 be
       0.022383546 -0.027019827 -0.21079996 -0.17987156
0003d0 f2 e4 02 be 2b 4b 6d be 35 34 25 be d9 e6 6c 3d
       -0.12782648 -0.23173206 -0.16133197 0.05783734
0003e0 45 cd 1b be 29 cb 16 be 8c 45 76 3a 69 4e 19 3e
       -0.15215023 -0.14725937 0.00093945186 0.14971317
0003f0 2d 6b 29 3d 17 ac 08 be b2 f1 ca bc 75 cc 8c 3d
       0.041361976 -0.13346897 -0.024773452 0.068749346

fc1.bias f4 [64]
000000 f6 f9 8b 3d 4a 0f 6d 3d dc b8 e1 be 0c bb 84 3d
       0.06834786 0.05787591 -0.4408635 0.06480989
000010 bb 63 8b bd b1 f1 47 be ef da d9 3d 50 38 95 3e
       -0.068061315 -0.19525792 0.106374614 0.29144526
000020 92 57 ea 3d 32 46 ba be 85 18 a8 3d 48 7e 37 be
       0.11442484 -0.3638168 0.08207802 -0.17919266
000030 d6 66 f0 bd 6e d8 d3 bc d5 5f 0c be b8 b9 0a be
       -0.117383644 -0.025860038 -0.13708432 -0.13547409
000040 7a 0d c9 bd 4b 03 ef 3d 7d 8e a4 3e 6a 9c 32 3e
       -0.098170236 0.1167055 0.3213996 0.1744248
000050 fe d7 82 be 40 35 1b be 8e c6 a5 3e 38 a0 a4 bd
       -0.25555414 -0.15157032 0.32378048 -0.08038372
000060 b0 c5 71 3e fc 0a 31 3e 97 81 93 be 94 71 d8 3e
       0.23610568 0.17289346 -0.28809807 0.42274153
000070 5c 87 b4 bd ac 53 8a 3d eb 81 9c 3e 21 c1 8d be
       -0.0881488 0.067542404 0.3056787 -0.27686408
000080 48 83 4d be 06 12 c8 bd a1 a0 34 3e 22 ee 2c 3e
       -0.20069611 -0.09769063 0.176394 0.16887715
000090 3e 57 4c be 80 d6 39 3e 5a 33 c0 3e 1b 00 8e be
       -0.19955155 0.18148232 0.37539178 -0.27734455
0000a0 73 80 ca 3d d6 0f 03 3e 43 b5 cf bd b0 cf 37 3e
       0.09887781 0.1279901 -0.10141995 0.1795032
0000b0 e0 bb 9a 3d b8 15 67 be 7d d5 2f be ba e9 4c be
       0.075553656 -0.22566879 -0.17171283 -0.20011035
0000c0 52 aa 7f be 47 ec c1 3c ed c8 52 be 7a c2 93 bd
       -0.24967316 0.023672236 -0.2058446 -0.07214828
0000d0 3e c4 00 3d bc 9e 20 be f1 ad 87 3e 7c 4d a0 bc
       0.03143715 -0.15685552 0.26499894 -0.019568197
0000e0 94 66 04 3e f5 c0 d0 3c f4 de f4 bd 29 cb 15 3e
       0.12929755 0.025482634 -0.119565874 0.1462828
0000f0 1d a8 48 3d f3 e3 e2 bb c3 5d 75 3e 72 ff d4 bd
       0.04898845 -0.0069241463 0.23961549 -0.10400285

fc2.weight f4 [10, 64]
000000 82 42 93 be 79 d0 a4 3d f6 19 4e 3e 1e 8a 00 3e
       -0.2876168 0.080475755 0.20127091 0.12552688
000010 50 0d ab be 74 fc 2d 3e c9 e3 93 bd 22 af 10 bf
       -0.33408594 0.16990834 -0.07221181 -0.5651723
000020 f2 ee ed bd fc 5f 41 3e f2 0d 02 bf a0 9f 64 3e
       -0.11617841 0.18884271 -0.5080253 0.22326517
000030 73 86 33 3e 7a 83 cb be 96 42 03 be af 0e b5 be
       0.17531757 -0.39748746 -0.1281837 -0.35362765
000040 9d 14 d4 3d 47 c5 03 be 5b e3 3a 3e 41 37 df 3e
       0.10355494 -0.12868224 0.18250792 0.43596843
000050 7a f6 e1 3d 07 10 e5 3e c8 7d 9a 3d 62 49 32 3d
       0.1103334 0.4473879 0.07543522 0.043527015
000060 61 9f 73 bf 49 59 5c bf 74 02 8d 3e 4c fd 85 be
       -0.9516507 -0.8607374 0.27540934 -0.26169813
000070 73 d3 85 3c 3a c6 7c 3e 8c c8 de 3e 75 f3 82 3e
       0.016336178 0.24684992 0.4351238 0.25576368
000080 21 e9 7a bf 5c 33 25 3e 2e 6a 13 be 8e 7a 8c 3e
       -0.98011976 0.16132873 -0.14395973 0.27437252
000090 c4 73 62 3e eb 79 a3 3d 71 d9 d6 bd 28 69 91 3e
       0.22114474 0.079822384 -0.104906924 0.2840054
0000a0 58 3e f4 be 28 8c 80 be 8c a2 10 3e 14 a7 f6 be
       -0.47703815 -0.2510693 0.14124507 -0.48174345
0000b0 40 38 22 3d 59 8b 13 be 4d ca 1e bc 4f 24 ac 3e
       0.039604425 -0.14408626 -0.009691787 0.3362145
0000c0 d8 9d b3 3e 55 c4 19 3e 54 b4 91 bc d5 61 ca 3c
       0.35081363 0.15016301 -0.017786182 0.024704853
0000d0 46 5f 85 be 4f 51 8d be f7 b7 9e bb 4c 3f 87 3d
       -0.2604925 -0.27601096 -0.0048437077 0.0660387
0000e0 1f 94 84 bd e6 8a f7 be 49 9c c3 3d 93 cd c4 3d
       -0.06473564 -0.4834816 0.095512934 0.09609523
0000f0 45 69 21 3c 13 fc 6a be ee 8c a4 be a1 6f bd be
       0.009851758 -0.22947721 -0.3213877 -0.3699923
000100 37 91 41 3e 5c 05 9a 3e f1 c7 f9 be 4c 8b be bd
       0.18903051 0.30082214 -0.48785356 -0.093039125
000110 6c 90 cf 3e d0 68 e8 be d2 b8 f9 bd d5 8d 20 3f
       0.40539873 -0.45392466 -0.12193455 0.6271642
000120 fa 83 26 3e 2e f6 0b bf 43 f1 aa be 13 a1 f3 be
       0.16261283 -0.54672515 -0.33387193 -0.47583827
000130 4b 44 37 3e b8 25 78 be 12 44 32 be c2 75 4d be
       0.17897145 -0.24233139 -0.1740878 -0.20064452
000140 48 dc ef bc b6 c6 29 3e 92 e4 b0 be 1f f3 46 3e
       -0.029279843 0.16579708 -0.34549385 0.19428681
000150 04 bf a3 3b 04 92 29 3e 08 ca bd 3e cc b4 36 bd
       0.004997136 0.16559607 0.370682 -0.044606015
000160 9b 6d 36 3e 86 8d 8a 3d b8 f2 d2 3c c3 37 8d 3e
       0.17815249 0.06765275 0.025750503 0.27581605
000170 83 74 ca be 90 57 0c 3b 5e 70 0f 3f 9a 9c 4f be
       -0.39542016 0.0021414496 0.56030834 -0.20274583
000180 96 20 8a 3d 4c 92 05 bd 8e b2 1e 3f 46 45 8a be
       0.067444965 -0.032610223 0.619912 -0.27005976
000190 c5 e4 5c 3e 82 dd 3f be b9 f0 60 3d 83 a4 08 bf
       0.21571644 -0.18736842 0.05491707 -0.53376025
0001a0 07 21 6b 3d d9 f8 08 bf bb c7 0d 3e c3 90 1f 3f
       0.057404544 -0.5350471 0.13845722 0.62330264
0001b0 43 1f 28 bf 67 67 bb bd 4c 17 b4 3d 35 79 ee 3e
       -0.656727 -0.09150582 0.08793506 0.4657685
0001c0 cd b5 f5 be ca 26 fa 3d fb 60 4b bf 90 3c cc bc
       -0.47990265 0.1221443 -0.79444855 -0.024931222
0001d0 6c 66 77 3e ea ce df 3e ee 16 88 3e 5f a2 16 be
       0.24160165 0.4371255 0.26579994 -0.14710377
0001e0 50 94 d3 3e 3b 75 11 3e be a9 f4 be 2a f1 9e bd
       0.4132409 0.14204876 -0.47785753 -0.07760842
0001f0 23 82 e6 be c5 9d ea 3d a0 97 7c 3e a5 0e 15 3e
       -0.4502116 0.114558734 0.24667215 0.14556368
000200 04 db a0 3e 34 d3 a0 3e 88 ef 21 be 44 ce d7 3e
       0.31417096 0.31411135 -0.1581403 0.42149556
000210 95 ec e9 3e a6 a9 7d bd 02 d7 a2 be 83 c8 0c be
       0.4568831 -0.061929367 -0.31804663 -0.13748364
000220 f8 2c 0a be 89 4c 54 be 15 48 b1 be ae 97 36 3e
       -0.13493717 -0.20732321 -0.34625307 0.17831299
000230 c5 a2 b2 3d f4 f7 5f 3e 5c 91 24 3d 3b 8f 08 3e
       0.08722452 0.2187193 0.040177688 0.13335888
000240 3c 13 0c be 3b 84 d8 3e 1e 21 04 bc fe e2 74 3e
       -0.13679212 0.42288384 -0.008064536 0.23914716
000250 c0 ef 90 bf d0 8b 53 3e 62 23 75 3e b8 24 32 bf
       -1.1323166 0.20658803 0.23939279 -0.6958728
000260 ee 1e 82 bd 4e 6e 99 3d 82 ff 9e 3e 9b fa 9f 3e
       -0.063535556 0.07491742 0.31054312 0.31245884
000270 ce 44 7f 3d d8 f3 da bb 62 6e 08 be 23 84 4b be
       0.062321477 -0.0066819005 -0.13323358 -0.19874625
000280 87 ff 5f be ae 4d 8a 3d 0a 3b bb 3e 3c 1b 13 bf
       -0.2187482 0.067530975 0.3656848 -0.5746343
000290 2c ef 97 3e 05 ec 47 3e d7 69 a7 3e 9b af 97 3b
       0.2967466 0.19523628 0.32697937 0.004629088
0002a0 db 94 4a be e1 43 42 be 6b 7a 4a 3e 30 3a cd 3e
       -0.19783346 -0.18971206 0.19773261 0.40083456
0002b0 fa 03 bd 3e fd 9c 8b 3d 82 1c 1b be b8 dd a3 3e
       0.36917096 0.068170525 -0.15147594 0.32005095
0002c0 91 24 a5 3e 52 be 0d 3e 14 0d 82 bc e8 b2 f1 bc
       0.3225446 0.13842133 -0.015875377 -0.029504254
0002d0 5f 47 17 bf 61 24 7e be 30 25 ab 3d 91 d5 95 bd
       -0.5909328 -0.24818565 0.08356702 -0.07316125
0002e0 d8 cc 9d 3e bf 6c 22 3f f1 61 a8 3e 7d 9d 31 bf
       0.30820346 0.63447183 0.32887223 -0.69380933
0002f0 d1 e8 e1 bd ae c5 93 3e 6b 28 4b bf 60 46 0f 3e
       -0.11030734 0.28861755 -0.7935855 0.1399169
000300 93 c5 7a be 38 cd 8e 3d fd 22 3a bd 46 3b 97 3e
       -0.24489431 0.06972736 -0.045443524 0.2953741
000310 c4 13 ba 3e 9e 19 dc 3d 17 d0 35 bf 37 51 03 bf
       0.36343205 0.107470736 -0.71020645 -0.512958
000320 7f c2 08 bf 45 bc 54 3e 40 b7 41 3e 6f 19 a6 3d
       -0.5342178 0.20774944 0.1891756 0.0811032
000330 d6 7b f1 3e 84 24 84 3e 11 a6 40 3e b5 43 8d 3d
       0.47164792 0.2580911 0.1881335 0.0689768
000340 b8 f6 77 be 81 a9 2c 3e aa 45 23 bd 4f f5 62 be
       -0.2421521 0.16861536 -0.03986136 -0.2216389
000350 ce d9 60 3e 13 ac 53 be 23 e4 35 bd 0c da 3d 3e
       0.21958086 -0.2067111 -0.04440702 0.1854021
000360 23 04 ad 3e c6 03 31 3e ca dd 7b bd 30 9d f0 bd
       0.3379222 0.17286596 -0.06149081 -0.11748731
000370 68 92 d8 be c9 fe 46 bf dd e3 37 3d ce 95 0a 3d
       -0.422992 -0.7773252 0.04489504 0.03383427
000380 51 8a 1e 3e bc a1 32 3e ee 28 05 bf fb 65 42 be
       0.15482451 0.1744451 -0.5201558 -0.18984215
000390 cb 62 1f bf 5b d9 2d be 63 b7 29 bf b0 8c 89 be
       -0.6226012 -0.16977446 -0.6629545 -0.2686515
0003a0 86 e7 2f 3e eb c2 0c 3f 9b 8c 51 3e 95 86 dd 3d
       0.17178163 0.5498492 0.20463793 0.10816685
0003b0 c4 93 d9 3c d8 51 06 3d db fb 49 3e 5e f4 c8 3d
       0.026559718 0.032792896 0.19724981 0.09812234
0003c0 97 13 cb 3d 23 5c ea be 94 11 9d bd f7 2a bd bd
       0.09915846 -0.4577342 -0.076693684 -0.092367105
0003d0 38 1e 0f be ed cb fc 3e 4f 6f f6 3e 53 d8 c1 3e
       -0.13976371 0.49374333 0.48131797 0.37860355
0003e0 fd 27 61 bc 43 24 88 be ba 5c 3d 3e df 1c 0b 3f
       -0.013742444 -0.26590165 0.18492404 0.5434093
0003f0 bf 0a b0 bc 18 8b 69 3e 7c d3 08 bf 8b b3 1d bc
       -0.0214895 0.22806966 -0.534477 -0.009625326

fc2.bias f4 [10]
000000 5d 31 80 be 58 e2 1c 3e 55 6b 1a 3d c3 71 ff bd
       -0.2503766 0.15320718 0.037700016 -0.1247287
000010 c0 c4 f3 bd f3 00 7f 3e fb e1 37 be 12 32 0b 3e
       -0.119027615 0.24902706 -0.17957298 0.13593319
000020 62 b4 02 be a7 eb 78 bd
       -0.12764123 -0.06077161
