models/model_epoch20.pth (torch, 205023 bytes, 4 tensors)

fc1.weight f4 [64, 784]
0	0x3c91e975	0.017811516
1	0x3ceb1cfa	0.02870034
2	0xbc993aa0	-0.018704712
3	0x3cdeec4a	0.02721228
4	0xbce8825e	-0.028382476
5	0xbb9a46d3	-0.00470815
6	0x3c1f5d73	0.00972687
7	0xbc8e7dc3	-0.017393952
8	0xbd08bc5d	-0.033382762
9	0x3c165285	0.009174948
10	0xbcf8edea	-0.030386884
11	0xbcdd1cb8	-0.026991233
12	0x3d3f012b	0.046631973
13	0x3d65107b	0.05592392
14	0x3df11f65	0.11773566
15	0x3ca05e8c	0.019576333
16	0xbcb6bd4a	-0.022307057
17	0x3c5a6433	0.013329553
18	0x3ca7aaae	0.020467129
19	0x3bed3c78	0.0072398745
20	0x3bf8376e	0.007574967
21	0xbcbf27c3	-0.02333439
22	0x3c07d96e	0.008291585
23	0xba4f8cdc	-0.0007917413
24	0x3c968a05	0.01837636
25	0xbac72cb7	-0.0015195821
26	0xbc8a692e	-0.016895857
27	0x3cf0aa2c	0.02937802
28	0xbb04e9ee	-0.0020281035
29	0x3be1bf38	0.00688925
30	0x3ca9acb7	0.02071224
31	0x3cde5581	0.02714038
32	0x3c9e1d2d	0.019301021
33	0x3d6c818c	0.057740733
34	0x3dd50f73	0.10403337
35	0x3dcfda7a	0.10149093
36	0x3dd0072f	0.1015762
37	0x3e13006c	0.1435563
38	0x3e5c5c35	0.21519549
39	0x3e84ddd0	0.2595048
40	0x3e6011b1	0.21881749
41	0x3d27e331	0.04098815
42	0xbe42e09e	-0.19030997
43	0x3d16b76c	0.03679602
44	0x3e83fc9a	0.25778657
45	0x3e68dfeb	0.22741668
46	0x3e864911	0.2622762
47	0x3e581446	0.21101484
48	0x3cc04849	0.023471968
49	0xbda8914f	-0.082308404
50	0x3d827d4b	0.06371554
51	0x3dbe039c	0.09278032
52	0xbcf7195e	-0.030163463
53	0xbce9708c	-0.02849605
54	0x3cbf4f75	0.023353318
55	0x3d0ad0de	0.033890598
56	0xbcebf643	-0.02880395
57	0x3ae965dc	0.0017806846
58	0x3d9a077c	0.07520959
59	0xbdcbca8d	-0.09950743
60	0x3c9519cb	0.018200776
61	0x3ea23606	0.31681842
62	0x3e84e611	0.25956777
63	0x3e9be342	0.3044682
64	0x3f190b46	0.59782827
65	0x3f3ad0ef	0.7297506
66	0x3f14c9cc	0.5812042
67	0x3f0ab026	0.5417503
68	0x3e54fe5b	0.20800154
69	0xbd999c53	-0.075005196
70	0x3e605c6d	0.21910258
71	0x3ea406ec	0.3203653
72	0x3e379cd0	0.17930913
73	0x3e7b5b5b	0.24546568
74	0x3e1f2a80	0.15543556
75	0xbe0584ad	-0.13038893
76	0x3d2290df	0.03968894
77	0x3ec5c701	0.3862839
78	0x3eae5726	0.34050864
79	0x3eb14b11	0.34627584
80	0x3ebae3b8	0.3650186
81	0x3e159813	0.14608793
82	0x3b77afa5	0.0037793901
83	0xbcc9a42a	-0.024614412
84	0x39575edc	0.00020539336
85	0xbd0b6123	-0.034028184
86	0x3eadeef3	0.33971366
87	0x3d970ce4	0.073755056
88	0x3e6c359e	0.23067328
89	0x3d888078	0.066651285
90	0x3e952f38	0.29137588
91	0x3d807f4c	0.0627428
92	0xbd66e4d8	-0.056370586
93	0x3e18bce2	0.14915803
94	0xbe836182	-0.2566033
95	0x3c7216d6	0.014775952
96	0x3e86867c	0.26274478
97	0x3e59dea9	0.21276344
98	0xbc717500	-0.014737368
99	0x3de4a275	0.11163799
100	0x3e679e37	0.22618948
101	0x3d15d283	0.036577713
102	0x3dedf359	0.116186805
103	0x3e4c930f	0.19977973
104	0xbed3388e	-0.41254085
105	0x3e3f6e09	0.18694319
106	0x3ee635aa	0.44962817
107	0x3eee05a1	0.4648867
108	0x3e2d30fe	0.1691322
109	0xbe12fe4d	-0.1435482
110	0x3da776d8	0.081769645
111	0xbccb7c93	-0.024839675
112	0xbc1c68fc	-0.009546515
113	0xbcfad58a	-0.030619401
114	0x3e15c217	0.1462482
115	0xbed247d1	-0.41070417
116	0xbe53c576	-0.20680794
117	0x3e6a5696	0.22884592
118	0x3ed0b306	0.40761584
119	0x3e74da34	0.23911363
120	0x3e969272	0.29408604
121	0x3e595a33	0.21225815
122	0x3e05f338	0.13081062
123	0x3defa5d2	0.117015496
124	0x3ded353e	0.11582421
125	0xbcfdecb5	-0.03099666
126	0xbd6ff875	-0.058586556
127	0xbdcad4a6	-0.09903841
128	0x3d1c1edc	0.038115367
129	0xbe43aca5	-0.19108827
130	0xbe67a028	-0.22619689
131	0x3dc145fa	0.09437175
132	0x3d05f3bc	0.032703146
133	0xbde8de32	-0.113705054
134	0xbd888cb9	-0.06667466
135	0x3ebbf0c6	0.36707133
136	0x3c54c15d	0.0129855545
137	0xbc115c2c	-0.008872073
138	0x3a81dd81	0.0009907932
139	0x3eaebbef	0.34127757
140	0x3d0150f0	0.03157133
141	0xbca3a8f3	-0.019978022
142	0x3ea43e89	0.3207896
143	0x3c5a8b6f	0.013338908
144	0x3e1bf43e	0.1522989
145	0x3e92b396	0.28652638
146	0x3e0de9f0	0.13858771
147	0x3d80bc2e	0.062858924
148	0x3eae41e0	0.34034634
149	0x3e11141a	0.14167824
150	0x3e17fed4	0.14843303
151	0x3c9cc742	0.019137982
152	0x3db11a7c	0.086476296
153	0x3d05baab	0.032648724
154	0x3e3df6f3	0.18551235
155	0x3d15f0ff	0.036606785
156	0x3e4ef4de	0.20210597
157	0x3d1f4ccb	0.038891595
158	0xbe16bfb9	-0.14721574
159	0x3d3c71bb	0.0460069
160	0xbcef437b	-0.029206982
161	0x3e705605	0.23470314
162	0x3defd6af	0.117108695
163	0x3eab19af	0.33418033
164	0x3e845bb4	0.25851214
165	0x3e39af4a	0.18133274
166	0x3ea6dc6d	0.32590047
167	0x3ea2acf0	0.31772566
168	0xbcb63557	-0.022242231
169	0x3e46ca97	0.1941322
170	0xbdad1e45	-0.08453039
171	0xbe1ecd9f	-0.15508126
172	0xbd8a9652	-0.067669526
173	0xbe37edc4	-0.17961794
174	0xbe02534d	-0.12727089
175	0x3b8bcbda	0.0042662444
176	0x3c30f6a3	0.01080099
177	0xbd8288ab	-0.063737236
178	0xbe10d9be	-0.14145562
179	0xbe47e4bd	-0.1952085
180	0xbe0d7024	-0.1381231
181	0xbe342b99	-0.17594756
182	0xbd834f9c	-0.06411669
183	0x3e9a35fe	0.30119318
184	0x3e8322fe	0.25612634
185	0xbdac8746	-0.08424239
186	0xbe2cd914	-0.16879684
187	0x3d390aa2	0.045176156
188	0xbe6f5f17	-0.23376118
189	0xbeb061e6	-0.3444969
190	0x3d0402cb	0.032229226
191	0x3d71b6cb	0.059012216
192	0x3e637701	0.22213365
193	0x3ed1ae9d	0.40953532
194	0x3e6707f4	0.22561628
195	0x3ec0a229	0.37623718
196	0x3c5c1be9	0.013434389
197	0x3da235d7	0.079204254
198	0x3d2e75df	0.04259288
199	0xbf0cfe13	-0.55075186
200	0xbddce491	-0.10785783
201	0xbde4fe37	-0.111813
202	0xbea5ed04	-0.3240739
203	0x3d894797	0.06703108
204	0xbe015298	-0.12629163
205	0xbe1338cb	-0.14377134
206	0xbdf55403	-0.119789146
207	0xbe57311a	-0.21014825
208	0xbe427554	-0.1899007
209	0xbdc2c5c9	-0.09510381
210	0x3dd10000	0.10205078
211	0x3e0a3ddd	0.13500161
212	0x3e06c697	0.13161694
213	0x3c4a6750	0.012353733
214	0xbe56e563	-0.20985942
215	0xbe8d0bec	-0.27548158
216	0xbe66c9a2	-0.22537854
217	0xbe2c407c	-0.16821474
218	0xbd46fc1e	-0.04858028
219	0xbe3ea880	-0.18618965
220	0x3d712788	0.05887559
221	0x3ede0cee	0.4336924
222	0x3e0312e5	0.12800176
223	0x3ec1a808	0.3782351
224	0x3e45b9ac	0.1930911
225	0x3ea529e3	0.3225852
226	0xbdd9a952	-0.106279984
227	0xbede9794	-0.4347502
228	0x3b806efc	0.0039194804
229	0xbda3e9dc	-0.080035895
230	0xbe4ba663	-0.1988769
231	0x3a0f0c4c	0.00054568495
232	0xbea8ab07	-0.32942984
233	0xbdca2094	-0.09869495
234	0xbd9f2981	-0.07771588
235	0xbe47bd0f	-0.19505714
236	0xbdd643e9	-0.104621716
237	0xbc9a5f7a	-0.018844355
238	0x3d1d2f65	0.038375277
239	0x3dc3c007	0.09558111
240	0x3d8be568	0.06830865
241	0xbd46711a	-0.048447706
242	0xbe9bf783	-0.30462274
243	0xbe7cf0bf	-0.24701212
244	0xbe18f996	-0.1493896
245	0xbeb384b1	-0.35062173
246	0xbe89aed1	-0.26891187
247	0x3e10b933	0.14133148
248	0xbe410616	-0.18849978
249	0xbe106cf3	-0.14104061
250	0xbc15d303	-0.009144547
251	0x3dfa3f5b	0.12219115
252	0x3d2d9bbd	0.04238485
253	0xbdd4c7c5	-0.103896655
254	0x3dc7b9e2	0.09752251
255	0xbc1bb47d	-0.009503481

fc1.bias f4 [64]
0	0x3d8ee7a4	0.06977776
1	0x3d823b0b	0.06358918
2	0xbee80347	-0.45315
3	0x3c21e654	0.009881575
4	0xbe27232f	-0.16322015
5	0xbe41e280	-0.18934059
6	0x3e6879aa	0.22702661
7	0x3e88159b	0.26578984
8	0x3d971f85	0.07379059
9	0xbed4047c	-0.4140967
10	0x3dc3a687	0.09553247
11	0xbdfc1ab2	-0.12309779
12	0xbe209b15	-0.15684159
13	0x3d7d28e8	0.06180659
14	0xbdd7d212	-0.105381146
15	0xbd897d26	-0.06713323
16	0xbe0bc709	-0.13650145
17	0x3dfa7d7d	0.12230966
18	0x3eb5e397	0.355252
19	0x3e5cc6f6	0.21560273
20	0xbe8addd9	-0.2712238
21	0xbe324beb	-0.17411773
22	0x3eda7612	0.42668205
23	0xbd224d3d	-0.03962444
24	0x3ea2392d	0.31684247
25	0x3e5ddd19	0.21666373
26	0xbecc477a	-0.39898282
27	0x3f0695a8	0.5257211
28	0xbcd273ef	-0.025690047
29	0x3d26578a	0.040610828
30	0x3ea5bd90	0.32371187
31	0xbe97ace0	-0.2962408
32	0xbe85f47e	-0.26163095
33	0xbe5f4c07	-0.21806346
34	0x3e641a18	0.22275579
35	0x3e6a05dd	0.22853799
36	0xbe4dba38	-0.20090568
37	0x3dcebe56	0.100948974
38	0x3eb6f525	0.35733905
39	0xbe8bf457	-0.27334854
40	0x3e1c88d9	0.15286578
41	0x3e3937f9	0.18087758
42	0xbe12db66	-0.14341506
43	0x3e85ced2	0.26134354
44	0x3db326e3	0.087476514
45	0xbe51f93e	-0.20505235
46	0xbe80014d	-0.25000992
47	0xbe8526f9	-0.26006296
48	0xbe2ff33c	-0.1718263
49	0xbc1482d9	-0.0090644
50	0xbe2e6120	-0.17029238
51	0xbdbd5c49	-0.092461176
52	0xbcd40110	-0.025879413
53	0xbe4f339b	-0.2023453
54	0x3e8bf140	0.27332497
55	0xbce375b0	-0.027766079
56	0x3d293353	0.041308712
57	0xbc603759	-0.013685071
58	0xbde15a66	-0.1100357
59	0x3e3bc763	0.18337779
60	0x3db0ce2d	0.08633075
61	0xbd3bbd63	-0.04583491
62	0x3e867af7	0.2626569
63	0xbdafbfbc	-0.08581492

fc2.weight f4 [10, 64]
0	0xbec44a7c	-0.38338077
1	0x3e5f7660	0.218225
2	0x3e503c40	0.20335484
3	0x3d7f8ffa	0.062393166
4	0xbeddf533	-0.43351135
5	0x3e2e499d	0.17020269
6	0xbd1a9b96	-0.037746035
7	0xbf3ecb6f	-0.74529165
8	0xbe45251d	-0.19252439
9	0x3e8b3aea	0.27193385
10	0xbf4d1199	-0.80104977
11	0x3e9210a3	0.28528318
12	0x3e2889ad	0.16458769
13	0xbf0fd6f5	-0.56187373
14	0xbe47d29a	-0.19513932
15	0xbf254a82	-0.64566815
16	0x3e0bf2c6	0.1366683
17	0xbeb86b87	-0.36019537
18	0x3eaddf35	0.33959356
19	0x3f1e911d	0.61940175
20	0x3e37c7d7	0.17947327
21	0x3f0e2f91	0.5554133
22	0x3d9fd81c	0.078048915
23	0x3c79de73	0.01525079
24	0xbfb0aa80	-1.3802032
25	0xbfa848e4	-1.3147244
26	0x3eaf97ec	0.34295595
27	0xbea444e9	-0.32083824
28	0xbd8bbd4b	-0.06823214
29	0x3ebabc00	0.36471558
30	0x3f1c7a40	0.6112404
31	0x3eb04f01	0.34435275
32	0xbfaa4fb0	-1.3305569
33	0x3e2dc6f9	0.16970433
34	0xbe361c5f	-0.1778426
35	0x3e99c29d	0.3003129
36	0x3e8d04be	0.2754268
37	0x3d507af0	0.050898492
38	0xbe616a06	-0.22013101
39	0x3ee8e120	0.45484257
40	0xbf462db0	-0.77413464
41	0xbec9b91d	-0.39399043
42	0x3e31c754	0.17361194
43	0xbf100e06	-0.562714
44	0x3a8b4c7e	0.0010627655
45	0xbe26b273	-0.1627901
46	0xbd327a36	-0.04357358
47	0x3ef437b8	0.4769876
48	0x3ef93dfd	0.48680106
49	0x3dc2d7e5	0.09513835
50	0xbcf661cf	-0.030075936
51	0xbd79ad6c	-0.060956404
52	0xbe8ced9c	-0.27525032
53	0xbed0a089	-0.4074748
54	0xbc9471d3	-0.018120682
55	0x3db05d78	0.08611578
56	0xbe09c3a4	-0.13453537
57	0xbf34c514	-0.7061322
58	0x3dc1aff3	0.09457388
59	0x3dabc622	0.083874
60	0xbcc5fab4	-0.024167396
61	0xbe8eff0e	-0.27928966
62	0xbecdcaed	-0.40193883
63	0xbf094fe3	-0.5363752
64	0x3e38b5d2	0.18038109
65	0x3e9f2151	0.31080106
66	0xbf45cf8c	-0.77269816
67	0xbe375d99	-0.17906798
68	0x3ef9f826	0.48822135
69	0xbf3761ac	-0.7163341
70	0xbe294187	-0.16528903
71	0x3f66c51d	0.9014452
72	0x3e28bd8c	0.16478556
73	0xbf678a34	-0.90445256
74	0xbec0001b	-0.3750008
75	0xbf0412b6	-0.5159105
76	0x3e3dd016	0.1853641
77	0xbebf10b2	-0.37317425
78	0xbe0b3adb	-0.1359667
79	0xbeb33370	-0.3500018
80	0x3d1f0b28	0.038829
81	0x3e2511d3	0.1612008
82	0xbedcf117	-0.43152687
83	0x3ebe2ffe	0.3714599
84	0xbcc75d71	-0.024336549
85	0x3e2e9077	0.17047296
86	0x3f0651e1	0.5246869
87	0xbdf55dab	-0.11980756
88	0x3e525009	0.20538343
89	0x3da25064	0.079254895
90	0x3d6cdde4	0.0578288
91	0x3ec0455e	0.37552923
92	0xbf0eabfd	-0.55731183
93	0x3e331974	0.17490178
94	0x3f37de27	0.7182335
95	0xbe8bd17a	-0.27308255
96	0x3dc64d9a	0.0968277
97	0xbcca48a6	-0.024692845
98	0x3f6d40b4	0.92676854
99	0xbe89aa1f	-0.26887605
100	0x3e8f67c6	0.2800886
101	0xbe22ad7b	-0.1588649
102	0x3dbb0033	0.091308974
103	0xbf4c1774	-0.79723287
104	0x3d70b6b7	0.058768
105	0xbf2f3360	-0.6843777
106	0x3debb262	0.11508633
107	0x3f61522a	0.88016
108	0xbf624aba	-0.88395274
109	0xbd6b2504	-0.057408348
110	0x3e08902d	0.13336249
111	0x3f117e11	0.5683299
112	0xbf3ac2ec	-0.7295368
113	0x3e8d780e	0.27630657
114	0xbf916b8c	-1.1360946
115	0xbda81319	-0.082067676
116	0x3e6f26f9	0.2335471
117	0x3f1ab881	0.6043778
118	0x3eb52de5	0.35386577
119	0xbe52dbaf	-0.20591615
120	0x3f07193c	0.5277288
121	0x3e1db4d1	0.15401007
122	0xbf1d1944	-0.6136668
123	0xbdd68a10	-0.10475552
124	0xbf03de56	-0.5151113
125	0x3e3621cc	0.1778633
126	0x3e8e1caa	0.27756244
127	0x3e4e9496	0.20173869
128	0x3eb84502	0.3599015
129	0x3ecd1c37	0.4006059
130	0xbe779400	-0.24177551
131	0x3f09294c	0.5357864
132	0x3f1cc2ae	0.6123456
133	0xbd8d1bc1	-0.06890059
134	0xbeac6e45	-0.3367788
135	0xbe63198d	-0.22177716
136	0xbe81795f	-0.2528791
137	0xbe6ff893	-0.23434667
138	0xbf096a43	-0.5367777
139	0x3e71f07c	0.23626894
140	0x3e009ce7	0.12559853
141	0x3eb16c10	0.34652758
142	0x3cfd30ee	0.03090712
143	0x3e2aa0e9	0.16662945
144	0xbe41761e	-0.18892714
145	0x3f113ea2	0.56736195
146	0xbdbd3999	-0.092395015
147	0x3eb04875	0.3443028
148	0xbfbf3b64	-1.494
149	0x3e80af42	0.2513371
150	0x3e5ca8c7	0.21548758
151	0xbf42528b	-0.759072
152	0xbdee2d38	-0.116297185
153	0x3dd4717e	0.103732094
154	0x3edf2632	0.43583828
155	0x3ed619e7	0.41816637
156	0x3dae95ef	0.08524691
157	0xbd892ceb	-0.066980205
158	0xbd9ee13e	-0.07757805
159	0xbe9dff73	-0.30858955
160	0xbe66ebf3	-0.22550945
161	0x3d29fcbf	0.041500803
162	0x3ec7d358	0.3902843
163	0xbf204927	-0.6261162
164	0x3ed60859	0.41803244
165	0x3e5ce5ea	0.2157208
166	0x3ef51e60	0.47874737
167	0x3d944a86	0.07240777
168	0xbe83080c	-0.25592077
169	0xbe83f9dc	-0.25776565
170	0x3e6129d3	0.21988611
171	0x3ee8bab8	0.45454955
172	0x3f1a179d	0.6019228
173	0x3cad790a	0.02117588
174	0xbe4896ee	-0.19588825
175	0x3ed83f58	0.42235827
176	0x3ee0761d	0.43840113
177	0x3e205fb1	0.15661503
178	0xbbfd193c	-0.0077239554
179	0xbceea998	-0.029133603
180	0xbf39da74	-0.7259896
181	0xbeb410b1	-0.35168985
182	0x3db04d08	0.086084425
183	0xbdfd2a4e	-0.123615846
184	0x3e94c858	0.290591
185	0x3f38571b	0.7200791
186	0x3ebba13b	0.36646447
187	0xbf6b9fd5	-0.9204076
188	0xbe050134	-0.1298874
189	0x3ec1ec0a	0.37875396
190	0xbf82b543	-1.0211567
191	0x3e45d2ff	0.1931877
192	0xbe83d896	-0.2575118
193	0x3d87cb58	0.066305816
194	0xbc119b0a	-0.008887062
195	0x3ed44be7	0.4146416
196	0x3ee509a7	0.44733927
197	0x3dc0f8f0	0.09422481
198	0xbf6dcce2	-0.9289075
199	0xbf3ea0bf	-0.7446403
200	0xbf4608ba	-0.77357066
201	0x3e891573	0.26774177
202	0x3e9128d8	0.28351474
203	0x3d50a19c	0.050935373
204	0x3f1cbed8	0.61228704
205	0x3ed787cb	0.4209579
206	0x3e317dc8	0.17333138
207	0x3daa512b	0.08316263
208	0xbea0f489	-0.31436566
209	0x3eba443a	0.36380178
210	0xbd47bb22	-0.048762448
211	0xbe9966f9	-0.29961374
212	0x3e9a6c31	0.30160668
213	0xbe81e2f4	-0.25368464
214	0xbe099ac2	-0.13437942
215	0x3e98e25e	0.29860204
216	0x3edb0ede	0.4278478
217	0x3df671b9	0.120334096
218	0xbd80ac3c	-0.06282851
219	0xbe990a82	-0.2989083
220	0xbf659e5c	-0.8969476
221	0xbf892ea6	-1.0717361
222	0x3d29be9d	0.04144155
223	0x3d2dc9e7	0.042428877
224	0x3e336fa6	0.17523059
225	0x3e58110f	0.21100257
226	0xbf3416fb	-0.70347565
227	0xbe3b661e	-0.18300673
228	0xbf5e62c1	-0.86869437
229	0xbe8934f0	-0.267982
230	0xbf4e6718	-0.8062606
231	0xbeaa3102	-0.33240515
232	0x3e61d4e6	0.2205387
233	0x3f31be87	0.69431347
234	0x3e68eacc	0.22745818
235	0x3df31274	0.11868754
236	0xbc6e5e3e	-0.014548836
237	0x3cbb73f1	0.022882434
238	0x3eb6afe2	0.35681063
239	0x3dc5d782	0.096602455
240	0x3e1029ea	0.14078489
241	0xbf1773f1	-0.5916129
242	0xbe1d7b2d	-0.15379019
243	0xbd57ddd5	-0.05270179
244	0xbe27cb06	-0.16386041
245	0x3f070a5c	0.5275018
246	0x3f24f27d	0.6443251
247	0x3ee7ab2c	0.4524778
248	0xbcd252da	-0.025674272
249	0xbe833cd6	-0.25632352
250	0x3e669889	0.22519125
251	0x3f1d8518	0.6153121
252	0x3cea5643	0.028605586
253	0x3ef0e462	0.47049242
254	0xbf23521e	-0.63797176
255	0xbc334126	-0.010940826

fc2.bias f4 [10]
0	0xbecae6d0	-0.3962922
1	0x3e09bbf9	0.13450612
2	0x3c185c8d	0.00929941
3	0xbe049c8f	-0.12950347
4	0xbdf2bedd	-0.118528105
5	0x3e8cbd6d	0.2748827
6	0xbe555666	-0.2083374
7	0x3e07610f	0.13220619
8	0xbd101232	-0.035173602
9	0xbd2654de	-0.04060828
