models/model_epoch9.pth (torch, 205023 bytes, 4 tensors)

fc1.weight f4 [64, 784]
00000000: 75e9 913c fa1c eb3c a03a 99bc 4aec de3c
00000010: 5e82 e8bc d346 9abb 735d 1f3c c37d 8ebc
00000020: 5dbc 08bd 8552 163c eaed f8bc b81c ddbc
00000030: 4f54 583d 544d 493d 8420 c33d ea9e 6b3c
00000040: 4abd b6bc 3364 5a3c aeaa a73c 783c ed3b
00000050: 6e37 f83b c327 bfbc 6ed9 073c dc8c 4fba
00000060: 058a 963c b72c c7ba 2e69 8abc 2caa f03c
00000070: eee9 04bb 38bf e13b b7ac a93c 8155 de3c
00000080: f7da 9c3c 844d 6b3d 23bc d43d c822 d23d
00000090: 582e ba3d 8faf f63d d698 183e 36d7 233e
000000a0: 1971 d73d f7b4 e6bc f7a3 a4bd 52f3 dd3d
000000b0: 54f3 593e 1a98 0e3e 66d0 a23d fd87 3e3e
000000c0: 1402 0e3e 8970 9f3c 595e bb3d 5f25 b93d
000000d0: 5e19 f7bc 8c70 e9bc 754f bf3c ded0 0a3d
000000e0: 43f6 ebbc dc65 e93a 9009 a03d 8b5f 2bbc
000000f0: 758f 1e3d 7e5f 563e 794a 1e3e 97df 593e
00000100: 8b9f cb3e d9d7 043f c30c dd3e 40bc a43e
00000110: 4fac 323e 6c4f 8c3d d90d df3d 5059 733e
00000120: 2ea8 483e bced 233e 1d1c 293e 4b80 e53c
00000130: e556 de3d eaec 4b3e f17f 433e bc5f 6f3e
00000140: e6c1 843e 8de4 173e a5af 773b 2aa4 c9bc
00000150: dc5e 5739 2361 0bbd 9804 673e f1ed b13d
00000160: 996d f23d 0887 10bc c04d 1a3e 3523 c23c
00000170: be50 953c d8af 3b3e 6f68 40bb 20e4 c53c
00000180: 591b 543d f17a b73d 9bb8 90bd 9f0c db3c
00000190: b91b 0b3e d080 05bd 8275 7d3d 37d2 843c
000001a0: 0047 8dbe 3aa8 9f3d df31 573e 0c7b 9f3e
000001b0: 5242 103e ee95 26bb e180 8f3d 937c cbbc
000001c0: fc68 1cbc 175b f8bc 3f7a 54bc 76c6 71be
000001d0: 16fe 9dbd 09be a33d 6de1 453e f5d1 b73d
000001e0: e46c 103e 882b ff3d 6945 b73d af7f 373d
000001f0: fe69 943d 738f e53b 79f5 de3c c110 d6bc
00000200: 63da 6c3d cf81 71bd ef5d a0bd d4a0 7d3d
00000210: f2de 7dbc e953 d8bd 5600 b4bd c446 b73d
00000220: fd44 9abd 5970 44bd 1159 563d 7e03 663e
00000230: f050 013d f3a8 a3bc 4203 253e bd24 04bd
00000240: b432 fd3d 87d3 f33d 927b da3c e892 b0bb
00000250: 8ae6 9b3d 924f 7c3c 97bc c03c 6f89 34bc
00000260: 36e3 bc3d 89b4 e23c fbad f63d d0a4 9c3d
00000270: 93ac f43d cf51 0b3d 8f3b 8abd 758c 233c
00000280: 16bb 85bc 3f13 a13d 9468 903c 7838 9b3d
00000290: 8973 0b3e 45c1 763d 58ae 5a3e 6629 503e
000002a0: 5735 b6bc 6f07 2b3e 0e48 11be 9ef0 11be
000002b0: 2f99 aebc d57c 99bd 48ff 0bbe 665b a2bd
000002c0: ecda acbd 8d5c a9bd 4365 14be cc89 16be
000002d0: a2dd f4bd 51ae d1bd a3e2 3abd 91c1 0a3e
000002e0: 622c da3d 0240 e5bc e0b5 dcbd ebed 01bb
000002f0: 96d5 31be b559 61be aa70 e9bc 0dd3 29bd
00000300: 8f2d e53d 14e0 9a3e 9fd9 ba3d 178a 443e
00000310: 031c 5c3c 13a1 ab3d 01e3 7dbd 5e12 a3be
00000320: bdd8 2bbe 84e1 32be dc44 5dbe 1063 363a
00000330: c9f8 babd 7129 e4bd d82d f8bd 79cc 37be
00000340: 0899 1fbe 3a8c 90bd b835 d03c 6ca1 863c
00000350: 44d2 223c 633d 49bc b443 d9bd aa7d 12be
00000360: 16a7 24be 1c25 59bd fba2 38bc 41ca 19be
00000370: a137 c5bc 6ecc 403e aeab 6e3d 6834 323e
00000380: 54c8 c53c 784a fd3d 08f5 4ebd da33 43be
00000390: d555 0ebe 41fc 04be 5bb2 08be 2770 6ebc
000003a0: e240 48be d76d 77bd f5b2 91bd 0e86 05be
000003b0: cba8 b7bd cdf1 98bc 19d9 05bd a194 96bc
000003c0: 7c83 303c 2a05 f3bc 7229 55be e031 2dbe
000003d0: e2d1 e1bd 7444 49be ff03 15be e490 503d
000003e0: e41d 0abe a234 03be 748d b63a 883d 0d3e
000003f0: 58e3 293d c220 04be d9bb 29bd 6a12 923d
0.017811516 0.02870034 -0.018704712 0.02721228 -0.028382476 -0.00470815 0.00972687 -0.017393952
-0.033382762 0.009174948 -0.030386884 -0.026991233 0.052814778 0.04914601 0.09527686 0.01438115
-0.022307057 0.013329553 0.020467129 0.0072398745 0.007574967 -0.02333439 0.008291585 -0.0007917413
0.01837636 -0.0015195821 -0.016895857 0.02937802 -0.0020281035 0.00688925 0.02071224 0.02714038
0.01914738 0.05744697 0.10387447 0.1026054 0.090908706 0.12045204 0.14902052 0.16000065
0.105196185 -0.028162463 -0.08039086 0.10837425 0.21284229 0.1392521 0.07949905 0.18606563
0.1386798 0.01946284 0.09148855 0.09040331 -0.030163463 -0.02849605 0.023353318 0.033890598
-0.02880395 0.0017806846 0.07814324 -0.010459791 0.03871103 0.20934865 0.15458097 0.21276699
0.3977016 0.5189186 0.431738 0.32174873 0.17448543 0.06851086 0.10891313 0.23764539
0.19595405 0.16008657 0.1651463 0.028015276 0.108564176 0.19914594 0.19091775 0.23376364
0.25929183 0.14833279 0.0037793901 -0.024614412 0.00020539336 -0.034028184 0.22560346 0.08687962
0.1183731 -0.008821256 0.15068722 0.023698429 0.018226977 0.18328798 -0.0029359122 0.02415663
0.051783893 0.08958996 -0.07066461 0.026739417 0.13584794 -0.03259355 0.061879642 0.01621352
-0.2759323 0.077957585 0.21015118 0.31148565 0.14087799 -0.0025418955 0.070070036 -0.024839675
-0.009546515 -0.030316873 -0.012968599 -0.23610863 -0.07714479 0.07995231 0.19324274 0.08975593
0.14104038 0.12459475 0.08948786 0.044799503 0.07246779 0.007005626 0.02721666 -0.026131036
0.057825457 -0.058961686 -0.078304164 0.061920956 -0.015495049 -0.105628796 -0.087891266 0.08949044
-0.0753269 -0.047958706 0.052331034 0.2246227 0.03157133 -0.019978022 0.16114524 -0.0322616
0.123631865 0.1190558 0.026670251 -0.0053886063 0.07612331 0.01539983 0.023527427 -0.011019095
0.092230245 0.027673976 0.12044903 0.07648623 0.119469784 0.034013566 -0.06749641 0.009982218
-0.016324561 0.07864999 0.017627992 0.0757913 0.13618292 0.06024291 0.2135557 0.20328292
-0.022242231 0.16702054 -0.14187643 -0.14251944 -0.021313278 -0.07494513 -0.13671601 -0.07927589
-0.084401935 -0.08269606 -0.14491753 -0.14701003 -0.119563356 -0.10238326 -0.045626294 0.13550402
0.106529966 -0.027984623 -0.107768774 -0.0019825648 -0.17366633 -0.22006877 -0.028496105 -0.04146104
0.1119033 0.30249083 0.09123539 0.19193302 0.013434413 0.08380332 -0.061984066 -0.3184995
-0.16781898 -0.1746884 -0.21608299 0.00069575105 -0.09129483 -0.11140717 -0.12118119 -0.17949094
-0.1558572 -0.07057996 0.02541624 0.016434394 0.009937827 -0.012282702 -0.106086165 -0.1430575
-0.16079363 -0.053013906 -0.011269326 -0.1501856 -0.024074377 0.18827984 0.058269195 0.17402804
0.024143375 0.123677194 -0.05052665 -0.19062749 -0.1389993 -0.12986852 -0.13349287 -0.014553106
-0.19556001 -0.060407486 -0.071142115 -0.13039419 -0.089677416 -0.018669987 -0.032677744 -0.018381419
0.010773536 -0.029665548 -0.20816591 -0.16913557 -0.1102636 -0.19655019 -0.14552306 0.05091943
-0.13487965 -0.12813047 0.0013927654 0.13793004 0.041476578 -0.12903121 -0.04143891 0.071324185

fc1.bias f4 [64]
00000000: bd03 833d 637f 6f3d 68b6 debe bbb7 823d
00000010: 64fd 88bd e793 41be 53fc dd3d 6ee1 943e
00000020: ba78 f13d c352 b6be a0a5 9c3d 6db8 2ebe
00000030: 273a dcbd 682d 3cbd a2bb 0dbe 5964 17be
00000040: 7ba7 c2bd de16 ee3d d872 9f3e d104 343e
00000050: 12a8 75be 89c7 0dbe 21b3 9d3e d29e 94bd
00000060: b63a 603e e33f 313e e807 91be c4c9 d43e
00000070: 7ed3 adbd faa8 993d 179c 9a3e 27c4 8bbe
00000080: 3f7f 4cbe a5ce 9abd af6a 263e 68a9 273e
00000090: 4861 49be 340c 433e 494e c23e cb91 89be
000000a0: bab2 ae3d 13ab f13d dc9c babd 7ba5 363e
000000b0: ec18 923d 9e67 6abe cf93 1cbe 676f 48be
000000c0: 73f2 83be c80a 823c 395d 4bbe 125b 91bd
000000d0: e431 1f3d 247e 12be 9150 873e 4083 9bbc
000000e0: 9c6e 103e 6457 f43c c390 f3bd 495d 0d3e
000000f0: 9709 2e3d 3197 1c3c 2518 693e aef1 d8bd
0.063971974 0.058471095 -0.4349854 0.063827 -0.066889554 -0.18904077 0.10839143 0.2907824
0.11790605 -0.35610017 0.07648778 -0.1706254 -0.10753279 -0.04594174 -0.13841107 -0.14784373
-0.095046006 0.11625455 0.31142306 0.17579962 -0.23989895 -0.13845648 0.30800727 -0.07256855
0.21897396 0.17309527 -0.28326344 0.41560185 -0.084876046 0.07502933 0.30197212 -0.2729809
-0.19970416 -0.075589456 0.16251634 0.16373217 -0.19666016 0.19047624 0.37950352 -0.26869044
0.08530183 0.11800208 -0.0911195 0.17836563 0.0713366 -0.2289109 -0.1529076 -0.19573747
-0.25770912 0.015874282 -0.1985978 -0.070974484 0.03886594 -0.14305931 0.26428655 -0.018983483
0.14104694 0.029826827 -0.118928455 0.13805117 0.042489614 0.009557531 0.22763117 -0.10592972

fc2.weight f4 [10, 64]
00000000: 69bd 8abe 89a6 903d 42c0 403e d02c 083e
00000010: 8a40 a5be b664 293e 239e 85bd 9b3a 0abf
00000020: 1ae1 dbbd 5168 353e 080a f2be e187 5f3e
00000030: 8e38 253e 06cd c2be 51de 03be d613 98be
00000040: c054 d03d bb3a e3bd 599c 2c3e c069 d33e
00000050: 1703 d63d ed49 de3e 63cf b13d 870b 6a3d
00000060: 0879 5cbf 77c9 50bf 7b3b 8a3e 2ce1 7fbe
00000070: b3a6 053d 9434 7e3e 7184 cd3e bcbc 7d3e
00000080: be5c 73bf 61c8 1d3e f45e 16be 2831 903e
00000090: ec12 4e3e dbbb 993d a621 a2bd 83fa 873e
000000a0: 1e5f dbbe 315a 72be 065b 073e bab7 e6be
000000b0: 47f2 473d 2ebf 06be 3b62 9bbc 3b2a a23e
000000c0: cd1b b03e d677 253e 4b6a 2dbc 1ba7 033d
000000d0: c494 82be 1a79 82be 318d f1bb b639 883d
000000e0: 521a 8ebd c84d e5be 44d5 d13d 5800 b03d
000000f0: 3804 923c c9a7 62be 3c5d 9cbe ea9b aebe
00000100: 556e 403e 4222 973e 5f7e e4be b2d4 b1bd
00000110: 86a2 c93e d1cd d6be 0528 f5bd 9899 133f
00000120: 6fb0 1b3e 74ce 01bf b27b adbe 2791 efbe
00000130: a730 2f3e fdfd 63be 23a6 3fbe 1511 44be
00000140: aafd 06bd 01d2 1a3e d831 aabe bc11 2a3e
00000150: 0145 b03c 45ef 233e 4ab6 b83e 5efe e6bc
00000160: 2044 313e 67ca 713d dfb6 cd3c 5103 823e
00000170: 106f b9be c522 cfbc c7d4 063f fa0c 54be
00000180: aea9 7b3d cb3c 31bd 575d 133f 01e3 85be
00000190: 35bf 5c3e 9175 4abe 7530 213d b4fc fdbe
000001a0: bf4e 543d 3043 03bf e1a0 003e 96b3 133f
000001b0: 66c9 20bf 1c2e c7bd ed94 ba3d d7a4 e63e
000001c0: 5f45 ebbe ee7a df3d 4010 3dbf 40ec 1ebd
000001d0: c1d6 7f3e b0f0 d73e edb6 833e 5bdc 0cbe
000001e0: 504c c53e c739 0c3e 231e f3be 2a28 5abd
000001f0: a586 e7be 2f8a f23d 2505 723e 690d 0c3e
00000200: f7c6 a03e 459b 9c3e f543 17be 22a2 ce3e
00000210: 01b7 de3e c051 81bd 7f1f adbe 3ac6 e6bd
00000220: 43d6 14be 3932 55be 7758 a1be 409a 333e
00000230: 0ec5 933d 06e3 5f3e 938f 413d e03a 023e
00000240: ff1a 04be a021 d13e d5b7 35bc 978d 763e
00000250: 8e74 8dbf f9f8 4a3e c4f6 663e c95c 31bf
00000260: 851f 80bd 3d90 b73d 4c6a 953e 21d2 a03e
00000270: 7c2a a33d 4d3b 79bc ad06 00be 6d37 39be
00000280: 4071 54be d089 a43d c49c b83e 4dbd 11bf
00000290: 5d0f 963e 373b 593e 53f4 9f3e 7544 2a3c
000002a0: 9807 38be 1501 3abe 72e1 583e 82d0 d33e
000002b0: 5bc4 aa3e e7fa 983d 71d9 11be 2b88 a33e
000002c0: 2568 9e3e 5e0c f23d be7e cbbc a1de 2bbd
000002d0: a45a 16bf 3a6f 79be a574 a03d 9295 87bd
000002e0: b8cd a23e 81c7 213f f81f a93e 482f 2cbf
000002f0: c013 f5bd b437 8e3e d9c1 48bf a31a 0a3e
00000300: d850 7fbe ad44 883d 5515 72bd ef87 973e
00000310: 3969 ba3e 9368 bd3d a0c2 2fbf 9984 fabe
00000320: fadf ffbe 9f37 543e ac23 323e 61d2 b03d
00000330: 6cd1 ec3e c983 643e f2ba 403e eeb6 ad3d
00000340: 0a34 74be fdda 1a3e 584f 4ebd ca8e 4dbe
00000350: 9f0b 4d3e 27e6 40be 09bb 2fbd a4b0 393e
00000360: 7f58 a63e f9e5 293e aee9 81bd e919 d4bd
00000370: 207f b9be 4ef2 39bf 1e2b 183d bc79 0c3d
00000380: bd7c 153e 1277 203e 760d 00bf 7c43 46be
00000390: 65f8 19bf 5fa6 1fbe 9b85 21bf cb97 86be
000003a0: b2e9 253e 1ccb 033f f5fc 493e 4f5f cd3d
000003b0: 1443 eb3c a428 293d 10a9 333e e758 af3d
000003c0: 1081 d03d 08ba cfbe 6e06 39bd 4d04 bdbd
000003d0: 105f 02be 2f88 f23e 96c1 e23e b67c ba3e
000003e0: badb 3cbc b6ab 8ebe 91ae 3a3e d519 093f
000003f0: 66d2 05bd ac2b 483e e207 03bf 0d9f 64bb
-0.27097633 0.07063014 0.1882334 0.13298345 -0.32275802 0.16542324 -0.06524303 -0.53995675
-0.10736294 0.17715575 -0.47273278 0.21829177 0.16134855 -0.38047045 -0.12877776 -0.29702634
0.10172415 -0.11095186 0.16856517 0.41291618 0.10449808 0.43415776 0.08682134 0.0571399
-0.8612218 -0.8155741 0.26998505 -0.2498824 0.03262968 0.24824744 0.40140107 0.24779028
-0.9506339 0.1540847 -0.14684659 0.28162503 0.20124406 0.07506534 -0.07916574 0.26558313
-0.42846006 -0.23667218 0.13218316 -0.45062047 0.048815038 -0.13158867 -0.018967738 0.31672844
0.3439621 0.16158995 -0.010584424 0.032141786 -0.25504124 -0.25483018 -0.0073715677 0.066516325
-0.06938614 -0.44785905 0.10245755 0.085938156 0.017824277 -0.22134317 -0.30539882 -0.34103328
0.18792088 0.29518324 -0.44627663 -0.086831465 0.39381808 -0.419539 -0.11970524 0.5765624
0.15204023 -0.5070565 -0.33883435 -0.4679043 0.17108403 -0.22264858 -0.1871572 -0.19147141
-0.032956757 0.15119173 -0.33241153 0.16608328 0.021517279 0.16009243 0.36076576 -0.028197464
0.17311144 0.059030917 0.025111614 0.25393155 -0.36217546 -0.025285134 0.5266842 -0.20708075
0.061441116 -0.043270867 0.575643 -0.26149753 0.21557315 -0.1977141 0.039352853 -0.4960686
0.05183291 -0.51274395 0.1256137 0.576959 -0.6280731 -0.097255915 0.091104366 0.45047638
-0.45951363 0.10912119 -0.7385292 -0.038799524 0.24984266 0.42175817 0.257255 -0.13755934
0.38534784 0.13693915 -0.4748393 -0.05326096 -0.45219913 0.11842763 0.23634775 0.1367699
0.31401798 0.3058721 -0.14772017 0.40358073 0.43498996 -0.06314421 -0.33813092 -0.112682775
-0.1453486 -0.2081994 -0.31512806 0.1753931 0.072153196 0.21863946 0.047256064 0.12717772
-0.12900923 0.40845966 -0.011091192 0.2407745 -1.1051195 0.19821538 0.22555071 -0.69282204
-0.06256012 0.08963058 0.2918266 0.31410316 0.079670876 -0.015211892 -0.12502547 -0.1808755
-0.20746326 0.08034098 0.36057103 -0.56929475 0.29308596 0.21213995 0.31241092 0.010392298
-0.17971647 -0.18164475 0.2117975 0.41370016 0.33352932 0.07469731 -0.14243104 0.31939825
0.3093883 0.11818765 -0.024840709 -0.041960362 -0.58732057 -0.24358836 0.07834748 -0.06620325
0.31797576 0.63195044 0.33032203 -0.67259645 -0.11966658 0.27776873 -0.7842079 0.13486724
-0.24933183 0.06653724 -0.059102375 0.29595897 0.36408404 0.092484616 -0.6865635 -0.4892929
-0.49975568 0.20724343 0.1739642 0.086338766 0.46253526 0.22315897 0.18821314 0.08482157
-0.23847976 0.151226 -0.050368637 -0.20074001 0.20023964 -0.18837796 -0.04290298 0.1813379
0.32489392 0.16591634 -0.06343399 -0.103565045 -0.362298 -0.7263535 0.037150495 0.034295782
0.14598365 0.15670422 -0.5002054 -0.19361681 -0.60144645 -0.1559081 -0.6309449 -0.26287684
0.16202429 0.51481795 0.19725402 0.10027944 0.028718509 0.041298524 0.17544961 0.08561879
0.10180867 -0.40571618 -0.045172147 -0.09229336 -0.12731576 0.47369525 0.4428832 0.36423272
-0.011526996 -0.2786538 0.18230654 0.5355504 -0.032671355 0.1954791 -0.51183903 -0.003488484

fc2.bias f4 [10]
00000000: e069 6ebe c989 183e ae4b 2e3d 7922 00be
00000010: ad40 fabd 6438 793e 1682 34be cdd2 0e3e
00000020: 39c0 08be 1db8 80bd
-0.23282576 0.14896311 0.042552643 -0.1251315 -0.12219367 0.24337918 -0.17627749 0.13947602
-0.13354577 -0.06285117
