models/model_epoch17.pth (torch, 205023 bytes, 4 tensors)

fc1.weight f4 [64, 784]
0	0x3c91e975	0.017811516
1	0x3ceb1cfa	0.02870034
2	0xbc993aa0	-0.018704712
3	0x3cdeec4a	0.02721228
4	0xbce8825e	-0.028382476
5	0xbb9a46d3	-0.00470815
6	0x3c1f5d73	0.00972687
7	0xbc8e7dc3	-0.017393952
8	0xbd08bc5d	-0.033382762
9	0x3c165285	0.009174948
10	0xbcf8edea	-0.030386884
11	0xbcdd1cb8	-0.026991233
12	0x3d3e9569	0.046529207
13	0x3d5d389e	0.054009072
14	0x3decbb8d	0.1155921
15	0x3c9f8238	0.019471273
16	0xbcb6bd4a	-0.022307057
17	0x3c5a6433	0.013329553
18	0x3ca7aaae	0.020467129
19	0x3bed3c78	0.0072398745
20	0x3bf8376e	0.007574967
21	0xbcbf27c3	-0.02333439
22	0x3c07d96e	0.008291585
23	0xba4f8cdc	-0.0007917413
24	0x3c968a05	0.01837636
25	0xbac72cb7	-0.0015195821
26	0xbc8a692e	-0.016895857
27	0x3cf0aa2c	0.02937802
28	0xbb04e9ee	-0.0020281035
29	0x3be1bf38	0.00688925
30	0x3ca9acb7	0.02071224
31	0x3cde5581	0.02714038
32	0x3c9e1cf7	0.01930092
33	0x3d6c813d	0.05774044
34	0x3dd50382	0.1040106
35	0x3dcff480	0.101540565
36	0x3dca0342	0.09863903
37	0x3e0edaca	0.13950649
38	0x3e570fc3	0.21002106
39	0x3e7e3fa1	0.2482896
40	0x3e5b8e94	0.21441108
41	0x3bfa6aeb	0.00764214
42	0xbe2b4568	-0.16725695
43	0x3d2fb379	0.042895768
44	0x3e7544f6	0.23952088
45	0x3e5018ba	0.20321932
46	0x3e4bcedf	0.19903134
47	0x3e43a242	0.19104865
48	0x3d2224b9	0.039585803
49	0xbd8b4bfc	-0.06801602
50	0x3d86358a	0.065531805
51	0x3db85507	0.09000593
52	0xbcf7195e	-0.030163463
53	0xbce9708c	-0.02849605
54	0x3cbf4f75	0.023353318
55	0x3d0ad0de	0.033890598
56	0xbcebf643	-0.02880395
57	0x3ae965dc	0.0017806846
58	0x3d9a04e5	0.07520465
59	0xbd9bf90f	-0.076158635
60	0x3d1f13e0	0.038837314
61	0x3ea1c817	0.3159797
62	0x3e83de74	0.25755656
63	0x3e9aa538	0.30204177
64	0x3f0e66f1	0.55625826
65	0x3f2a6096	0.6655363
66	0x3f0db4b4	0.55353856
67	0x3ef97655	0.48723093
68	0x3e44c4ab	0.19215648
69	0xbd01ad02	-0.031659134
70	0x3e4d70a7	0.20062505
71	0x3e9e6029	0.3093274
72	0x3e35e697	0.17763744
73	0x3e465eb1	0.1937206
74	0x3e074dba	0.13213244
75	0xbdc09759	-0.09403867
76	0x3d825ac6	0.0636497
77	0x3eac831b	0.33693776
78	0x3e91b426	0.28457755
79	0x3e9b019b	0.30274662
80	0x3ea88bb2	0.3291908
81	0x3e193844	0.1496287
82	0x3b77afa5	0.0037793901
83	0xbcc9a42a	-0.024614412
84	0x39575edc	0.00020539336
85	0xbd0b6123	-0.034028184
86	0x3ea2745d	0.31729403
87	0x3d9fabc6	0.07796435
88	0x3e46276d	0.19350977
89	0x3db21747	0.08695846
90	0x3e95e23a	0.2927416
91	0x3da0308d	0.0782176
92	0xbd5115f5	-0.05104633
93	0x3e26fd81	0.16307642
94	0xbe32c3ef	-0.17457555
95	0x3cb28d1f	0.021795807
96	0x3e4e908a	0.20172325
97	0x3e2703d0	0.16310048
98	0xbcefab8d	-0.029256606
99	0x3db4d28d	0.08829222
100	0x3e3ab1ae	0.18231842
101	0x3ca21873	0.019787049
102	0x3de929ea	0.113849476
103	0x3e0f8c68	0.14018404
104	0xbed352c7	-0.41274092
105	0x3e106937	0.14102636
106	0x3ec3736c	0.38173997
107	0x3ed12c93	0.4085432
108	0x3e13c50f	0.1443064
109	0xbdf33383	-0.118750595
110	0x3dcbaf84	0.09945586
111	0xbccb7c93	-0.024839675
112	0xbc1c68fc	-0.009546515
113	0xbcfad4b9	-0.030619012
114	0x3db18dbe	0.08669613
115	0xbebe1d3a	-0.37131673
116	0xbe318f04	-0.17339712
117	0x3e5b420f	0.21411918
118	0x3ebcd519	0.3688133
119	0x3e56620a	0.20935836
120	0x3e7d0cdf	0.24711941
121	0x3e366704	0.17812735
122	0x3dce1298	0.1006214
123	0x3dbf092b	0.093279205
124	0x3dd50601	0.10401536
125	0xbcdd9043	-0.027046328
126	0xbd202482	-0.039097317
127	0xbdd1a476	-0.102364466
128	0x3c20f50d	0.00982405
129	0xbe47e8e1	-0.1952243
130	0xbe5d5b63	-0.21616893
131	0x3d8f1ddc	0.06988117
132	0xba8f376c	-0.0010926551
133	0xbe16b6da	-0.1471819
134	0xbdc8812a	-0.09790261
135	0x3e912a08	0.2835238
136	0x3bdd5b90	0.0067553
137	0xbd1585d5	-0.036504585
138	0xba0dc52c	-0.0005408104
139	0x3ea5c26e	0.323749
140	0x3d0150f0	0.03157133
141	0xbca3a8f3	-0.019978022
142	0x3e888ad9	0.26668432
143	0xbcb149b7	-0.021641595
144	0x3e11fae7	0.14255868
145	0x3e8810a6	0.26575202
146	0x3e023efd	0.1271934
147	0x3d6e53fb	0.05818556
148	0x3e8136db	0.25237164
149	0x3dd006c1	0.10157538
150	0x3ddbc597	0.10731047
151	0x3bdf23da	0.0068096938
152	0x3dc9d445	0.0985494
153	0x3c5a985d	0.01334199
154	0x3e17f243	0.1483851
155	0x3cdf30d2	0.027244959
156	0x3e2a4080	0.16626167
157	0x3c0445cb	0.008073281
158	0xbe239dfd	-0.15978236
159	0x3bac09c0	0.0052501857
160	0xbd190076	-0.037353955
161	0x3e4d9f41	0.20080282
162	0x3dcc57e8	0.09977704
163	0x3e7594bd	0.2398252
164	0x3e624725	0.22097452
165	0x3e195834	0.14975053
166	0x3e9c563b	0.3053454
167	0x3e99a99a	0.30012208
168	0xbcb63557	-0.022242231
169	0x3e44aff5	0.19207747
170	0xbdcf5d93	-0.1012527
171	0xbe220045	-0.15820415
172	0xbd91c0d4	-0.07116857
173	0xbdf8b2b5	-0.12143461
174	0xbe044c7f	-0.12919806
175	0xbd1b3a3e	-0.03789734
176	0xbd39c2c5	-0.045351762
177	0xbdb86137	-0.09002917
178	0xbe220716	-0.15823016
179	0xbe40331d	-0.18769498
180	0xbe0ad2ba	-0.13556948
181	0xbe320de1	-0.17388107
182	0xbd8eb082	-0.0696726
183	0x3e8841d0	0.2661271
184	0x3e654297	0.22388683
185	0xbd9e035a	-0.07715483
186	0xbe2cb6a4	-0.16866547
187	0x3c970df4	0.01843927
188	0xbe68a7e6	-0.22720298
189	0xbea7b5e5	-0.32755962
190	0x3ce15f60	0.027511299
191	0x3ce106d1	0.02746907
192	0x3e3989ac	0.18118924
193	0x3ed82c96	0.42221516
194	0x3e2cb997	0.16867672
195	0x3e9ca86f	0.30597255
196	0x3c5c1be9	0.013434389
197	0x3d80f331	0.06296385
198	0x3ca78671	0.020449849
199	0xbf036a98	-0.51334524
200	0xbe03a4ca	-0.12855831
201	0xbe014597	-0.12624203
202	0xbea960db	-0.33081707
203	0xbb427286	-0.0029670312
204	0xbe163b3d	-0.14671035
205	0xbe19b1c9	-0.15009226
206	0xbe05544d	-0.1302044
207	0xbe5411f4	-0.20709974
208	0xbe549785	-0.20760925
209	0xbdec3dc0	-0.115352154
210	0x3da7d748	0.081953585
211	0x3debc892	0.11512865
212	0x3de394b2	0.11112346
213	0x3c919958	0.017773315
214	0xbe31fd48	-0.17381775
215	0xbe7346f0	-0.2375753
216	0xbe5fdbe7	-0.2186123
217	0xbe1e127c	-0.15436739
218	0xbcda37ec	-0.026637994
219	0xbe33705e	-0.17523333
220	0x3ca753bc	0.02042567
221	0x3ec4cbd5	0.38436761
222	0x3dcb8b89	0.099387236
223	0x3e92be24	0.2866069
224	0x3e19ecde	0.15031764
225	0x3e7dfc8f	0.24803375
226	0xbdb4c43b	-0.088264905
227	0xbebabf58	-0.3647411
228	0xbcac1689	-0.02100684
229	0xbdf033e0	-0.11728644
230	0xbe69eaea	-0.22843519
231	0xbd858609	-0.06519706
232	0xbea285c6	-0.31742686
233	0xbdab287e	-0.08357333
234	0xbd8a60c8	-0.06756741
235	0xbe3416b2	-0.17586783
236	0xbdeb8e2f	-0.11501729
237	0xbca70c51	-0.020391615
238	0x3c95655c	0.018236808
239	0x3d900840	0.070328236
240	0x3d940f46	0.07229476
241	0xbd0e21c9	-0.03470019
242	0xbe8c932b	-0.2745603
243	0xbe6bdd36	-0.23033604
244	0xbe15d7eb	-0.14633147
245	0xbeaaaaa0	-0.33333302
246	0xbe74caa3	-0.23905425
247	0x3de9bc7d	0.114129044
248	0xbe459d31	-0.19298245
249	0xbe2e8c44	-0.17045695
250	0xbd1f0e3b	-0.03883193
251	0x3e03910d	0.12848301
252	0x3d2d45d6	0.04230293
253	0xbe2afb50	-0.1669743
254	0x3d54a679	0.051916573
255	0x3cf050e2	0.029335443

fc1.bias f4 [64]
0	0x3d938981	0.07203961
1	0x3d74a798	0.059730142
2	0xbeeb0aa2	-0.4590655
3	0x3cbb6764	0.022876449
4	0xbe13b0db	-0.14422934
5	0xbe4c6062	-0.19958642
6	0x3e4c037c	0.19923204
7	0x3e85b70a	0.2611621
8	0x3da69b71	0.08135117
9	0xbecf2064	-0.404544
10	0x3db2f08c	0.08737287
11	0xbe0d8daa	-0.13823572
12	0xbe21d7ee	-0.15805027
13	0x3d64be12	0.055845328
14	0xbde854de	-0.11344312
15	0xbd946fd2	-0.072478905
16	0xbe0df292	-0.13862064
17	0x3e023dd0	0.12718892
18	0x3eae5b25	0.34053913
19	0x3e43951f	0.19099854
20	0xbe8ffdeb	-0.28123412
21	0xbe2b6662	-0.16738275
22	0x3ecb4e02	0.39707953
23	0xbd5cd0a4	-0.053909913
24	0x3e94d447	0.29068205
25	0x3e58e0f3	0.21179561
26	0xbec097bb	-0.3761576
27	0x3ef90d49	0.48642948
28	0xbd121414	-0.03566368
29	0x3d323b5f	0.043513652
30	0x3e9c9dc9	0.3058913
31	0xbe94c7ab	-0.29058585
32	0xbe7d6659	-0.24746074
33	0xbe463107	-0.1935464
34	0x3e5eb03c	0.21746916
35	0x3e64196f	0.22275327
36	0xbe4c3e9c	-0.19945759
37	0x3de3759a	0.11106415
38	0x3eb54fed	0.3541254
39	0xbe8fbca6	-0.28073615
40	0x3e11804a	0.14209095
41	0x3e2780f7	0.1635779
42	0xbe078975	-0.1323603
43	0x3e6ed7e1	0.23324539
44	0x3daa990f	0.08329975
45	0xbe4a6086	-0.19763383
46	0xbe60635d	-0.21912904
47	0xbe805cab	-0.250707
48	0xbe3c5d53	-0.18394975
49	0xba3c39a6	-0.0007180221
50	0xbe35c462	-0.17750695
51	0xbdb810c3	-0.08987572
52	0xbc400fed	-0.011722547
53	0xbe475434	-0.19465715
54	0x3e86ed25	0.26352802
55	0xbd042a7c	-0.03226708
56	0x3d8e8be8	0.06960279
57	0x3a2b205e	0.00065279554
58	0xbdf7f73a	-0.121077016
59	0x3e289eb6	0.16466793
60	0x3da1a4d3	0.07892766
61	0xbd1a3a98	-0.037653536
62	0x3e7813a2	0.2422624
63	0xbda9c441	-0.082893856

fc2.weight f4 [10, 64]
0	0xbeacf3fe	-0.337799
1	0x3e26813d	0.16260238
2	0x3e59f4c2	0.21284774
3	0x3d703d07	0.05865195
4	0xbed1256a	-0.40848857
5	0x3e2c18df	0.16806363
6	0xbd855992	-0.06511225
7	0xbf2e2fff	-0.68041986
8	0xbe1ac246	-0.15113172
9	0x3e7d1736	0.24715886
10	0xbf34865b	-0.7051751
11	0x3e8157d7	0.2526233
12	0x3e40aea1	0.18816616
13	0xbf063c8b	-0.5243613
14	0xbe49ca27	-0.19706021
15	0xbf0e5082	-0.55591595
16	0x3e070dd3	0.13188867
17	0xbe9f1d80	-0.31077194
18	0x3e9692bf	0.29408833
19	0x3f14cdff	0.58126825
20	0x3e2a3489	0.16621603
21	0x3f039963	0.51405925
22	0x3dbaa31e	0.091131434
23	0x3b144a76	0.002262739
24	0xbfa16b2d	-1.2610832
25	0xbf99f861	-1.2028924
26	0x3eaa98aa	0.33319598
27	0xbe8fe683	-0.28105554
28	0xbd116b9a	-0.035503007
29	0x3e9f8329	0.31154755
30	0x3f0f2ade	0.55924785
31	0x3eabd05f	0.33557412
32	0xbfa04d60	-1.2523613
33	0x3e1ec8dc	0.1550631
34	0xbe250a44	-0.16117197
35	0x3e99e84e	0.30060047
36	0x3e86fda1	0.26365378
37	0x3d4f1c29	0.050563965
38	0xbe42ed1d	-0.19035764
39	0x3ed93b15	0.4242789
40	0xbf32023a	-0.6953465
41	0xbeba5d90	-0.36399508
42	0x3e3b5790	0.18295121
43	0xbf0aee3d	-0.5426977
44	0xbb8eaaba	-0.0043538483
45	0xbe1df584	-0.15425688
46	0xbd3f318c	-0.04667811
47	0x3ee3f41a	0.44522172
48	0x3ee621db	0.44947705
49	0x3d8d8fa4	0.06912163
50	0xbcafb75b	-0.021449735
51	0xbcdf2bc1	-0.027242543
52	0xbe8931e9	-0.2679589
53	0xbebab512	-0.3646627
54	0xbcb5f0dc	-0.022209577
55	0x3d872539	0.065988965
56	0xbdfc11f1	-0.123081096
57	0xbf241b31	-0.6410399
58	0x3dccbbf4	0.09996787
59	0x3dd00c1b	0.10158559
60	0xbc405254	-0.011738379
61	0xbe85520f	-0.26039168
62	0xbec31b6e	-0.38106865
63	0xbefacb50	-0.4898324
64	0x3e29a554	0.16566974
65	0x3e982314	0.29714262
66	0xbf31c905	-0.69447356
67	0xbe20dcaf	-0.15709184
68	0x3ee3d834	0.44500887
69	0xbf27212b	-0.65284985
70	0xbe27a249	-0.163705
71	0x3f579dea	0.8422533
72	0x3e1b702e	0.15179512
73	0xbf4d544c	-0.8020675
74	0xbeae1baf	-0.34005496
75	0xbeff1fa7	-0.49828836
76	0x3e4a53e4	0.19758564
77	0xbea49cc2	-0.32150847
78	0xbe1543f0	-0.14576697
79	0xbea79c65	-0.32736507
80	0x3cc9bded	0.024626696
81	0x3e270177	0.16309153
82	0xbec624f2	-0.38700062
83	0x3e984ca8	0.29745984
84	0xbcc5f73a	-0.024165738
85	0x3e2deded	0.16985293
86	0x3ef2cc32	0.47421414
87	0xbdcd47e4	-0.10023478
88	0x3e65ff89	0.2246076
89	0x3d9f4855	0.07777468
90	0x3d63cff5	0.055618245
91	0x3eadcae7	0.33943865
92	0xbf0a0493	-0.5391323
93	0x3e1479b5	0.14499553
94	0x3f2f10bd	0.68384916
95	0xbe8073af	-0.2508826
96	0x3da4ff1a	0.08056469
97	0xbca78921	-0.02045113
98	0x3f568854	0.8380177
99	0xbe8bb496	-0.27286214
100	0x3e813a14	0.25239623
101	0xbe2e90ef	-0.17047475
102	0x3dba2e35	0.090908445
103	0xbf3b9dde	-0.7328776
104	0x3d82e5e1	0.06391502
105	0xbf2d373f	-0.67662424
106	0x3deede83	0.116635345
107	0x3f52bf9f	0.8232364
108	0xbf5548a4	-0.83313966
109	0xbdc06d69	-0.09395868
110	0x3e140f98	0.14459074
111	0x3f0c7f5d	0.5488184
112	0xbf311a49	-0.6918073
113	0x3e765f95	0.24059899
114	0xbf8877ce	-1.0661561
115	0xbd96f65c	-0.07371208
116	0x3e789cc5	0.24278553
117	0x3f0fccf3	0.561721
118	0x3ea3b9d6	0.3197772
119	0xbe3c49d9	-0.18387546
120	0x3f02c237	0.510776
121	0x3e1ad121	0.15118839
122	0xbf14b390	-0.5808649
123	0xbe10ce88	-0.14141285
124	0xbf006f36	-0.50169694
125	0x3e2a40c5	0.1662627
126	0x3e8a239a	0.26980287
127	0x3e4002fd	0.1875114
128	0x3eb0f358	0.34560657
129	0x3ec4b530	0.38419485
130	0xbe802c31	-0.25033715
131	0x3f03b575	0.51448756
132	0x3f13d5e0	0.5774822
133	0xbd6dd0c5	-0.058060426
134	0xbea56951	-0.32306913
135	0xbe540058	-0.20703256
136	0xbe620c6f	-0.22075056
137	0xbe5c3375	-0.21504004
138	0xbefda600	-0.4954071
139	0x3e7954e1	0.24348785
140	0x3dfcb374	0.123389155
141	0x3e9fc99e	0.3120851
142	0x3d523cf2	0.051327653
143	0x3e3656d0	0.17806554
144	0xbe2a3ac6	-0.16623983
145	0x3f09b2ff	0.5378875
146	0xbda8ae34	-0.082363516
147	0x3eb02c2f	0.3440871
148	0xbfb36acc	-1.4016967
149	0x3e84a136	0.25904244
150	0x3e5916a5	0.21200044
151	0xbf3d0924	-0.7384207
152	0xbda64b63	-0.081198476
153	0x3dc8037e	0.09766291
154	0x3ec9d630	0.39421225
155	0x3ec59381	0.385891
156	0x3db5aa9c	0.08870432
157	0xbd571eee	-0.05251973
158	0xbd906046	-0.07049613
159	0xbe8843a3	-0.26614103
160	0xbe4da30a	-0.20081726
161	0x3d55be3f	0.052183386
162	0x3ec5096d	0.38483754
163	0xbf1d063e	-0.6133765
164	0x3ec12dfe	0.37730402
165	0x3e4f6e57	0.20256935
166	0x3eda893f	0.42682835
167	0x3d57b47e	0.052662365
168	0xbe630a06	-0.22171792
169	0xbe702944	-0.23453242
170	0x3e69b424	0.22822624
171	0x3ed7dca2	0.42160517
172	0x3f0fdfb1	0.562007
173	0x3d63c145	0.055604238
174	0xbe44f326	-0.19233379
175	0x3ec36836	0.38165444
176	0x3ed60987	0.41804144
177	0x3e058d31	0.13042141
178	0xbb993bce	-0.0046763187
179	0xbcdbfa6a	-0.026852805
180	0xbf30da85	-0.69083434
181	0xbeab2e22	-0.33433634
182	0x3d998044	0.07495168
183	0xbdf4ad55	-0.11947123
184	0x3e9c1da7	0.30491373
185	0x3f34f64a	0.7068831
186	0x3eb8597c	0.3600577
187	0xbf588377	-0.845756
188	0xbdd67a8a	-0.10472591
189	0x3eac386a	0.3363679
190	0xbf78b626	-0.97152936
191	0x3e50a0a3	0.20373778
192	0xbe7f0c7e	-0.24907109
193	0x3d80aed3	0.06283345
194	0xbb9dffaf	-0.0048217396
195	0x3ec0fea8	0.37694287
196	0x3ed234cc	0.41055906
197	0x3da8642a	0.0822223
198	0xbf5f0262	-0.8711301
199	0xbf2b4cbd	-0.6691397
200	0xbf355f17	-0.7084822
201	0x3e7f974c	0.24960059
202	0x3e88a5bb	0.26688942
203	0x3d5806fc	0.052741036
204	0x3f0f3c59	0.5595146
205	0x3ebd6b5d	0.36995974
206	0x3e343cbe	0.17601296
207	0x3db3b653	0.0877501
208	0xbe989c61	-0.29806808
209	0x3ea46a17	0.3211219
210	0xbd245da1	-0.040128354
211	0xbe8fefc2	-0.28112608
212	0x3e99acea	0.30014735
213	0xbe806298	-0.2507522
214	0xbdbfe829	-0.09370453
215	0x3e8e0b1c	0.2774285
216	0x3eca82a2	0.3955279
217	0x3e0237b2	0.12716559
218	0xbd6e58f3	-0.058190297
219	0xbe8b9fa3	-0.2727023
220	0xbf48213a	-0.781757
221	0xbf8101ac	-1.0078635
222	0x3d226203	0.039644253
223	0x3d4dd2c7	0.05024984
224	0x3e2e7315	0.17036088
225	0x3e37b81f	0.1794133
226	0xbf290f8d	-0.66039354
227	0xbe3f295b	-0.1866812
228	0xbf4e5c1a	-0.80609286
229	0xbe798956	-0.24368796
230	0xbf440181	-0.76564795
231	0xbea702ab	-0.32619223
232	0x3e6e257e	0.2325649
233	0x3f28874b	0.6583144
234	0x3e65303c	0.22381681
235	0x3de52d29	0.11190254
236	0xbc7154c8	-0.014729686
237	0x3d1c454e	0.03815203
238	0x3e992320	0.2990961
239	0x3db13a4d	0.08653698
240	0x3e0e64e1	0.1390567
241	0xbf0aeaff	-0.54264826
242	0xbe05d45f	-0.13069294
243	0xbd789f59	-0.06069884
244	0xbe21526f	-0.15754102
245	0x3f0102e7	0.50395054
246	0x3f15e19e	0.5854739
247	0x3ed64dda	0.4185627
248	0xbd32cd23	-0.043652665
249	0xbe8d1a5c	-0.27559173
250	0x3e51a545	0.20473202
251	0x3f18600a	0.59521544
252	0x3c9a730d	0.018853689
253	0x3ece2111	0.40259603
254	0xbf171ae5	-0.5902541
255	0xbc84ed14	-0.016226329

fc2.bias f4 [10]
0	0xbeb8c75d	-0.36089602
1	0x3e0eb75d	0.13937135
2	0x3cff15fb	0.03113841
3	0xbe06e3da	-0.13172856
4	0xbdf43f84	-0.11926177
5	0x3e88951a	0.26676255
6	0xbe49ceaa	-0.19707742
7	0x3e06f65a	0.13179913
8	0xbd7679bc	-0.06017469
9	0xbd4102a4	-0.04712166
