models/model_epoch3.pth (torch, 205023 bytes, 4 tensors)

fc1.weight f4 [64, 784]
000000 75 e9 91 3c fa 1c eb 3c a0 3a 99 bc 4a ec de 3c
       0.017811516 0.02870034 -0.018704712 0.02721228
000010 5e 82 e8 bc d3 46 9a bb 73 5d 1f 3c c3 7d 8e bc
       -0.028382476 -0.00470815 0.00972687 -0.017393952
000020 5d bc 08 bd 85 52 16 3c ea ed f8 bc b8 1c dd bc
       -0.033382762 0.009174948 -0.030386884 -0.026991233
000030 ea d7 6b 3d b2 cb 05 3d 60 ee 44 3d 46 2f 91 bc
       0.05757896 0.032664962 0.048078895 -0.017722737
000040 4a bd b6 bc 33 64 5a 3c ae aa a7 3c 78 3c ed 3b
       -0.022307057 0.013329553 0.020467129 0.0072398745
000050 6e 37 f8 3b c3 27 bf bc 6e d9 07 3c dc 8c 4f ba
       0.007574967 -0.02333439 0.008291585 -0.0007917413
000060 05 8a 96 3c b7 2c c7 ba 2e 69 8a bc 2c aa f0 3c
       0.01837636 -0.0015195821 -0.016895857 0.02937802
000070 ee e9 04 bb 38 bf e1 3b b7 ac a9 3c 81 55 de 3c
       -0.0020281035 0.00688925 0.02071224 0.02714038
000080 58 7f 03 3c bb 52 3f 3d 5d 95 c6 3d b0 d9 ca 3d
       0.008025967 0.046709757 0.096964575 0.09904802
000090 e2 93 ac 3d d1 5b df 3d cc d9 e2 3d 1d f2 bf 3d
       0.08426644 0.109061845 0.11076698 0.09372351
0000a0 59 70 8d 3d 42 54 01 3d f3 3e c7 3c 9e 77 19 3e
       0.06906194 0.031574495 0.024322009 0.14987037
0000b0 f3 da 45 3e 67 cf f8 3d a1 89 8d 3d 6e 8c f3 3d
       0.19321804 0.12148934 0.06911016 0.11892019
0000c0 1c a1 da 3d 49 13 87 3d 83 89 c3 3d 58 43 95 3d
       0.106752604 0.06595475 0.09547713 0.072882354
0000d0 5e 19 f7 bc 8c 70 e9 bc 75 4f bf 3c de d0 0a 3d
       -0.030163463 -0.02849605 0.023353318 0.033890598
0000e0 43 f6 eb bc dc 65 e9 3a 45 de 25 3d 08 00 0f 3d
       -0.02880395 0.0017806846 0.040495176 0.03491214
0000f0 2a d2 3e 3c 88 9c b9 3d f0 d4 a3 3d 8a 6e 23 3e
       0.011646787 0.09063059 0.07999599 0.15960136
000100 03 e5 4f 3e 4c 5c 8b 3e 65 ac 77 3e 66 d9 85 3e
       0.20302205 0.27218854 0.24186857 0.26142424
000110 23 6f 3f 3e ff c1 23 3e 01 43 d3 3d 45 d0 40 3e
       0.18694739 0.15991972 0.10315514 0.18829449
000120 d7 21 0d 3e f1 28 c1 3d 2f ef 04 3e b8 1f e1 3d
       0.1378244 0.09431637 0.12981866 0.10992378
000130 48 96 09 3e 23 2f ca 3d d7 a3 bf 3d 74 0e df 3d
       0.13436234 0.09872272 0.09357422 0.108914286
000140 91 40 1f 3e b5 0c b7 3d a5 af 77 3b 2a a4 c9 bc
       0.15551974 0.089379705 0.0037793901 -0.024614412
000150 dc 5e 57 39 23 61 0b bd 86 f5 e0 3d de bb 9e 3d
       0.00020539336 -0.034028184 0.1098433 0.077506766
000160 41 c8 19 3d 05 3b 66 3c b9 c9 fe 3c ef 16 16 3d
       0.037544493 0.014052157 0.031102048 0.036642965
000170 bf d3 54 3d 63 0a 01 3e 82 fa 8c 3d c8 22 88 3d
       0.05195975 0.12601618 0.06883718 0.06647259
000180 27 c2 4e 3d aa 85 d5 3d 99 66 8e bb 25 6a a2 3c
       0.050478127 0.10425885 -0.0043457267 0.019826004
000190 2d 5a 6e 3d b2 c2 63 bd 61 f2 34 3c 69 b1 1e bd
       0.058191467 -0.055605598 0.011044116 -0.03874341
0001a0 e7 30 c8 bd 6b d4 a2 3c 8b 43 58 3c 1e 3e c1 3d
       -0.097749524 0.01987668 0.013199697 0.09435676
0001b0 e8 e6 56 3d ac 29 30 3d e4 d6 d8 3c 93 7c cb bc
       0.052466303 0.04300849 0.026469655 -0.024839675
0001c0 fc 68 1c bc f3 07 5d bc 93 af d0 bc e1 ab a7 bd
       -0.009546515 -0.013490665 -0.025474345 -0.0818708
0001d0 90 32 2b bc 61 4e f4 3b 64 eb 26 3d f5 66 70 b8
       -0.010449067 0.0074556326 0.04075183 -5.7316345e-05
0001e0 36 4a 46 3d 1b 4e ab 3d 24 d5 8d 3d dd 8f 8f 3c
       0.048410617 0.08364507 0.06925419 0.017524654
0001f0 69 a7 02 3d 46 a0 c2 3c 63 a9 21 3d d8 e9 1d 3d
       0.031897936 0.023758065 0.03946818 0.03855309
000200 99 dd 6a 3d e3 e8 61 bc 28 64 d5 3a 7f 9a c7 3b
       0.05734024 -0.013788435 0.0016280459 0.0060914154
000210 e2 db af bb ab 86 f6 bc 7d d7 32 bd bd 57 61 bc
       -0.0053667882 -0.030093512 -0.043662537 -0.013753829
000220 67 3f 95 bd 0f c1 3a bd a1 48 4b 3d 25 5d da 3d
       -0.07287484 -0.04559427 0.04962981 0.10662297
000230 f0 50 01 3d f3 a8 a3 bc 5f 7b 0d 3d ce fe 81 bd
       0.03157133 -0.019978022 0.034541484 -0.06347428
000240 9e 48 94 bb 20 bc 32 bd 5b a3 c8 bd f9 bd 8f bd
       -0.004525258 -0.04363644 -0.097967826 -0.07018656
000250 c5 a3 08 bd 27 02 a3 bc 72 69 6e bc d1 3c 0a bd
       -0.033359308 -0.019898487 -0.014551507 -0.033749405
000260 45 fd f8 3c 41 9e b9 bc 5f 7e 08 3d 23 f6 46 3d
       0.030394206 -0.02265847 0.033323642 0.048574578
000270 4e e3 27 3d b2 db 41 3d 2b 71 30 bc 22 12 9d 3c
       0.04098826 0.04732866 -0.010769169 0.019173685
000280 c5 86 c1 3c 53 7d 95 3d 6d b5 88 3d 66 2f 9d 3d
       0.023623833 0.07299294 0.06675229 0.07675056
000290 7f ed cc 3d 03 17 47 3c a2 0e a8 3d ee 5f a5 3d
       0.10006236 0.0121514825 0.08205916 0.08074938
0002a0 57 35 b6 bc 5b 04 76 3d ea 9d ac bd e0 1b b6 bd
       -0.022242231 0.060062747 -0.08428557 -0.088920355
0002b0 3e ca ef bc ca 74 da bd 68 8c 0b be eb d9 e3 bd
       -0.029271241 -0.10666807 -0.1362778 -0.11125549
0002c0 01 31 cf bd b5 c6 a4 bd 0c 16 e3 bd fa b0 ad bd
       -0.10116769 -0.08045713 -0.110881895 -0.08481021
0002d0 41 5d 87 bd 42 71 46 bd d1 4c 8f bd 28 a7 da 3a
       -0.06609584 -0.048447855 -0.069970734 0.0016681897
0002e0 39 40 ed ba f2 86 28 bd 66 08 97 bd c4 cf bc bc
       -0.0018100805 -0.04114432 -0.07374649 -0.02304829
0002f0 6e a7 8e bd f1 e9 1f bd 03 55 4b 3c 00 d3 53 3d
       -0.069655284 -0.039041463 0.012410405 0.051714897
000300 bb 92 00 3e d4 32 14 3e 7e 41 48 3d 23 87 cb 3d
       0.12555973 0.14472514 0.048890583 0.09937885
000310 26 83 5c 3c 25 f0 40 bc c4 e0 5f bd 96 c9 0f be
       0.013459003 -0.011776005 -0.054657713 -0.14041743
000320 fa 22 93 bd 74 6b 03 be 62 3e 20 be 3d 5c 8a bd
       -0.071844056 -0.12833959 -0.15648797 -0.06755874
000330 53 68 8d bd 09 2a 8a bd 70 03 6e bd 49 e8 58 bd
       -0.06904664 -0.06746299 -0.058108747 -0.0529559
000340 0d d4 94 bd 61 c2 72 bd 47 cd 6b bd 2f 6a bf bd
       -0.07267008 -0.059267405 -0.057568815 -0.09346425
000350 cc d7 a5 bd 94 63 b6 bd 00 f8 72 bd 9b d8 4c bd
       -0.080978006 -0.08905712 -0.059318542 -0.05001126
000360 00 2c 9a bd 22 26 40 bc 19 58 a1 bc df 05 0c bd
       -0.075279236 -0.011727842 -0.019695329 -0.034185287
000370 39 28 d5 3c c5 6f 08 3d 67 23 12 3d 08 d1 c4 3d
       0.026020156 0.033309717 0.035678294 0.09610182
000380 b3 ec 97 3d 7f 12 bc 3c 06 40 17 bc ff e8 7e bd
       0.07418194 0.022958038 -0.009231573 -0.06223392
000390 a6 17 52 bd c3 73 ce bd 9d ed f9 bd fb fe 1e bd
       -0.051292084 -0.100806735 -0.12203524 -0.038817387
0003a0 06 75 bf bd 9d b3 79 bc ca fb 06 bc a7 4d 1e bd
       -0.09348492 -0.015240577 -0.008238742 -0.038648274
0003b0 e1 08 d4 bc fc 33 1f bd f4 7c 6c bd 37 fb ab bd
       -0.02588314 -0.038867936 -0.057736352 -0.08397525
0003c0 21 7b 36 bd 43 cd 9f bd b6 06 09 be a2 f3 43 bd
       -0.04455102 -0.078028224 -0.13381466 -0.04783977
0003d0 3a f9 59 bd 48 25 85 bd a6 f3 79 bd 8b 3f 96 bc
       -0.053216197 -0.065012515 -0.061023377 -0.018340847
0003e0 7a 46 3b bd ef ac 6e bd d9 af d2 3c be 7a b9 3d
       -0.04572151 -0.05827039 0.025718616 0.09056614
0003f0 6b a2 9a 3c ee b2 76 bd 28 c9 58 bd fa ce 51 bc
       0.018876275 -0.060229234 -0.052926213 -0.012805695

fc1.bias f4 [64]
000000 82 39 12 bd 5c 1d aa 3d 38 21 92 be b2 8c 02 3e
       -0.035699375 0.08306381 -0.2854097 0.12748984
000010 26 c8 01 3c 8d 6a 29 be 92 a0 42 3c da 62 90 3e
       0.007921254 -0.16544552 0.011879103 0.28200418
000020 fd 13 6a 3d fe f6 62 be 3c 62 b9 3d 69 8a 01 be
       0.05714797 -0.22164533 0.0905194 -0.12650456
000030 ce 42 69 bd 50 0e 8f bd 6c 5b 0c be b7 fd 27 be
       -0.056948476 -0.06985152 -0.1370675 -0.16405378
000040 1d 3d 11 bd 2f f2 8b 3d f2 67 50 3e f3 aa db 3d
       -0.035458673 0.06833302 0.20352152 0.10725965
000050 a9 fa 11 be d1 73 b2 bd ad 82 1d 3e 51 72 9a bd
       -0.14255776 -0.087134965 0.1538188 -0.075413354
000060 bf aa 24 3e e8 e3 04 3e 4d d5 2d be 2a 9c 91 3e
       0.1608076 0.12977564 -0.16975899 0.28439456
000070 8c 30 a4 bd f1 cd bd 3d 91 b9 77 3e f6 28 3a be
       -0.08017072 0.09267796 0.24191882 -0.18179688
000080 f5 27 ae bd 1b 42 fb bb 5b 99 a3 3d 57 3c 90 3d
       -0.08503715 -0.0076677925 0.079882346 0.07042759
000090 3c 2f 2c be 00 26 6d 3e 79 e1 a5 3e 99 2c 49 be
       -0.16814893 0.23159027 0.32398584 -0.19645919
0000a0 64 21 97 3d 8e b6 80 3d ad 8a 51 bd de 95 c3 3d
       0.07379416 0.062848195 -0.051157642 0.09550069
0000b0 02 71 29 3d c0 b2 62 be 8a 6a e7 bd c5 b7 13 be
       0.04136754 -0.221385 -0.112996176 -0.14425571
0000c0 21 7c 59 be 93 a4 2c 3c 43 36 3a be d8 71 61 bd
       -0.21238758 0.010537284 -0.18184762 -0.05504021
0000d0 ee 39 95 3d 94 76 0f bd e9 e0 3c 3e 4c 21 7b 3d
       0.0728644 -0.035025194 0.18445171 0.06131105
0000e0 a9 85 07 3e 70 5a 3c 3c cf da b6 bd 14 f8 14 3e
       0.13234581 0.011496171 -0.08928453 0.1454776
0000f0 3c 46 d9 bc 6e a8 62 3d df af 49 3e 12 ab 01 be
       -0.026522748 0.05533641 0.19695996 -0.12662914

fc2.weight f4 [10, 64]
000000 b6 52 1a be 9d 8a 2a bd 74 cb 36 3e 9b 56 ee 3d
       -0.15070614 -0.0416361 0.17851049 0.116376124
000010 f6 dc 39 be 88 55 32 3e 78 e5 ba bc 10 4e b8 be
       -0.18150696 0.1741544 -0.022814497 -0.35997057
000020 be 31 8d bd d5 cc 0d 3d 28 0e 93 be 73 6d 5b 3e
       -0.06894253 0.03461917 -0.28721738 0.2142847
000030 60 a1 a2 bb 55 57 32 be 84 59 17 be 57 7c 5e be
       -0.004963085 -0.17416127 -0.14780241 -0.2172712
000040 31 88 07 3e 8f 73 fc bc c8 a4 d4 3d 5c fc 82 3e
       0.13235547 -0.030816821 0.10382992 0.2558316
000050 a3 a3 f9 bc 25 9a 39 3e 87 2b 32 3e 32 56 9b 3d
       -0.030473536 0.18125208 0.17399417 0.075848
000060 1c 4c cc be e9 db f1 be 2f a5 81 3d c0 0a 45 be
       -0.39901817 -0.4723809 0.063303344 -0.19242382
000070 ca 50 bd 3d 10 04 89 3d b0 c5 5e 3e 3b 84 51 3e
       0.09243925 0.06690228 0.217551 0.20460598
000080 93 b8 ff be 36 ee 4e 3e 3b 88 5e be ba e1 84 3e
       -0.49945506 0.20208058 -0.21731655 0.25953466
000090 c3 ce 0a 3e db 36 ef 3d 19 7f ba bc 3b 8d 08 3e
       0.13555436 0.11680385 -0.022765683 0.13335125
0000a0 b6 7a 6c be f0 7c d7 bd 8a ef 64 3d 52 05 b0 be
       -0.23093686 -0.10521877 0.055892505 -0.3437906
0000b0 17 c9 3a 3d 39 0b 0f be bb 7d 48 ba 3f 2e 82 3e
       0.04560193 -0.13969125 -0.000764813 0.25425908
0000c0 a5 d3 93 3e da b3 1b 3e 4b cf b2 3c e3 16 90 3d
       0.2887241 0.15205327 0.02182736 0.07035615
0000d0 5d 8e 37 be 34 bd c9 bd 67 34 42 bd 27 4c 4d 3d
       -0.17925401 -0.09850541 -0.047413256 0.050121453
0000e0 a4 48 53 3d a9 4d 38 be 06 c4 0b 3e e6 54 02 3e
       0.051582947 -0.17998375 0.13648996 0.12727699
0000f0 47 01 4b 3c 46 a6 58 be 66 fe 49 be 14 fb 79 be
       0.012390441 -0.21157178 -0.19725952 -0.24412185
000100 0c 73 2e 3e 0a 8b 84 3e 24 de 99 be 8d 4f 37 bd
       0.17036074 0.25887328 -0.30052292 -0.0447536
000110 46 0b 92 3e f6 25 94 be 09 b2 e0 bd c3 da 12 3e
       0.28524226 -0.28935212 -0.109714575 0.14341263
000120 23 9e fc 3d 4e 13 c1 be 8c 0f 91 be 70 f6 b7 be
       0.1233485 -0.3771004 -0.28332174 -0.35930204
000130 b4 24 12 3e ef 68 f4 bd 06 7c 34 be c8 b8 2f be
       0.14271814 -0.11934077 -0.17625436 -0.17160332
000140 29 cd 00 be 46 1c f0 3d 99 d4 9e be 80 26 94 3c
       -0.12578262 0.11724143 -0.31021574 0.018084764
000150 9a 69 af 3d 29 95 4a 3e 6a 34 80 3e f6 b3 03 3e
       0.08565064 0.19783463 0.2503999 0.12861618
000160 88 fc bf 3d 29 51 8c 3d 20 ca 35 3d 68 b9 38 3e
       0.093743384 0.068514176 0.044382215 0.18039477
000170 a9 73 54 be 5b d2 14 be 7f b2 3e 3e 0b 69 32 be
       -0.20747246 -0.14533369 0.18622778 -0.17422883
000180 dc cb 8d 3c 3a a3 98 bd 94 eb 7a 3e b0 bf 72 be
       0.017309122 -0.07453008 0.24503928 -0.23705935
000190 69 70 49 3e e7 34 69 be 7a fc 2e be 33 5a a0 be
       0.19671787 -0.22774087 -0.170885 -0.31318817
0001a0 72 32 68 3d 20 ad a9 be 74 4c 16 3e 2b 3c 49 3e
       0.056688733 -0.33139896 0.14677602 0.19651859
0001b0 54 ce ce be 57 1b b5 bd 3e b0 df 3d 2a 89 8b 3e
       -0.4039179 -0.08843105 0.109222874 0.27253085
0001c0 e2 5c 94 be b6 fd 65 3d 88 a5 c6 be d0 9b ec bb
       -0.28977114 0.05615016 -0.38798165 -0.0072207227
0001d0 be d1 0d 3e 83 3c 6e 3e 40 24 d3 3d a2 c2 f6 bc
       0.13849542 0.23265271 0.103096485 -0.030122105
0001e0 b9 71 79 3e d3 34 b9 3d 87 25 b4 be 05 12 36 3e
       0.24359788 0.090432785 -0.3518488 0.17780311
0001f0 21 67 ce be a3 72 12 3e e5 f1 41 3e 8a d8 ee 3d
       -0.40313056 0.14301543 0.18939932 0.11662395
000200 40 72 7a 3e 78 8b 11 3e a9 c6 b8 bd 32 4d 93 3e
       0.24457645 0.1421336 -0.090222664 0.28769833
000210 63 df 8b 3e b5 e1 03 bd 6a 7d 9a be 27 4c 2a be
       0.27318868 -0.032197673 -0.30173808 -0.16630612
000220 6b 38 07 be f4 fd 30 be 21 f0 80 be b5 f0 e9 3d
       -0.13205115 -0.17284375 -0.25183204 0.11422864
000230 48 31 da 3d 70 06 2d 3e 60 d8 3a 3d ff 35 2a 3e
       0.10653931 0.16896987 0.045616508 0.1662216
000240 7d f4 14 be f0 a7 8a 3e 21 33 59 bd a9 a1 cf 3d
       -0.1454639 0.2708125 -0.053027276 0.10138256
000250 91 ac 2b bf 3d 61 99 3d fe 97 16 3e e6 17 07 bf
       -0.6706019 0.0748925 0.14706418 -0.5277084
000260 63 71 a5 bd 8f dc 5d 3d 62 65 1f 3e f3 a6 84 3e
       -0.080782674 0.05416542 0.15566018 0.25908622
000270 b9 93 15 3e 28 ba b5 bd 7f 4e e7 bc 3e 76 1a be
       0.14607133 -0.08873397 -0.028235672 -0.15084168
000280 89 13 74 be 27 48 9a 3d bc 12 80 3e 82 fc ba be
       -0.23835577 0.07533293 0.25014293 -0.36520773
000290 cf 2c 49 3e 3a 7a 5b 3e 6f df d8 3d 92 d5 62 3c
       0.19646 0.21433344 0.105894916 0.013844864
0002a0 a1 ee 29 be 74 18 13 be 52 74 33 3e fe ea b3 3e
       -0.16594936 -0.14364797 0.17524841 0.35140222
0002b0 85 7d 2f 3e 9a 79 da 3d c4 c5 de bd 42 95 65 3e
       0.17137726 0.10667725 -0.108775645 0.22420219
0002c0 74 18 21 3e 46 3a 22 3e 02 64 f6 bc 7c 19 c2 bd
       0.15731984 0.15842542 -0.030076984 -0.09477517
0002d0 0a 5e b4 be cb 13 60 be ab 52 70 3d aa ea a9 3b
       -0.35227996 -0.2188255 0.05867259 0.005185445
0002e0 81 c4 84 3e b3 61 ee 3e b8 9c 80 3e dd 5a ef be
       0.2593117 0.46558914 0.25119567 -0.4674901
0002f0 fb b9 14 be cf 75 70 3e 67 92 23 bf 58 ca 07 3e
       -0.14524071 0.2348244 -0.6389527 0.13260782
000300 73 b0 3b be e7 2b 63 3d db d4 a8 bd b9 9c 3a 3e
       -0.18329029 0.05546179 -0.08243724 0.18223847
000310 9e 13 98 3e 63 06 03 3e a1 49 e4 be 1f e0 4b be
       0.29702467 0.12795405 -0.44587424 -0.19909714
000320 94 10 85 be e6 2d 30 3e 8a b4 df 3d e8 36 d4 3d
       -0.2598921 0.17205009 0.10923107 0.10362035
000330 be c0 8b 3e 02 d1 a6 3d 6c 48 4a 3e 5d e1 3d 3d
       0.27295488 0.08145334 0.19754189 0.0463575
000340 12 40 5a be 73 00 0e 3e 01 b5 85 bd 8a c6 09 be
       -0.21313503 0.13867359 -0.065286644 -0.13454643
000350 0d fe b1 3d c5 12 04 be 38 e9 c7 bc 3b dd d2 3c
       0.086910345 -0.12897785 -0.0244032 0.025740257
000360 f4 e6 56 3e 9c 7e 08 3e 15 63 c8 bd f5 6a 2f bc
       0.20986539 0.13329548 -0.097845234 -0.010706653
000370 cd a5 40 be 82 d3 b2 be c2 33 e0 3c 81 5a 4b 3d
       -0.18813248 -0.34926993 0.02736843 0.049646858
000380 00 62 fe 3d b9 d9 20 3e 37 45 47 be 11 27 36 be
       0.12421036 0.15708055 -0.19459997 -0.1778834
000390 0d 2c b6 be 91 d5 ae bd 74 be c0 be 82 ca 79 be
       -0.35580483 -0.08536828 -0.37645304 -0.24393657
0003a0 11 f7 e6 3d b2 bf 8a 3e b0 bd 1f 3e 91 a4 e9 3d
       0.11277593 0.27099377 0.15599704 0.11408342
0003b0 00 0f 35 3d ad 11 a6 3b 52 97 33 3e 90 6b c3 3d
       0.04420376 0.005068025 0.17538193 0.09542
0003c0 a7 19 b0 3d 46 a2 89 be b9 b1 e0 bc b0 56 c3 bd
       0.08598643 -0.26881617 -0.027428495 -0.09538019
0003d0 8c 14 00 be 56 e1 86 3e 5a 67 82 3e 47 55 5c 3e
       -0.12507838 0.26343793 0.25469476 0.21516906
0003e0 2b fa 93 3d 87 a7 95 be fb 96 1f 3e 91 67 af 3e
       0.0722545 -0.29229376 0.15584938 0.34258702
0003f0 d0 68 b6 bd 5f 48 7e b8 3e bf ba be f6 16 30 bd
       -0.0890671 -6.062572e-05 -0.3647403 -0.042990647

fc2.bias f4 [10]
000000 3c 13 c9 bd ae f1 1c 3e 34 65 1e bc 4f 0a ca bd
       -0.09818122 0.15326568 -0.009667683 -0.098652475
000010 e4 ff a6 bd 1c be 21 3e 9f 82 e0 bd 93 e7 e7 3d
       -0.08154276 0.15795177 -0.10962414 0.11323466
000020 73 6a 28 be 40 a7 99 bd
       -0.16446857 -0.075026035
